models/A0_6610165.pt (torch_old, 3768 bytes, 4 tensors)

fc1.weight f4 [50, 4]
00000000: e053 413f 2f2c 9abf 3886 233f a73a fd3f
00000010: 23ec 70bf b5c1 0f3e 6f75 d3bf dff8 e93f
00000020: 83c3 be3f b89d d2bf 97f1 2140 88c4 753f
00000030: 9ca1 8ebf a563 653f 45a5 d2be bbed 983f
00000040: ec9d 0840 da1b d6bf 3719 ef3f 39a2 823f
00000050: aaf8 14be 2bb7 b1bc 0b73 cbbf b000 c63f
00000060: b902 23bf 7c33 dabe 1ffc 38bf 4c4c 70bf
00000070: 678e f3bd 2550 fa3e ff23 86bf 6295 04bf
00000080: da13 6e3f c7a6 953f 40a8 263e b3d1 2cbf
00000090: b2ac c73f 12e0 a5bf 9375 f23f b89a c53f
000000a0: f423 b23e 60e3 d53d 7092 9b3d ccd8 5dbf
000000b0: faac 1c3f 308a 33bf b815 3e40 16f0 5e3f
000000c0: fac4 86bf 69d9 173f 4614 cebf 8e93 b13b
000000d0: 80e0 67bf 714b 91bf d935 dcbf cafc a63f
000000e0: 443e a43e 5027 8d3d e6a3 1cbf b400 90bf
000000f0: a7c7 69bd eaec 883f d656 d3bf bd0c 3cbf
00000100: 171f 63be 0963 c9bf e5de 9b3f c435 b13e
00000110: dd33 38bf 84c0 b33e f0e2 8ebf 8a1f e53e
00000120: 58e4 45bf de35 91bf 5156 4f3e dd2c 8b3f
00000130: d7ce 40bd 2a16 a93e 351e 14bf 2ed0 343f
00000140: 17b9 13bf fd6d e93f 2dc9 5c3f 79ca 2fbf
00000150: e922 0940 a9e2 a7be 9aa2 08bf f039 ab3f
00000160: ae93 73bf cfe9 c2be c1f2 11be 4a9d 023f
00000170: 92f4 e93f 6cb3 c0bf bafe eabe be5b 01bf
00000180: b2ae 603e 96ff 693e 7172 9fbf 73c6 683f
00000190: e92a b73f e28d 36bf 3fe4 3d3f a48c f93f
000001a0: 7234 773e 5952 adbf 4207 27be 8e98 b73f
000001b0: b25a 9e3f aa74 723d 3926 af3e bcff ad3f
000001c0: d494 ccbf bc05 4a3f 44bb 803f c586 bcbf
000001d0: 288c 1fbf 9f8f 5a3e 7f0a f3be 2e21 633f
000001e0: 5cef 133e 31b7 6b3f 9f56 c3bf 0e0c 3bbd
000001f0: 7672 6abf 4107 953d c720 8a3e df5e 583f
00000200: 6f40 84bf 8f2f 053f 4092 e3bf b154 a33f
00000210: 539a 52bf 87ac e6be 61eb 9bbf e2a8 cbbe
00000220: 9599 1e3e 4f4c b13f 8714 d03f fffc 303e
00000230: 9747 acbe 822d 1cbf fec2 6cbf 7110 c53f
00000240: dce8 b33e 7042 b1be fd38 a8bf 154e c53f
00000250: 2c69 8cbf ec40 933e f648 233f 6aa1 b53f
00000260: e93e cc3f 6f4f 30bf 63c2 883e 89d6 1540
00000270: 1c7a cf3f 0e87 043f 5612 3fc0 5f72 603e
00000280: 9bd6 eebd fc2c 703f 3454 87bf 7398 9dbe
00000290: fc86 f93f fadb e9bf ab15 523f 6a4f 5fbe
000002a0: dd9e 8e3f ff6e 873f 58b4 7a3e 58e1 44bf
000002b0: 9c50 433f e742 a7bf cbd9 4e3e 6934 0340
000002c0: 8e12 293f 4128 a43e 37a8 72bf 2ec4 963f
000002d0: af64 3b3d 06bc 123f 5cf7 9c3f 1b08 0d3f
000002e0: 0bb4 8ebf eaa8 583f 0bc5 9fbf 3dd6 97be
000002f0: 9abe 413f c497 a5be 9868 ba3e fdf2 a73f
00000300: 50a8 383f 6a74 88bf 54f7 043f 3e7a e93f
00000310: ae6f 4e3f bbc4 be3e 9eea 90bf 2ff6 8c3f
0.7551861 -1.2044734 0.63876677 1.9783524 -0.94110316 0.14038737 -1.6520213 1.8279074
1.4903415 -1.6454382 2.5303705 0.9600301 -1.1143069 0.8960517 -0.41141716 1.194755
2.1346388 -1.672725 1.867957 1.0205756 -0.14547983 -0.021693787 -1.5894483 1.546896
-0.6367603 -0.42617404 -0.72259706 -0.9386642 -0.118923955 0.4888927 -1.0479735 -0.5179044
0.9299904 1.1691521 0.1627512 -0.67507476 1.5599577 -1.2959006 1.8942131 1.5437841
0.34793055 0.10443759 0.0759629 -0.8665893 0.6120144 -0.7013273 2.9700756 0.8708509
-1.0528862 0.59316117 -1.6099937 0.005419201 -0.90576935 -1.1351148 -1.7203933 1.3045895
0.32078755 0.06892264 -0.6118759 -1.1250215 -0.05707517 1.06973 -1.6510875 -0.7345694
-0.22179829 -1.5733348 1.2177397 0.34611332 -0.7195414 0.35107815 -1.1163006 0.44750625
-0.7730155 -1.1344564 0.20247771 1.0873066 -0.047072258 0.33024722 -0.5785859 0.70630157
-0.577043 1.8236691 0.8624447 -0.68668324 2.1427557 -0.32790115 -0.5337311 1.3377056
-0.95147216 -0.38069007 -0.1425276 0.51021254 1.8277762 -1.5054755 -0.45897466 -0.5053061
0.21941641 0.22851405 -1.24568 0.9092781 1.430997 -0.71310246 0.741764 1.9496045
0.241411 -1.3540756 -0.16311362 1.4343431 1.2371428 0.05919329 0.3420885 1.3593669
-1.5982919 0.78915 1.0057149 -1.4728628 -0.62323236 0.2134385 -0.47468945 0.88722503
0.14446777 0.920764 -1.526081 -0.045665793 -0.91580904 0.07276774 0.26978132 0.8451976
-1.0332164 0.52025694 -1.7779007 1.2760221 -0.8226673 -0.45053503 -1.2181207 -0.39777285
0.15488274 1.3851413 1.6256264 0.1728401 -0.3364837 -0.6100694 -0.92485034 1.5395643
0.35138595 -0.34621 -1.3142391 1.5414454 -1.0969596 0.2876047 0.63783205 1.4189885
1.5956699 -0.68871206 0.26710805 2.3412192 1.620914 0.5176858 -2.9854941 0.21918629
-0.116620265 0.9381864 -1.0572572 -0.30780372 1.9494319 -1.8270257 0.8206431 -0.21807638
1.1142231 1.0580748 0.24482858 -0.7690635 0.76294875 -1.3067292 0.20200269 2.0500739
0.6604394 0.3206196 -0.94787925 1.1778619 0.045750316 0.5731815 1.2262988 0.5509049
-1.1148695 0.8463274 -1.2482008 -0.29655638 0.7568146 -0.3234235 0.36407924 1.3121029
0.72131824 -1.0660527 0.5193989 1.824043 0.8063916 0.37259468 -1.13216 1.1012629

fc1.bias f4 [50]
00000000: ed2f a33f 6b3e 923f 1220 3140 38dc f63e
00000010: fa16 ec3f 89bc 0d3f acc0 e7be d737 99bd
00000020: 9056 6abe 1e17 fa3f b081 7f3e 7c1c fe3f
00000030: 7714 6dbf d04e 3c3f 925b 8d3e 21f9 7bbe
00000040: 378c e43e 9225 ab3e 056c b73d ab53 183f
00000050: 66ca 723e a187 a33f 37c7 a33e 52e6 88bf
00000060: f01f 923f c18b c73f 605b f93f c2e2 683f
00000070: 830e 4fbf c346 dc3e f46e f5be 68f5 923e
00000080: bae2 003f a53c a6be 5098 b63e eaa1 593f
00000090: 636b 933f d0e8 f83e 584e ee3f 438c bdbe
000000a0: 7bfa 8bbe 2f7b 6c3f ec23 583e 202f cf3f
000000b0: 4551 063f 9ce9 b43e 7d6d 58be e6cb 753f
000000c0: 8c78 ad3f 967a a73e
1.2749001 1.1425298 2.7675824 0.4821489 1.8444512 0.55365807 -0.45264184 -0.07481354
-0.22884583 1.9538305 0.24951816 1.9852443 -0.9260935 0.7355776 0.27608925 -0.24606754
0.44638225 0.334271 0.0895615 0.5950267 0.23710021 1.2775766 0.31987926 -1.0695288
1.1415997 1.5589525 1.948101 0.90971005 -0.8088152 0.43022737 -0.47936213 0.28702855
0.5034596 -0.32468143 0.3566308 0.85012686 1.1517147 0.48615122 1.8617659 -0.37021074
-0.2733954 0.92375463 0.21107453 1.6186256 0.5246776 0.3533448 -0.21135516 0.9601425
1.3552413 0.32710713

fc_out.weight f4 [10, 50]
00000000: 680a a33f 6df7 37ba a3e7 5cbf 3ce0 04bd
00000010: 48d3 35be 64e9 8cbe 37ab 8e3e b6af 53be
00000020: c5d4 2abe 6086 f8bf b8db 9abe da1e 02c0
00000030: c143 6cbe ee3d 44be d8cc 7cbd 0acc 12bf
00000040: 26a8 1c3f 9b78 bcbe d30c e2bd 72fc 35be
00000050: 7f82 603f 9b97 9ebe f592 b3be 57cc 73bf
00000060: 4d44 b8bc ce81 6b3f c171 f73e 6f01 403f
00000070: ecb1 5d3f 6032 a9be e87d 72be 1a24 0bbe
00000080: 00b1 c8be 0acd 01bf bbfc 443f 29c5 99be
00000090: 16e6 cabe 44eb 643e ec79 4c3f cb5c 89bf
000000a0: 384b c9be 36c9 f1bd 0fb4 9bbe b350 9a3f
000000b0: 438b c6be ba3c fa3e 4c7d 433d 072c 9e3f
000000c0: 260c 643f ba6d a2bd 1c35 833f b91d 26be
000000d0: 0ce5 5fbf e31d 37be 492a 54bf fe23 b4be
000000e0: 6954 833e d3c7 483d 1671 03be 0613 a9bf
000000f0: ad0f 9cbe b3e0 74bf a368 503e 9cf4 24bf
00000100: 0a46 683e eaec d0be 4637 8c3e cee2 72be
00000110: dd2b a8bd 0808 9ebd 5d39 883f 9687 5f3e
00000120: 366d 4d3d 281b 59bf c796 52bd dc18 223f
00000130: e3b8 713f dd67 193f 5d9b 4c3f 5b22 dabe
00000140: 0119 bfbe cfae bfbe 497d a8be 74c2 fcbe
00000150: 502d 513f f654 89be 42e2 01bf cce8 233e
00000160: 0840 683f fc3c 38bf c51f b3be dadc eebe
00000170: 4447 1d3e f3be 733f 4e85 7bbe e5b4 0b3e
00000180: a296 bbbe 327d 7c3f f73a 8f3f cc00 0cbf
00000190: 0cb7 433f 2b75 b5be aba8 90bf f3f8 de3d
000001a0: 68c2 6ebf c31f f7be 5d59 813e f9df 3abd
000001b0: c085 7d3c 9c5e 9cbf 71d6 4ebe 4ff9 92bf
000001c0: 0bc6 953c 32b8 febe 4c92 8e3d ce2e 103c
000001d0: 59e5 babe a72c aabe 055f c6be fb43 d4be
000001e0: ef7e 603f 5960 1b3f 7e62 9ebd 2a18 5abf
000001f0: efd1 55be b094 1b3f 11fe bb3f 091a 4a3f
00000200: a7bf 8d3f e17b d0be beff f4bc 913b d1be
00000210: e2da dc3c 5923 35be 9a0a 973f 7c0a 1dbf
00000220: c4e7 1fbf 050c a3be 3111 ac3f 2d1c 9cbf
00000230: c624 15be 346f 45be 4c56 883d 1156 8e3f
00000240: c410 30be 04ee cf3e 13fc b3be 92a6 3b3f
00000250: 4ae9 863f d567 9cbe f8f9 863f d489 c4be
00000260: fc5b 82bf 2ea6 c9be 45f8 65bf b40d 233d
00000270: aeb6 95be 3040 d6be 227a e3bd b0a4 8dbf
00000280: 840a 1bbe cb1c 59bf d812 b4be 0f67 9cbe
00000290: 5256 1cbe 2300 0abf e2ca bfbd 0b02 dcbe
000002a0: 183f 12bf f611 98be 1263 743f 9ec1 123f
000002b0: 0c3c 62be 9387 86bf 3442 01bf 19f5 4e3f
000002c0: 2edc 223f 2778 243f c832 2e3f 6604 3bbe
000002d0: 61cc 94be dbed a2be 594c 87be 9605 71be
000002e0: 2d14 143f e686 ebbe 14a1 b2be f115 f83d
000002f0: 1fe3 893f c628 3cbf d483 94be b5e8 ebbe
00000300: 2483 e03d ac29 813f b4bb abbd a99f 623c
00000310: 7a5a d3bd 2218 5d3f 9d74 4d3f 8dda c4bd
00000320: f263 773f 6ca8 febe d90c 94bf 16d1 2abd
00000330: 552b 44bf 9028 b5bd 8031 2dbd 2214 13bd
00000340: f276 403e 0f7b 21bf 41d8 893e 660f 7bbf
00000350: 6c5d 12bd 58cc 5abe 1067 eabd 2a9f f4be
00000360: 85b9 6dbe 8afe a7be fba2 ddbe 36c5 47be
00000370: 2688 9a3f bc24 063f 78c8 933d 4e0c 89bf
00000380: 43e7 0cbf 3910 613f d210 5c3f 3ec7 883f
00000390: 344f 383f 82f9 6cbe 67ce a1bd 1e04 92bd
000003a0: d3ab cdbe c5ee bbbd b395 913e 5582 99be
000003b0: 158a 80be 7fd0 10be 5b49 4f3f b6f7 24bf
000003c0: 2a90 a8be ddb3 03bf 0c77 ff3d 13ec 723f
000003d0: d54e f1be d4f9 543e 3434 01bf c900 3d3f
000003e0: 6a25 183f 0412 acbe 7306 463f 9bd6 90be
000003f0: 7031 69bf 0f02 a3bd 5d62 79bf 15d3 a2be
1.2737551 -0.00070177653 -0.8629095 -0.03244041 -0.17756379 -0.27521813 0.27865002 -0.20672497
-0.16682728 -1.9416008 -0.30245757 -2.033133 -0.23072721 -0.1916425 -0.06171879 -0.5734259
0.61194074 -0.36810765 -0.11037602 -0.17772081 0.8769912 -0.3097504 -0.35073057 -0.9523367
-0.022493506 0.9199494 0.48328975 0.7500219 0.8659961 -0.33046246 -0.23680842 -0.1358799
-0.3919754 -0.5070349 0.76948136 -0.30033234 -0.39628667 0.22355372 0.7987354 -1.0731443
-0.393152 -0.11805956 -0.3041081 1.2055877 -0.38778123 0.48874456 0.047726914 1.2357186
0.8908104 -0.07931085 1.0250583 -0.16222276 -0.8745887 -0.17882495 -0.8287702 -0.3518371
0.25650337 0.049018692 -0.12836108 -1.320893 -0.3048071 -0.95655364 0.20352416 -0.64435744
0.22682968 -0.4080575 0.2738592 -0.23719332 -0.08211491 -0.077163756 1.0642506 0.21829066
0.05015298 -0.8480706 -0.051413324 0.6331918 0.9442274 0.5992411 0.79924566 -0.42604336
-0.37323764 -0.37438056 -0.32908085 -0.49367106 0.81709766 -0.26822633 -0.5073587 0.16006774
0.90722704 -0.71968055 -0.34985176 -0.4665287 0.15359217 0.9521324 -0.2456257 0.13643225
-0.3663836 0.9862853 1.118987 -0.54688716 0.7645118 -0.35440955 -1.1301473 0.10887327
-0.9326539 -0.4826642 0.2526349 -0.045623753 0.015473783 -1.2216372 -0.2019899 -1.1482333
0.01828291 -0.49749905 0.06961498 0.008800222 -0.36503103 -0.33237192 -0.3874437 -0.41458115
0.87693685 0.6069389 -0.0773363 -0.8519312 -0.20880865 0.60773754 1.468691 0.78945976
1.1074113 -0.40719512 -0.029907104 -0.40865758 0.02695984 -0.17689265 1.180011 -0.6134412
-0.6246302 -0.31845108 1.3442746 -1.2196099 -0.14564809 -0.19280702 0.06657085 1.1120015
-0.17193896 0.4061128 -0.35153255 0.7330104 1.0539944 -0.30547968 1.0545034 -0.38386405
-1.0184321 -0.39384598 -0.89831954 0.03980799 -0.29240936 -0.41845846 -0.11107279 -1.1065884
-0.1514073 -0.8480956 -0.35170627 -0.30547377 -0.15267304 -0.5390646 -0.09364869 -0.4297031
-0.57127523 -0.29701203 0.9546367 0.57326686 -0.22093219 -1.0510124 -0.5049164 0.8084274
0.6361722 0.6424584 0.68046236 -0.18263397 -0.2906218 -0.31822094 -0.26425436 -0.23537287
0.57843286 -0.46001357 -0.34888518 0.1211356 1.0772437 -0.73499715 -0.29006827 -0.4607598
0.10962513 1.0090842 -0.08385411 0.013832011 -0.103199914 0.8636495 0.8025606 -0.09611998
0.9663688 -0.4973787 -1.1566421 -0.041703306 -0.7662862 -0.08845627 -0.042283535 -0.035907872
0.18795374 -0.630784 0.269228 -0.9807037 -0.035733625 -0.21367013 -0.11445439 -0.47777683
-0.23215301 -0.32811385 -0.43288407 -0.19508824 1.2072799 0.523998 0.07215971 -1.070688
-0.5504038 0.8791538 0.85963166 1.0685804 0.71995854 -0.23142055 -0.07900696 -0.071296915
-0.40170154 -0.09176401 0.28434524 -0.29982248 -0.25105348 -0.14142035 0.80971307 -0.64440477
-0.32922488 -0.51446325 0.12473878 0.9489147 -0.47130457 0.20798427 -0.5047028 0.73829323
0.5943209 -0.33607495 0.7735359 -0.2828873 -0.9109106 -0.07959377 -0.97415715 -0.31801668

fc_out.bias f4 [10]
00000000: 3a83 433d c104 94bd 8a9a bfbe cd39 08be
00000010: 16f5 88be f988 2fbe a738 30be 6fc0 d7be
00000020: 1617 8ebe be1a 3cbe
0.04773257 -0.07227469 -0.3742259 -0.13303299 -0.26749486 -0.17142095 -0.17209111 -0.42139003
-0.27751988 -0.18369576
