models/demo_A0TOKYO_15_36_12_314.pt (torch_old, 3768 bytes, 4 tensors)

fc1.weight f4 [50, 4]
00000000: d427 0bc0 7b82 c53f ab7a 78be 9a03 633e
00000010: 9e11 483f 6d2a 31bf 6a65 a7bf 8d0a c63d
00000020: 96d5 f2be e8c2 6c3f 10f5 0ebf 72bc 443f
00000030: ba88 05c0 531b 6e3f dfdf 8dbf 966e 7ebf
00000040: 0413 f03c 1a7b 71bf 6ddb aebf dfe0 19bd
00000050: 82dc 243f e5f8 20bf 813a bcbf 319c f9bf
00000060: 38ec b53f b9d3 dabf 758e 92bf a1e7 15bf
00000070: 7d10 dfbf b756 b43f 622f 94bf 8dad 4cbf
00000080: 7dbe bbbf 352a c63f d1ec 59bf 81aa ddbf
00000090: ec15 fbbd fc80 9e3e ee21 8e3e ae01 2a40
000000a0: 5d8f 4dbf bbd7 0c40 546e cabe 454f bcbf
000000b0: d96e bbbe b910 853d a19a 343e 8ae6 96bf
000000c0: 66e0 1bbf 540d 29bf a10a 23bf 523a d8bf
000000d0: 928f 473f 53ad 8e3e 6645 893e c321 80bf
000000e0: 4a86 e03c 6dec 08c0 909f ed3d 1def 88bf
000000f0: e266 b33f 37ff 30bf 1436 063f 74b1 babf
00000100: dfa1 fbbf cbf2 9a3f 006f 96bf 89de 9cbf
00000110: c603 c2bf beca b33f fbf3 a7bf 060d a3bf
00000120: f084 db3e 27b4 6a3e 849c 9a3d 521d 1b40
00000130: fdbf cfbe e8ea 2f3e cd74 bdbf 3da9 76bf
00000140: 7115 aabf c17c 8c3f e187 f6be 7d07 b6bf
00000150: a3cc ff3e 872f 9d3f 6982 babf a7f7 253e
00000160: b7cc 96bf 9b17 c03e d615 943f dba2 1c40
00000170: d383 f8be 6b2a 0c40 6a6a b63f 72ed 26be
00000180: 9fbc 0f3f 6a13 2dbe edb9 97bf 1744 21c0
00000190: 77cd c03e b68c f5be bd49 a2bf 0d7d d8be
000001a0: e939 c13f 8df7 84be 02d3 4a3f c194 bb3f
000001b0: dce4 1340 e9cb 02c0 92b1 6c3f 334e 96be
000001c0: e790 f1bf 463f 0440 649c 2ebf fa31 e93e
000001d0: 1a6c f4be 0af4 69bc e424 f1bf 569e 0bbf
000001e0: 57fe 6a3f 5ed0 63bf 06d9 cdbe f248 14bf
000001f0: e51e 86bd c73d 623d f795 abbd d688 4dbf
00000200: 5e8c e73e 5995 bfbf 67da 8dbf 9090 a6bf
00000210: 1fa9 c1bf de11 0740 2090 21bf 2598 a8bf
00000220: 0d75 3f3f 1209 663f 1975 323f 1a3c f13e
00000230: eacb eabe b4ae 983e 80c8 98bf 32d8 563f
00000240: 2162 6ebf ba58 e63e 6535 99bf ec3e 9dbf
00000250: cc1f 0bc0 7a25 16bd e5fe 663f 7c33 643f
00000260: eaf0 01be be6b 693d 71db 1d3c 36d8 2240
00000270: 2203 44be d8c3 8c3f 276c 79bf 4227 b3bf
00000280: 116b e2bf 95d8 a2be 37ac 793e 9738 d03e
00000290: 421d 04bf 2144 8c3f feed 4ebf 3990 c6bf
000002a0: 0b5c 9d3f b98a 00c0 e26c 823b 85c3 a33d
000002b0: 5f43 f6bf bae8 ab3e cc1d b03f 4a68 873e
000002c0: b505 133e 31fe b5bf 9127 c8be 589c 0dbf
000002d0: 6d24 683f be52 95bf 9567 9e3e fdab 8a3e
000002e0: 1bbe 57bf 794f d83d 8a15 86bf 19ba 8b3f
000002f0: c8d4 b3be 5713 b7bf 6604 0b3f 1f14 f6bf
00000300: b7f1 56bd dc86 b23f 44f1 343f 08cd dfbf
00000310: 8166 24bd f68f c03e 3317 8ebf eabd c3bf
-2.174306 1.5430444 -0.24265544 0.22169343 0.7815188 -0.6920536 -1.3077824 0.09669981
-0.47428578 0.92484903 -0.55842686 0.76850045 -2.0864701 0.93010443 -1.1083945 -0.9938749
0.029305942 -0.94328463 -1.3660713 -0.03756797 0.6439897 -0.6287978 -1.4705354 -1.9500791
1.4212713 -1.7095863 -1.1449724 -0.5855656 -1.7426907 1.4088963 -1.157696 -0.7995232
-1.4667507 1.548163 -0.8512698 -1.7317659 -0.12260041 0.30957782 0.2776026 2.6563525
-0.8029688 2.2006671 -0.395373 -1.4711691 -0.36608008 0.0649733 0.17637111 -1.1789105
-0.6088928 -0.6603596 -0.63688093 -1.6892798 0.77953446 0.2786661 0.2681076 -1.0010303
0.027407784 -2.1394303 0.116027 -1.0697972 1.4015772 -0.69139427 0.52426267 -1.4585404
-1.9658774 1.2105345 -1.1752625 -1.2255412 -1.5157402 1.4046247 -1.3121332 -1.273835
0.4287486 0.22920285 0.07549384 2.4236646 -0.40576163 0.17179453 -1.480127 -0.9635199
-1.3287793 1.0975572 -0.48150542 -1.4221035 0.49960813 1.2280129 -1.4571048 0.16207753
-1.1781224 0.3751801 1.1569164 2.44744 -0.48538074 2.190089 1.4251225 -0.16301516
0.5614719 -0.16901937 -1.1853615 -2.5197809 0.37656757 -0.47958916 -1.2678753 -0.42282906
1.5095798 -0.25970116 0.7922822 1.4654771 2.3108435 -2.0436957 0.9245845 -0.29356536
-1.8872346 2.066362 -0.68207383 0.45545942 -0.47738725 -0.014279375 -1.8839383 -0.54538476
0.9179434 -0.8898982 -0.40204638 -0.57923806 -0.065488614 0.055234697 -0.08378213 -0.8028692
0.4522428 -1.4967452 -1.1082276 -1.3012867 -1.5129737 2.1104655 -0.6311054 -1.3171431
0.7478798 0.8985759 0.69709927 0.47116166 -0.458587 0.29820788 -1.1936188 0.8392364
-0.9311848 0.44989568 -1.196942 -1.2284827 -2.1738157 -0.036656834 0.9023269 0.8914106
-0.12689558 0.056987517 0.009634838 2.5444465 -0.1914182 1.0997267 -0.9743065 -1.3996356
-1.7688924 -0.31805864 0.24382101 0.40668175 -0.51607144 1.0958291 -0.808319 -1.5512763
1.2293714 -2.008467 0.003980265 0.07996277 -1.923931 0.33575994 1.3759093 0.26446754
0.14357646 -1.4218198 -0.39092687 -0.55316687 0.9068058 -1.1665876 0.30938402 0.27084342
-0.8427445 0.10562033 -1.0475323 1.0916167 -0.35123277 -1.4302777 0.54303586 -1.922489
-0.05247661 1.3947406 0.7068064 -1.7484446 -0.040136818 0.37609833 -1.110083 -1.5292332

fc1.bias f4 [50]
00000000: 961d eebd 3336 c33e 542b 47bf 90fa 49be
00000010: 0289 463f 1349 bfbe 53f1 abbf f4ce bf3e
00000020: 4e98 eebf 1540 283f 142b 223e 897c eb3e
00000030: 0d31 23bf 61e0 3f3f e808 ab3f a4c5 9c3f
00000040: 904e 0cbe ab24 993e d6ff 08bf 45dd 10be
00000050: 9fc5 33bc 9e46 1d3f 970d f43d 31af 513f
00000060: 204d 01bf 8923 b93e a4d6 df3f 8fb1 2a3d
00000070: 6bfe ed3e 0cc3 f0be d43e 693f 2239 723e
00000080: 8d7f d4be e626 ae3e 0641 523f 2d1b 673e
00000090: edf0 723e d1ad 033f e7d4 423f 36ea c1bf
000000a0: c11a a2be 7a6f 933e fa86 3bbf 38a7 2f3f
000000b0: c5ef 433f e4e2 d6be b0e0 683e f210 00bf
000000c0: af74 103f d981 153f
-0.11626737 0.38127288 -0.7780049 -0.19724488 0.7755281 -0.3736044 -1.3433021 0.3746258
-1.864023 0.6572278 0.15836746 0.4599345 -0.6374672 0.7495175 1.3362093 1.2247815
-0.13701844 0.29910788 -0.53515375 -0.14146908 -0.0109724095 0.6143588 0.119166546 0.81907946
-0.5050831 0.36159924 1.7487378 0.04167324 0.46483168 -0.4702381 0.91111493 0.23654607
-0.41503564 0.34014052 0.8213047 0.2256896 0.23724718 0.514371 0.76106113 -1.51496
-0.31661037 0.28795987 -0.7325283 0.6861453 0.76537734 -0.4196998 0.22741961 -0.50025856
0.56428045 0.58401257

fc_out.weight f4 [10, 50]
00000000: 2cda 65bf 2ac8 063f f673 3b3f 0558 103d
00000010: 1286 15be d9d1 55bf 32bb 64bf f3b8 e03c
00000020: 4c7d 04bf 8b31 95bf 2e72 b2be f265 c2bd
00000030: cd0a c2bf 6c42 09be 6301 d83f 3764 583f
00000040: 286b f73e b02d fa3c 5eb7 4d3b 002f b5be
00000050: 451f 1f3c 7d5a 563e 399d 15bf c25f acbf
00000060: b1dd aabe 0fcb 3ebe a4d8 19c0 00af afbf
00000070: 3629 f7bd 156e 42bf 1afc d23e 6964 08be
00000080: 6505 973f e8b9 bcbe 76b1 7a3f 1e09 a93f
00000090: 06db f9be 74b3 0b40 5488 88bf e599 8cbf
000000a0: fcd0 5a3f 8348 bc3e fb59 b43c 7973 fb3f
000000b0: 4f77 063f 9270 0fbf 1b53 a2be 36a4 84bf
000000c0: b81c 213f 0c83 613b b123 43bf 30a6 2c3f
000000d0: d275 7e3f beef 87be 61b0 30be 6e17 02bf
000000e0: 0b15 68bf 6deb 1cbd 1283 15bf 4724 13bf
000000f0: bf0f d6be 3e0b 4b3e 57fc 4bbf 94b7 903c
00000100: 8ff1 9b3f 4fae 503e 42ce c4be 90e6 9f3d
00000110: ff5b debe c402 8ebe d6eb 98be b8e3 a4be
00000120: 4842 a8bf 8e55 a3bf 5e58 9bbe cb62 81be
00000130: 9b1c bdbf d8a5 a4bf e611 983c 584a efbe
00000140: 01eb e43e fe92 d63e 187b f03e 222e 81be
00000150: 4a8c d03f c3fa 733f 1355 373e ffeb 3d3f
00000160: 47bd aebf a9bf acbf ecad 8c3f ae6f 8e3d
00000170: f4e2 68bf a69f 833d d4d6 603f e8ec b43e
00000180: 8b94 19be 1ff4 88bf 8016 783d 3186 9ebd
00000190: 0185 06bf ce82 62be 007c 5f3f a12e e8be
000001a0: 9a37 2d3d a3a1 10bf 411f 91bf 92f0 dcbe
000001b0: a7cc 30bf e859 5ebf bd71 69be 3158 4d3e
000001c0: dc12 f0bf 48af 463e 469b ee3f a672 6b3e
000001d0: 26fd 38be 4b99 95bd 422b abbe 2082 47be
000001e0: 6878 d7be 48dc 1e3f 02f2 65be 38df e1be
000001f0: ae36 03bf 67c5 9bbb e462 c6bf e367 62bf
00000200: bb09 b2be 6207 48be 6365 033f 4aef a7be
00000210: f49d 933e 122c 0d3d 1b35 4a3f 4d3d 29be
00000220: 7c7c d7bd e75e a03f ea24 16bf 23ed 5fbf
00000230: 5dd8 0a3f c5ca 003e cade 3bbe fdb5 703f
00000240: 6d62 3c3f 169f 6cbf abc1 253f f6b2 3dbc
00000250: 2ffd 3ebe 4d5f babe 43fb c6bd 186e e63f
00000260: 09a5 c63e afa7 44bf 20f2 893e 2965 bcbd
00000270: e0a8 b2bf 56e7 bcbe 2480 5abf 80bb 60bf
00000280: 690e eabe dca0 6a3e dd3e 3cbf 6e65 fd3e
00000290: 3329 a63f a50f 3c3f d21b 113e 44ad 97be
000002a0: 8c26 79bf f73d 13bd 0963 8fbe a99b d2be
000002b0: e0b0 763b 5764 503f d160 f13e a14d 2e3e
000002c0: 9804 11bf cdf7 8bbf 3517 05bf e8d2 dbbd
000002d0: e421 903e 6668 7f3f e2d4 9abf 2697 15be
000002e0: 37f2 a03e c146 7a3e 023b d1bc 6fda 17bf
000002f0: 2093 73bf c914 2abf 1b4c ed3e 47b7 3abe
00000300: 93aa 2cbf 2c93 533f 0d2b 853d c33a aabe
00000310: 85ac 9e3e 95fa 8abf b4a0 ffbd f5d7 76be
00000320: 08da c0be 98aa e0be 8811 e1bd 1386 8abe
00000330: f5b8 683e a70c abbe d0cc 8fbf 9a2e a6be
00000340: 7e11 24bf 36c2 c0be 25ee f3bc 8af7 f3bc
00000350: f231 67bf 2825 d43e a78a 493f 1627 593e
00000360: 9900 90be f919 dabe 08ba 18bf 06d4 013f
00000370: f005 7fbd d09e 87be 43bf 103e 9f9a 08bf
00000380: 45ee 16bf 4c51 913e 5b14 64bf 5f62 6cbe
00000390: 76ae 52bf e49f 6c3e 1855 1e3f 7147 fd3d
000003a0: ce0e 1dbf 5ab2 89be 8b21 a03e dd9f 2dbe
000003b0: 3fc2 8e3e f8e8 2b3d 52f0 193d 98ae 33bf
000003c0: a93d a33e ce61 6a3e ce8c c3be 1cf9 a23f
000003d0: 5eda 3b3f 295a 5bbd 17cf db3e 88cc edbe
000003e0: 6f09 99be 20a5 62be b7f5 053f f517 b33d
000003f0: 3a3f c1bd 8445 a1be 447c 7fbd 2aee b2bd
-0.8978603 0.52649176 0.7322382 0.035240192 -0.14601925 -0.8352333 -0.8934814 0.02743194
-0.5175369 -1.1655744 -0.34852737 -0.09492101 -1.5159546 -0.13404244 1.6875423 0.84527916
0.4832394 0.030539364 0.0031389813 -0.3538742 0.009712045 0.20932956 -0.5844303 -1.3466723
-0.33372262 -0.18632148 -2.4038477 -1.3725281 -0.12068407 -0.7594922 0.41207963 -0.13319553
1.1798521 -0.36860585 0.97927034 1.3205907 -0.48799914 2.182828 -1.0666604 -1.0984465
0.85475135 0.36774072 0.022015562 1.9644614 0.525258 -0.56031144 -0.3170403 -1.0362613
0.62934446 0.0034410385 -0.76226336 0.6744108 0.9939853 -0.26550096 -0.17254783 -0.50817
-0.9065711 -0.038310457 -0.5840312 -0.5747723 -0.41808888 0.19828507 -0.79681915 0.017665662
1.2183093 0.20378993 -0.38438612 0.07807648 -0.43429562 -0.27736485 -0.2986743 -0.32204986
-1.3145227 -1.2760484 -0.30340856 -0.25270686 -1.4774355 -1.2863111 0.018563222 -0.46736407
0.44710544 0.4190902 0.46968913 -0.2523051 1.6292813 0.95304507 0.17903547 0.74188226
-1.3651513 -1.349599 1.0990577 0.06954895 -0.90971303 0.06426935 0.878278 0.35336995
-0.14998071 -1.06995 0.060568333 -0.07740439 -0.525467 -0.2212021 0.87298584 -0.45348075
0.042289354 -0.5649664 -1.1337663 -0.4315229 -0.69062275 -0.86855936 -0.22797294 0.20053174
-1.8755755 0.19402802 1.8641136 0.22992954 -0.18065318 -0.07304629 -0.3343144 -0.19483232
-0.4208405 0.6205487 -0.224556 -0.44115615 -0.5125531 -0.004753757 -1.5498929 -0.8843977
-0.3477305 -0.19534066 0.5132658 -0.3279975 0.28831446 0.034465857 0.7898728 -0.1652729
-0.105217904 1.2528962 -0.58650076 -0.87471217 0.54236394 0.1257735 -0.18346706 0.9402769
0.73587686 -0.92430246 0.6474864 -0.011578312 -0.1865127 -0.36400834 -0.09715893 1.8002348
0.38797787 -0.76818365 0.2694254 -0.09198982 -1.3957787 -0.36895245 -0.8535178 -0.877861
-0.4571412 0.22912925 -0.7353342 0.49491447 1.2981323 0.7346137 0.14170769 -0.2962438
-0.9732444 -0.035947766 -0.28005245 -0.41134384 0.0037642047 0.81403106 0.47144178 0.170218
-0.56647635 -1.0934998 -0.51988536 -0.107335865 0.28150856 0.99768674 -1.2096217 -0.1460844
0.31434795 0.24441053 -0.025540832 -0.5931768 -0.9514637 -0.66437966 0.46347126 -0.18233977
-0.67447776 0.8264644 0.06502352 -0.33247957 0.30990997 -1.0857722 -0.124818236 -0.24105819
-0.37666345 -0.43880153 -0.10989672 -0.27055416 0.22726806 -0.3340809 -1.1234379 -0.3245743
-0.6408919 -0.3764817 -0.029776642 -0.029781122 -0.90310585 0.41434598 0.7872719 0.21206316
-0.28125456 -0.4259794 -0.5965886 0.5071415 -0.06226152 -0.26488352 0.1413546 -0.53360933
-0.5895732 0.28382337 -0.8909356 -0.230844 -0.82297456 0.23107868 0.6184859 0.12367142
-0.61350715 -0.26893884 0.3127559 -0.16955514 0.27882573 0.041970223 0.037582703 -0.70188284
0.3188298 0.22888872 -0.38193363 1.2732272 0.73380077 -0.05355278 0.42931435 -0.46445107
-0.2989001 -0.22133303 0.52328056 0.08744804 -0.09435888 -0.3149835 -0.06237437 -0.087368324

fc_out.bias f4 [10]
00000000: 2cd2 493e 9fef 8b3e 6c53 edbd 2cf8 533e
00000010: 89a3 2cbe 1530 e03b c5af 00bd 2871 8c3d
00000020: 586c 11be 505e 3bbe
0.1970908 0.27331254 -0.11588177 0.20700139 -0.16859259 0.0068416693 -0.031417627 0.0685752
-0.14201486 -0.18297696
