models/demo_A0TOKYO_14_32_13_314.pt (torch_old, 3768 bytes, 4 tensors)

fc1.weight f4 [50, 4]
00000000: 9784 f2bf 4880 9b3f 3ebc 95bf 24a5 44bf
00000010: a0f9 e53f d6b6 d6bf 2b39 8abf 473b 31bf
00000020: 2224 febe 6498 653f dc62 96bf 4fe3 99be
00000030: 3308 d1bf a9f6 ec3e f7ed e4be 9d33 c4bf
00000040: d226 c53f 6ebb 1ec0 13fc 4d3f 112b 673f
00000050: fed6 853e 8539 99be 7776 9dbf 18ba 13c0
00000060: d159 a4be d968 a4bc 864e a0bf 2133 f8bf
00000070: 9b7c f3bf b9c3 c33f 6277 46bf fe45 5fbf
00000080: d25a 07bf 3e61 0e3f 47dc 9bbf 3642 34c0
00000090: f7c9 1840 5b21 0dc0 236a 603f 9e67 0840
000000a0: 2790 26bf 3f87 0240 4b53 db3d 3437 04c0
000000b0: 3898 92be ba21 3abd 5b83 10be 466d 8abf
000000c0: 3e3a 8b3f d197 17c0 68b2 083f 9e80 a1bf
000000d0: 8e5b c33f fb0c e7be 44bd cf3e f751 aebf
000000e0: fa8b 6ebe 03a8 ebbf e65c 833e f90d d0bc
000000f0: 81da 0d40 a463 bebf d134 0c3f 29d9 b3bf
00000100: 8670 2ec0 6d39 f63f 76f0 debe 6253 c2bf
00000110: 9c88 cdbf bf1d ba3f 06fe cfbe 9a5a 04c0
00000120: 593c 1f40 f24b eabf 1ae7 1f3f 5492 b63f
00000130: 8e13 33bf 6aa5 e53e 926b 55bf 10b1 0fc0
00000140: 7908 80bf 7d53 483f abb0 df3e 587d 25bf
00000150: ac31 a93e fec3 ad3f 9fa9 b8bf 0bda cb3d
00000160: 2d0c a8be 0d37 f2be 8959 103d 73b4 0040
00000170: 4d96 833f 6c56 2d3f 4d23 0640 5a3f de3e
00000180: a09c d7bc 013f b03e 7214 69bf 6dfe 33c0
00000190: 8cbd 04bf 06d7 be3e de96 8bbf 53ed 07bf
000001a0: bd11 5040 00d2 ffbf 5850 bb3e 0a1f 893f
000001b0: de6d 4540 9372 34c0 c5ac 5c3f 724b 11bf
000001c0: 1547 88bf fe77 9b3f 88b8 a1bf a6c4 6b3e
000001d0: 80c3 21ba 740e 0bbf 7c18 8bbf 119c bfbf
000001e0: eb04 1b40 09db 17c0 538d 7bbe 2c90 8cbf
000001f0: 825a fa3f 1d61 f6bf 5e4d c13e 8e7a c6bf
00000200: cd37 453f 2d5e e4bf f6d3 2ebf acb5 bdbf
00000210: c717 b0bf 4e21 f73f 331d cb3d d91c 02c0
00000220: 7b69 943f 0df1 ff3e ef21 d6be f9d6 0dbf
00000230: 3154 893f 0fd3 9ebf 25db a7bf b54d 883e
00000240: e31f 1ebf 5003 d43d b7c6 bdbf d522 12c0
00000250: 44d5 433f dc64 3dc0 0d23 363f d0a9 fa3f
00000260: 517c 0f40 53dd 13c0 9b27 223f 6f0f ad3f
00000270: 4789 8a3f cd31 61be 72d3 04c0 8afb 4abf
00000280: 9b9d f3bf 25e5 3abe 3f6c fd3e 51ee 963f
00000290: d1fb 853e aca5 943e e958 fdbe 4854 2cc0
000002a0: ffe4 ea3f 5b7b 27c0 6c48 4e3f 678c 61bf
000002b0: 3d88 24c0 d89c 863f b129 903d b550 ab3f
000002c0: ced8 b73f 4bde 2bc0 ff02 c33d 503e 64bf
000002d0: dd0f fd3f 0603 0ec0 3966 483e 1cd0 6abf
000002e0: 000e 7cbf ce7a 633e 8a50 a9bf 28a6 f93d
000002f0: ec75 99bf ac04 20bf f7fd 15bd 6c39 5bbf
00000300: a915 22bf d202 f63f 98d1 093f 0f15 22c0
00000310: 9d84 94bc 34a7 a13e c55d 9cbf 4d77 05c0
-1.8946713 1.2148523 -1.1698072 -0.76814485 1.7966805 -1.6774547 -1.0798696 -0.69231075
-0.49636942 0.89685655 -1.174892 -0.30056235 -1.6330627 0.46281937 -0.44712803 -1.5328251
1.5402472 -2.4801898 0.8046276 0.9030009 0.2614059 -0.29926696 -1.2301778 -2.3082333
-0.32099774 -0.020069527 -1.2523963 -1.9390603 -1.9022402 1.5294105 -0.77525914 -0.87216175
-0.52872956 0.5561713 -1.2176598 -2.8165412 2.387327 -2.2051609 0.8766195 2.1313243
-0.6506371 2.0395048 0.10709246 -2.0658693 -0.2863176 -0.04544232 -0.14112608 -1.0814598
1.0877149 -2.3686411 0.53397226 -1.2617376 1.5262315 -0.4512709 0.40574086 -1.3618764
-0.23295584 -1.8410648 0.25656813 -0.025397288 2.2164614 -1.4874158 0.5476809 -1.4050647
-2.725618 1.9236275 -0.43542832 -1.5181696 -1.6057315 1.4540328 -0.40623492 -2.0680299
2.4880583 -1.8304427 0.6246201 1.4263406 -0.69951713 0.44852763 -0.83367264 -2.245182
-1.0002586 0.78252393 0.43689474 -0.64644384 0.3304571 1.3575437 -1.4426764 0.09953698
-0.3282179 -0.47307625 0.035241637 2.0110137 1.0280243 0.67709994 2.0959046 0.43407708
-0.026319802 0.34423068 -0.9104682 -2.812404 -0.51851726 0.37273425 -1.0905416 -0.53096503
3.2510827 -1.9985962 0.36584735 1.0712597 3.0848308 -2.819493 0.86201125 -0.56755745
-1.0646693 1.2145994 -1.263444 0.23024234 -0.00061707944 -0.5431893 -1.0866847 -1.4969503
2.4221752 -2.3727438 -0.2456563 -1.0981498 1.9558871 -1.9248387 0.3775434 -1.5506151
0.7703827 -1.784124 -0.68292177 -1.4821067 -1.3757256 1.9307039 0.09917679 -2.0330107
1.159469 0.49988595 -0.41822764 -0.5540615 1.0728818 -1.240816 -1.3113753 0.26621786
-0.61767405 0.10352194 -1.4826268 -2.283376 0.7649729 -2.959281 0.71147233 1.9583073
2.2419627 -2.3103836 0.63341683 1.3520335 1.0823144 -0.21991654 -2.0754056 -0.7929007
-1.9032472 -0.18251474 0.49496648 1.1791478 0.26168683 0.29032648 -0.49481896 -2.6926441
1.8351134 -2.616904 0.80579257 -0.8810486 -2.5708153 1.0516615 0.07039202 1.3384005
1.4363039 -2.6854427 0.09522056 -0.8915758 1.9770466 -2.2189345 0.19570245 -0.917238
-0.9845886 0.22214815 -1.3227704 0.12189895 -1.1989112 -0.6250713 -0.036619153 -0.85634494
-0.633143 1.9219611 0.5383544 -2.5325353 -0.018129641 0.31572878 -1.2216116 -2.0854065

fc1.bias f4 [50]
00000000: be84 1f3e fd3e 393e 716f d53e e114 353e
00000010: 49fa d53c b11f f63e 2fa6 213f c9b6 c73e
00000020: 8297 363e 8389 a43e fd13 023f 5347 653f
00000030: 0782 773f cae5 0d3f 7e2b 203f c7b7 9a3f
00000040: 1cb5 683d fe4e 083f 8c8d b23e ae1b 9a3e
00000050: 2750 4ebf 095e 613e ef3a 163f b596 ae3f
00000060: 10bb 6d3e 1bd8 423f 4759 083f f67c d43c
00000070: ff4e 9e3e 4926 673f 2c88 cc3f d0ea 813f
00000080: 91da b43e 50cc c43e 9f6a 183f b22b f2be
00000090: 5f3f 9b3e c5cc 213f 3d25 6f3f 053f 04bf
000000a0: 83ff 77be 7d5a 253f b8aa 5ebe b7ac 6abf
000000b0: 3347 ae3f fb8f a73f 0936 e33e 4ce8 383f
000000c0: 7579 173f 9420 8e3f
0.15577981 0.18090434 0.41686586 0.17683746 0.026120322 0.48071054 0.631442 0.39006642
0.17831233 0.32136163 0.5081175 0.8956196 0.9668278 0.55428755 0.62566364 1.2087334
0.056813344 0.5324553 0.34873617 0.30099243 -0.8059105 0.22008528 0.58683676 1.3639742
0.2321589 0.76111 0.53261226 0.025938492 0.30919644 0.90292794 1.5979056 1.0149784
0.35323003 0.38437128 0.5953769 -0.47298962 0.30321786 0.6320308 0.93416196 -0.5165866
-0.24218564 0.645912 -0.21744812 -0.9166979 1.3615478 1.3090814 0.44377163 0.72229457
0.59169704 1.1103692

fc_out.weight f4 [10, 50]
00000000: d680 89be fa6d 723f 54d1 8e3e a146 84be
00000010: 1290 593f 61ce 1fbf ac39 c1be 917d 82bd
00000020: f095 eabe 872e cebe 2f5b efbe 72ae e7be
00000030: 86b3 893f 921d 413f e0ba a93f abd6 ca3f
00000040: fa42 3b3f 4a97 1ebe 7832 bbbd 423b edbe
00000050: 0c6c 953f 3eb4 1b3f a26b a6bf b7cf 30c0
00000060: 034e b3be 8c91 91be ed0a e6bf d38b 0dc0
00000070: 5f6e 18be 5f2d c4be 3c67 be3f 40be 8c3f
00000080: ffe3 8c3f 8c2f aebe 1c3a 15bf f253 df3e
00000090: 8b2e 2dbf 2a7f 27bf 8307 ebbf c8da a8bf
000000a0: 15e2 be3f bdcc afbe 72d5 b4bf 8146 4c40
000000b0: 29bd b73f be54 8f3f ec89 9a3e 7396 cbbe
000000c0: 0d97 38bd 7bc9 d5bd b649 683e 46e1 5c3f
000000d0: 4372 1cbe 5ee5 22bf 5478 02bf 6486 1abf
000000e0: 70f0 89be b083 833d 78ec b2be e203 8d3d
000000f0: ca3f 23bf 1982 ddbe 7af2 ad3f 0262 903d
00000100: f505 d73e 7364 a43f c3c6 e1bd 6858 fcbe
00000110: 9ef0 fabe 3e5c 26bf faae 373f 9b08 0e3e
00000120: 1119 e2be d6c2 dcbe ad3c d3be fb29 c8be
00000130: cea7 dabf 4c65 f3bf 99f3 16bd ffa9 46be
00000140: 2fd7 943f 0aa8 b93f fb56 343f 7f44 13bf
00000150: e77f 2abe 2f95 e03f 0988 aebc 6242 78bf
00000160: 207b b3bf 43ed cbbf f63f f53f c0f9 a7be
00000170: bc26 96bf bffd 0340 a559 b03f 769d a63f
00000180: 7d98 203e d13a 10bf a7ce c1bd 82e6 96be
00000190: 789d 6e3e 48ac 683f 8fe5 a73e 50a1 e4be
000001a0: 65ad c0be ec37 15bf a004 1fbf 4b16 a7be
000001b0: 4b3b 88be a439 8cbf a8bd a5be 9cfa 3abe
000001c0: 83ff 5a3f d54e 933f c9f4 b23e 70b3 bc3e
000001d0: 26cb a73d 7ee2 183e 727c 60bf 97b4 01bf
000001e0: 0d28 643f 897e 313f 0b4e c6be 8beb 1abf
000001f0: e0d5 e5be bb16 9abe 4072 82bf 320d c1bf
00000200: 91ab e5be 0256 c6be 368d ba3f bb5e ac3f
00000210: 5bd3 a93f 1374 b43c e9ee 2cbf dac7 853f
00000220: 7d9c 97be aca2 56bf fa5c 87bf 9e62 3dbf
00000230: cb8b b33f 6f34 15be 9b67 babf 4be0 0940
00000240: b69e c83f d406 9a3f dd5d aa3e 893f 05bd
00000250: 5446 a8be b2d3 15bf ee99 ce3e d54b b83f
00000260: 9d01 923e 04cd 65bf 89fb 67bd eb7d f2be
00000270: dca6 60be 1aa6 11bf eb84 aabe 9ed0 7fbf
00000280: 84ce 2abf 1eb5 103e 10aa ad3f 8a12 303f
00000290: 673a 8b3f 82d1 583f b27e 47bf e1ce cabe
000002a0: 43f3 70bf 7291 27bf 7748 683f 1978 abbe
000002b0: 540c 8dbd 5295 3ebe b371 62be 197f a93e
000002c0: fb44 61be 3af9 89bf 957d 4fbf 81cf 81be
000002d0: 341b a93d 786b d93f 575b 323e 24fe 6abe
000002e0: adae 07bf 3769 cf3e 0279 82be 95f5 33bf
000002f0: 6889 30bf bf70 e6be d826 c23e 74c6 0bbf
00000300: 07ef 7dbf c17d 2c40 db48 ba3e 9aa1 123f
00000310: 004c 873d a653 863e 8a5c 2dbd 1a36 9dbe
00000320: 5e1e 513e 8cc1 4a3f 1585 a03c 086d 85bd
00000330: 1eaf 28bf 9f02 a4bd 8804 37be 5c80 d2be
00000340: 1aa1 2cbf 80fd 84bf 7718 a4bd 0a25 d93c
00000350: 59df 473f 5bfa 013e 4793 0d3f e6c1 633e
00000360: 7876 10bf 18d8 4cbe b9f6 93bf 8654 6bbe
00000370: 722c f1bd b622 7bbe c29b e53e adb6 023f
00000380: 9d2d 56bf 777c 703e ba47 023e ee37 edbe
00000390: fdf0 93bf bec6 a4be 459e 733f ca27 743f
000003a0: d786 40bd 0902 06be 3470 793d 080c 033f
000003b0: 8f32 96bb a7d1 9dbf 0cef 89be a8fb babe
000003c0: eae7 b43e 13d1 9cbe 8296 57bf 2eaf 0640
000003d0: caee 883f a478 613f 5063 07be 5ae2 ae3e
000003e0: 9f0b a5be 800c 6cbe 0fd0 413e 1cb9 843e
000003f0: 4772 4a3e 0166 50bf 8da8 e9be 6c02 9e3e
-0.26856107 0.9469906 0.2789408 -0.25835136 0.8498546 -0.62424284 -0.37739313 -0.06371606
-0.45817518 -0.40269873 -0.46749255 -0.4525028 1.0757911 0.75435746 1.3260155 1.5846761
0.73149073 -0.154874 -0.091404855 -0.46334273 1.1673598 0.608219 -1.3001597 -2.762678
-0.35020456 -0.28431356 -1.7972084 -2.2116592 -0.14885853 -0.38315865 1.4875255 1.099556
1.1007079 -0.3402065 -0.5829179 0.43618733 -0.67649144 -0.6542841 -1.8361667 -1.3191767
1.4912745 -0.3433589 -1.4127638 3.1918032 1.4354602 1.1197736 0.3018335 -0.3976322
-0.04506593 -0.1043882 0.22684368 0.8628124 -0.15277962 -0.63631237 -0.50964856 -0.60361314
-0.26941252 0.06421602 -0.34946036 0.06885506 -0.6376921 -0.4326332 1.3589623 0.070499435
0.41996732 1.2843155 -0.11024239 -0.492862 -0.490117 -0.649845 0.7175137 0.1387047
-0.4415975 -0.43117398 -0.4125723 -0.3909453 -1.708246 -1.9015288 -0.036853407 -0.19400786
1.1628169 1.4504406 0.7044522 -0.5752639 -0.16650353 1.7545527 -0.021305101 -0.9697629
-1.402195 -1.5931782 1.9160144 -0.32807732 -1.1730571 2.0623624 1.3777357 1.3016803
0.1568317 -0.56339747 -0.09463244 -0.29472739 0.23302257 0.9088788 0.32792327 -0.44654322
-0.3763229 -0.58288455 -0.6211643 -0.32634196 -0.26607737 -1.095509 -0.3237126 -0.18259662
0.8554613 1.1508433 0.3495238 0.3685565 0.08193044 0.1493015 -0.8768989 -0.50666183
0.8912361 0.693337 -0.38731417 -0.6051566 -0.44889736 -0.30095467 -1.0191116 -1.5082152
-0.44857457 -0.38737494 1.4574344 1.346641 1.3267626 0.022028005 -0.6755205 1.0451615
-0.2961158 -0.8384197 -1.0575249 -0.739786 1.4027036 -0.14570783 -1.4562868 2.1543148
1.5673435 1.2033334 0.33274737 -0.032531295 -0.32866156 -0.58526146 0.40351814 1.4398142
0.28516856 -0.89765954 -0.056636367 -0.47361693 -0.21938652 -0.56894076 -0.33304533 -0.999277
-0.6672137 0.1413159 1.3567524 0.6877829 1.0877198 0.84694684 -0.77927697 -0.3961096
-0.9412119 -0.65456307 0.9073557 -0.33490065 -0.06887117 -0.18611649 -0.22113685 0.3310478
-0.2199897 -1.0779183 -0.81051 -0.25353625 0.08257142 1.6985922 0.17417656 -0.2294851
-0.5300091 0.4050996 -0.25482947 -0.70296603 -0.68959665 -0.45007893 0.3792026 -0.5459969
-0.9919285 2.6951754 0.3638371 0.57277834 0.06606293 0.26235694 -0.04232458 -0.3070534
0.2042174 0.7920158 0.019594708 -0.06514937 -0.6589221 -0.080083124 -0.17872822 -0.41113555
-0.6743332 -1.0389862 -0.08012479 0.02650692 0.78075176 0.1269316 0.5530285 0.22241935
-0.5643077 -0.20004308 -1.1559669 -0.22981462 -0.117760554 -0.2452496 0.44845396 0.5105999
-0.8366335 0.2348498 0.12722674 -0.46331733 -1.1557919 -0.32182878 0.95163375 0.95373213
-0.047003593 -0.13086714 0.06089802 0.51190233 -0.004583664 -1.2329606 -0.2694019 -0.36520123
0.35333186 -0.3062826 -0.8421403 2.1044421 1.0697873 0.8807471 -0.13221478 0.34157068
-0.3223543 -0.23051643 0.18927024 0.25922477 0.19770156 -0.81405646 -0.45636407 0.30861223

fc_out.bias f4 [10]
00000000: 4583 9dbd 892f c0be e352 ddbe 4458 483e
00000010: ae01 eebd 35ac cb3d 728d bb3e 8c69 993b
00000020: 6f9b 4b3d d71d 1abe
-0.07691053 -0.37536266 -0.432273 0.1956492 -0.11621414 0.09944955 0.36631352 0.0046817716
0.04970878 -0.15050445
