models/demo_D0_TOKYO_03_49_56_314.pt (torch_old, 3768 bytes, 4 tensors)

fc1.weight f4 [50, 4]
-1.1427718 -0.6984328 -0.5403747 0.4104881 0.6178562 -0.6149911 -1.0721811 0.32277754
-0.18857813 -0.26231942 -1.3324903 1.09624 -3.010359 -1.3246207 -0.4321611 -0.31109574
-1.0922782 -1.484217 -0.58525866 1.1572574 0.48207852 0.07632212 -0.89176506 -1.624752
-0.8937684 -1.5237316 -0.77622557 -0.779994 -2.2799582 -1.0181293 -0.6222138 -1.2573661
-0.78583914 0.17491217 -0.8526286 -2.0200987 1.7267213 0.6180342 0.26354212 3.1333637
-0.22143054 1.5138545 0.06310916 -0.7940487 -0.06780299 -0.58742195 0.66824573 -1.0583706
-0.32137886 -0.8878565 -0.03944179 -1.3730048 0.22747797 -0.5568794 1.0654081 -1.6109877
-0.18917227 -1.9690834 0.42099023 -0.3329326 0.8448685 -0.51120794 1.0694666 -1.333005
-1.8810498 -1.3641069 -0.66500694 -1.7583395 -1.4627908 1.2707547 -0.28186128 -0.40063512
1.6655377 0.708064 0.18535465 2.4159017 -1.5110861 -0.06185179 -0.8582977 -0.91032606
-1.6247183 2.0864465 -0.07845617 -0.6591243 1.6160214 1.4112321 -0.31678018 2.6251404
-1.9586221 -0.8661264 -0.10565108 -0.28996754 1.7969296 1.3506873 0.03979044 1.2017748
0.2999776 -0.07908843 -1.3395643 -1.450836 0.2606204 -0.9636583 -0.52685475 -0.21274719
1.8439662 1.497003 -0.1947491 0.5651745 1.9562339 0.6994893 0.22232178 -0.4174816
-0.53639793 -0.9085618 -0.03365316 2.1731668 -0.04322134 -1.4182068 -1.1852661 0.25327367
1.2038825 -1.202754 -0.6532615 -0.33621466 0.55877686 0.14532006 0.040128227 -1.6047544
0.67076874 -1.1032698 -0.37990457 -1.1533964 -0.6030519 0.4815826 0.09902625 -1.7649239
0.4292777 0.9406744 0.15640473 -0.31345946 -0.79275024 -1.3387973 -1.5016142 1.0534047
-0.0688377 -0.31878594 -0.6403961 -0.8637159 -2.7090065 -2.264476 -0.32997915 -0.29752353
1.3699682 0.42168644 0.20887606 2.2686496 0.34507838 0.85078436 -0.9436924 -1.4637604
-0.4026944 -1.4184989 0.469108 0.48332307 0.06203198 0.25313392 -0.09555005 -1.2146243
0.7843449 -1.886413 0.61753917 0.034519117 -2.5629923 -0.5150209 -0.7807695 -0.73444706
-0.178952 -2.0013325 0.041324813 -0.2264089 0.37725955 -0.7926553 -0.31790116 -0.16605917
-0.79798084 -0.6481779 -0.64002013 0.31086904 -0.88902915 -2.07956 0.5295927 -1.0213124
-0.029722733 1.6382279 0.9290991 -1.282707 -0.44083187 -0.35743788 -1.42441 -1.0629141
00000000: 5946 92bf 7ecc 32bf ff55 0abf 7f2b d23e
00000010: d32b 1e3f 0f70 1dbf 3b3d 89bf 1943 a53e
00000020: a01a 41be bb4e 86be 0b8f aabf 9851 8c3f
00000030: b9a9 40c0 2c8d a9bf 3844 ddbe f147 9fbe
00000040: c6cf 8bbf d3fa bdbf 83d3 15bf 0321 943f
00000050: ffd2 f63e c64e 9c3d b74a 64bf e0f7 cfbf
00000060: 02ce 64bf a309 c3bf b8b6 46bf b0ad 47bf
00000070: d6ea 11c0 1052 82bf 6749 1fbf 5ff1 a0bf
00000080: c12c 49bf 2d1c 333e de45 5abf 4c49 01c0
00000090: 3405 dd3f 7d37 1e3f feee 863e 0889 4840
000000a0: b0be 62be fcc5 c13f 603f 813d c746 4bbf
000000b0: 4bdc 8abd 4961 16bf 2712 2b3f b078 87bf
000000c0: c58b a4be 904a 63bf b78d 21bd 9fbe afbf
000000d0: fcef 683e a68f 0ebf 4b5f 883f d834 cebf
000000e0: 60b6 41be ed0a fcbf 088c d73e 2476 aabe
000000f0: 4d49 583f 86de 02bf 48e4 883f e89f aabf
00000100: 3dc6 f0bf 0e9b aebf e53d 2abf 4511 e1bf
00000110: bb3c bbbf 17a8 a23f 1f50 90be 0c20 cdbe
00000120: 5730 d53f af43 353f 9ccd 3d3e 229e 1a40
00000130: 456b c1bf 4d58 7dbd 66b9 5bbf 210b 69bf
00000140: c5f6 cfbf 5788 0540 a1ad a0bd 5fbc 28bf
00000150: cad9 ce3f 41a3 b43f 0331 a2be 4d02 2840
00000160: 21b4 fabf 76ba 5dbf 985f d8bd a076 94be
00000170: ca01 e63f 52e3 ac3f 4dfb 223d c2d3 993f
00000180: aa96 993e 1df9 a1bd d876 abbf feb4 b9bf
00000190: 0970 853e 4fb2 76bf f4df 06bf 66da 59be
000001a0: 1607 ec3f cb9d bf3f 4f6c 47be 47af 103f
000001b0: df65 fa3f bb11 333f 52a8 633e 26c0 d5be
000001c0: 6051 09bf 8297 68bf e5d7 09bd 2a15 0b40
000001d0: dc08 31bd cd87 b5bf cdb6 97bf 16ad 813e
000001e0: d218 9a3f d8f3 99bf 253c 27bf 5424 acbe
000001f0: 000c 0f3f c8ce 143e 7f5d 243d 9868 cdbf
00000200: 80b7 2b3f f237 8dbf da82 c2be 7ea2 93bf
00000210: 9c61 1abf ff91 f63e 46ce ca3d 07e9 e1bf
00000220: 49ca db3e 0ad0 703f 9028 203e c27d a0be
00000230: aef1 4abf b65d abbf e534 c0bf f7d5 863f
00000240: c8fa 8cbd e937 a3be 00f1 23bf 7c1c 5dbf
00000250: 5d60 2dc0 2ded 10c0 07f3 a8be 0155 98be
00000260: 1e5b af3f 49e7 d73e 9be3 553e 8e31 1140
00000270: 1dae b03e 01cd 593f d395 71bf 805c bbbf
00000280: f62d cebe 5f91 b5bf ec2e f03e 1f76 f73e
00000290: 3f15 7e3d c59a 813e bfaf c3bd cf78 9bbf
000002a0: d4ca 483f fb75 f1bf 0c17 1e3f eb63 0d3d
000002b0: 1108 24c0 69d8 03bf 83e0 47bf b904 3cbf
000002c0: 313f 37be d515 00c0 3544 293d bcd7 67be
000002d0: 2a28 c13e 75eb 4abf f1c3 a2be 6a0b 2abe
000002e0: 7948 4cbf fdee 25bf 5cd8 23bf 3a2a 9f3e
000002f0: 6a97 63bf 8317 05c0 6393 073f 5dba 82bf
00000300: 177d f3bc 74b1 d13f 70d9 6d3f be2f a4bf
00000310: b7b4 e1be 1902 b7be 1153 b6bf 920d 88bf

fc1.bias f4 [50]
1.1575229 0.38876525 0.41488647 0.039547607 0.33039802 -0.11781238 -0.25938258 0.35724002
-0.30466825 0.05227816 0.94100744 1.1214023 -0.37903464 0.838858 0.8712404 1.2829595
0.11259749 0.06947853 -0.09165407 0.0522207 0.09324864 -0.08336892 0.07049446 -0.16070227
-0.07107485 0.99294484 0.09463367 -0.5711228 0.67870873 -0.41304696 0.8045526 0.1939266
0.13434176 0.576803 1.2097193 0.05198921 0.26324975 0.2898783 0.061303712 -0.5404872
1.2200813 0.41295722 -0.24700156 0.5861835 0.81051433 0.60223156 1.1490297 1.1821721
0.76807666 1.0068711
00000000: b629 943f 3d0c c73e 006c d43e acfc 213d
00000010: ee29 a93e 9e47 f1bd cbcd 84be 2ae8 b63e
00000020: 7afd 9bbe a021 563d dde5 703f 1c8a 8f3f
00000030: d410 c2be 66bf 563f 9c09 5f3f 0438 a43f
00000040: 8399 e63d c24a 8e3d 21b5 bbbd 5fe5 553d
00000050: 25f9 be3d 53bd aabd 665f 903d 238f 24be
00000060: b18f 91bd a231 7e3f 4ccf c13d 1b35 12bf
00000070: dbbf 2d3f e47a d3be 29f7 4d3f b294 463e
00000080: e390 093e 5da9 133f 15d8 9a3f a3f2 543d
00000090: acc8 863e ee6a 943e 9a19 7b3d 5e5d 0abf
000000a0: a02b 9c3f 216f d33e faed 7cbe 1f10 163f
000000b0: de7d 4f3f d92b 1a3f 6813 933f 6a51 973f
000000c0: aca0 443f 27e1 803f

fc_out.weight f4 [10, 50]
0.35285506 0.53140914 0.55419815 -1.147086 -0.66593593 0.077618875 -0.3397168 0.17734
-0.32753432 -1.369676 0.96746427 0.14487582 -1.5430306 0.5345735 0.86067843 0.580935
-0.965066 0.45145118 -1.0901341 0.013948885 1.0753739 0.13727479 -0.9261774 -1.3799965
-0.042788893 0.2469245 -1.2344127 -1.3434415 -1.4601234 -0.6645875 0.7195627 -0.7013836
0.5280934 -0.04147741 0.69831383 -1.711202 -0.2548819 -0.6106354 -1.5266148 0.044076536
0.501874 0.36588418 1.2945434 -0.109148435 0.53109324 0.22561112 0.552441 -0.038273856
0.8962324 0.45893463 0.91472924 0.5897708 0.3687019 -0.4131902 -0.5324802 -0.20190424
-0.059020758 -0.16870414 -1.0524623 -0.2381264 0.4896749 0.37995064 -0.36200902 0.3802624
0.4643776 0.6330455 -1.2098792 0.2275107 -0.93161696 -0.98505527 0.828572 -1.4642032
-0.28510025 -1.325428 -0.47903404 0.14623317 -0.742704 -1.1916964 -0.25445712 0.14188838
0.50347865 0.36521724 0.685066 -0.64311665 0.9596194 0.0019179429 0.04048855 -0.78292286
-0.63946927 -0.4774554 1.011747 0.21585521 -0.20465393 -1.1947446 0.5200944 0.42421558
0.3746186 0.4629653 0.46660736 0.016657611 0.6859585 0.18475974 0.6946788 -0.830521
-0.5571329 -0.024862133 -0.20751214 -0.6619833 -0.6807369 -0.711028 0.4276913 0.55677444
-0.48046508 0.46079817 0.7272486 0.67363256 -1.2013729 0.12791099 -1.0572723 -0.9426903
0.7481491 -0.31301782 -0.30062664 -0.42528987 -0.24068433 0.3379925 -0.6876787 -0.857451
-0.864392 0.40897703 0.69005454 0.5416415 0.33903664 0.72359645 0.38936535 0.15942736
0.11885354 -0.87422746 -0.36272433 -0.015327777 0.7177628 0.57045096 -0.29143968 -1.128509
0.69780135 0.37602994 0.7188589 0.36544225 -0.04201555 -0.0015489901 0.50769764 0.64984447
0.499556 -0.9658968 -0.17934954 -0.048269134 0.051284056 -0.6108182 -0.036833122 -0.47215307
0.1126952 0.32557303 -0.39900383 -0.058587626 0.61321527 0.6270681 -0.5741394 -0.77119195
-1.0234718 -0.2275258 0.27781773 -0.6979963 -0.08746918 -0.36243153 0.26539424 0.46024302
-0.17480513 -0.45726302 -0.9748817 -0.011102685 0.3484181 1.0595806 0.17584728 0.1389993
0.15870412 -0.6123196 -0.13917837 -0.74458337 -0.13479324 0.3229084 0.3485435 0.041194
0.40606427 -0.48022714 0.045228403 0.11857551 0.18072689 0.38826817 0.7221086 -0.25395072
0.6673534 0.07776794 0.41807577 -0.6109093 -0.2813548 0.09196547 0.1828346 -1.3929846
-1.1044954 -0.96244746 0.6562236 0.30296496 -1.7626609 0.37412563 0.4077872 0.3148176
-1.7837762 -0.50217247 -1.0624785 -0.4546731 -0.68268853 -0.6401459 0.065978765 -0.628915
-0.32365486 0.57223046 -0.10749866 -0.7359721 -1.1770791 0.8658686 0.5733205 0.4439767
0.048727192 -0.12612966 0.96129835 -0.7759705 0.31470808 -0.91601104 -0.36460078 0.12127737
0.4605614 0.42044377 -0.41401356 -0.6354252 0.49864376 0.33235103 0.35205802 0.94818205
-0.29480156 0.07207308 0.07212656 0.53145844 0.052203786 -0.14682971 -0.326895 0.35057163
00000000: 6ba9 b43e 6e0a 083f eedf 0d3f b7d3 92bf
00000010: c77a 2abf a5f6 9e3d 5cef adbe 9e98 353e
00000020: 94b2 a7be 8b51 afbf bdab 773f 545a 143e
00000030: 0782 c5bf cfd9 083f 6c55 5c3f 28b8 143f
00000040: 910e 77bf 9c24 e73e 8489 8bbf dd89 643c
00000050: daa5 893f c391 0c3e f619 6dbf baa3 b0bf
00000060: 6843 2fbd c7d9 7c3e 3c01 9ebf e4f5 abbf
00000070: 53e5 babf 6822 2abf 4335 383f e08d 33bf
00000080: 2131 073f 37e4 29bd b2c4 323f ab08 dbbf
00000090: e17f 82be 9a52 1cbf 1d68 c3bf 9989 343d
000000a0: d17a 003f 2c55 bb3e 99b3 a53f 3789 dfbd
000000b0: baf5 073f 9a06 673e c66c 0d3f 0cc5 1cbd
000000c0: 7d6f 653f 7bf9 ea3e b22b 6a3f 38fb 163f
000000d0: 7fc6 bc3e aa8d d3be 9f50 08bf fcbf 4ebe
000000e0: c0bf 71bd c7c0 2cbe 16b7 86bf 68d7 73be
000000f0: abb6 fa3e e488 c23e 3f59 b9be c1b1 c23e
00000100: e7c2 ed3e 450f 223f 52dd 9abf 91f8 683e
00000110: 737e 6ebf 952c 7cbf 4b1d 543f 036b bbbf
00000120: a9f8 91be a0a7 a9bf f343 f5be 26be 153e
00000130: d921 3ebf 8289 98bf 3448 82be 304b 113e
00000140: fae3 003f c1fd ba3e 7c60 2f3f 4ba3 24bf
00000150: 9ea9 753f 7c63 fb3a 52d7 253d a26d 48bf
00000160: 42b4 23bf 0975 f4be ed80 813f 2609 5d3e
00000170: cd90 51be 64ed 98bf e824 053f c932 d93e
00000180: 02ce bf3e ca09 ed3e 29e7 ee3e 8b75 883c
00000190: fa9a 2f3f a831 3d3e 78d6 313f 069d 54bf
000001a0: 43a0 0ebf acab cbbc 107e 54be bd77 29bf
000001b0: c644 2ebf ee05 36bf 5bfa da3e c588 0e3f
000001c0: 85ff f5be bded eb3e f72c 3a3f 2f73 2c3f
000001d0: 96c6 99bf 19fb 023e b354 87bf 2754 71bf
000001e0: b386 3f3f df43 a0be bceb 99be 98bf d9be
000001f0: f475 76be 5a0d ad3e b60b 30bf e981 5bbf
00000200: cb48 5dbf 7065 d13e 6aa7 303f 04a9 0a3f
00000210: 3696 ad3e 9e3d 393f e55a c73e ed40 233e
00000220: 7c69 f33d 5fcd 5fbf 01b7 b9be 5b21 7bbc
00000230: 4ebf 373f 1309 123f 9537 95be fc72 90bf
00000240: 1ca3 323f ff86 c03e 2307 383f 3f1b bb3e
00000250: 7f18 2cbd 7c07 cbba 79f8 013f 355c 263f
00000260: cec5 ff3e 0345 77bf 68a7 37be dbb5 45bd
00000270: 3b0f 523d 955e 1cbf 54de 16bd 0cbe f1be
00000280: becc e63d 82b1 a63e 3b4a ccbe 94f9 6fbd
00000290: adfb 1c3f 8987 203f cdfa 12bf d66c 45bf
000002a0: 2001 83bf 86fc 68be 203e 8e3e e3af 32bf
000002b0: 0b23 b3bd a090 b9be c1e1 873e f9a4 eb3e
000002c0: 1e00 33be 611e eabe d991 79bf 09e8 35bc
000002d0: db63 b23e 56a0 873f 4f11 343e d555 0e3e
000002e0: 5583 223e fac0 1cbf c684 0ebe 049d 3ebf
000002f0: 3d07 0abe 4054 a53e 4b74 b23e 0abb 283d
00000300: a8e7 cf3e 55e0 f5be 6b41 393d b8d7 f23d
00000310: 7810 393e 16cb c63e 1cdc 383f d405 82be
00000320: acd7 2a3f cc44 9f3d 070e d63e 8d64 1cbf
00000330: bd0d 90be 6458 bc3d fe38 3b3e 524d b2bf
00000340: 1b60 8dbf f562 76bf 45fe 273f 391e 9b3e
00000350: df9e e1bf 658d bf3e 7cc9 d03e c62f a13e
00000360: c752 e4bf 608e 00bf 4cff 87bf eaca e8be
00000370: adc4 2ebf 9ae0 23bf e01f 873d 9300 21bf
00000380: 17b6 a5be b27d 123f 4228 dcbd ab68 3cbf
00000390: 87aa 96bf 91a9 5d3f 22c5 123f ea50 e33e
000003a0: 2a96 473d 2228 01be a617 763f 01a6 46bf
000003b0: 6b21 a13e b37f 6abf f4ac babe 4560 f83d
000003c0: b4ce eb3e 6844 d73e 96f9 d3be 3aab 22bf
000003d0: 3c4e ff3e ea29 aa3e f340 b43e 0fbc 723f
000003e0: 3bf0 96be 0d9b 933d 17b7 933d a90d 083f
000003f0: a3d3 553d 875a 16be c85e a7be 207e b33e

fc_out.bias f4 [10]
0.43729958 0.24887392 0.27333453 0.3223009 0.1857054 -0.13286152 -0.094945796 -0.09077545
-0.16257471 -0.4051008
00000000: bbe5 df3e ced8 7e3e 81f2 8b3e a004 a53e
00000010: 8e29 3e3e da0c 08be f172 c2bd 7be8 b9bd
00000020: fc79 26be 5f69 cfbe
