models/demo_A1aTOKYO_10_00_37_314.pt (torch_old, 3768 bytes, 4 tensors)

fc1.weight f4 [50, 4]
-2.8409472 2.088187 -2.1546168 0.45619366 0.6457141 -0.5506061 -1.6696755 0.8865752
-0.7086188 1.0854971 -2.5002425 1.21731 -3.1172276 1.9009181 -1.7443925 0.20172216
-0.69236207 -0.24477439 -1.1542834 1.416953 1.875012 -1.8493826 0.05676771 -1.7338797
0.5244582 -0.8323838 0.24555376 -1.1986489 -1.7559992 1.3764259 0.036251325 2.4143395
-2.7733822 2.772166 -2.5610912 -0.47100958 2.8713684 -2.669738 2.2022703 0.5179293
-1.4087868 2.754819 -0.9773961 0.78128797 0.27797294 -0.612459 1.3267702 -0.61788934
-0.64125144 -0.6225927 -0.0894146 -0.8630214 1.6522527 -0.5725222 2.2183058 -0.56114686
-0.658442 -1.398907 1.59147 -0.46321532 1.8379275 -1.0878899 2.6733437 -0.84194267
-2.664207 1.8260058 -2.0905986 0.4312462 -2.8574016 2.6441593 -1.9904449 0.14519785
0.2615005 0.4088952 -1.0940913 1.3049214 -2.4001164 2.0840259 -2.286088 0.17861617
-2.508018 2.2306612 -1.876372 0.2617892 0.70191133 0.99156225 -1.9632733 1.5286372
-0.47342855 -0.31263804 0.14133413 1.7694255 0.9064451 0.83213896 -0.1310078 1.1976485
0.91416013 -0.5464738 -1.7760794 0.30719894 0.30541962 -0.45020044 -1.4275813 0.4759072
1.3669249 -0.0995048 0.8342011 0.83989096 1.9775759 -1.6921878 1.7871665 -0.80734813
-1.0923976 1.26067 -0.2523716 2.8285294 -0.28594244 -0.23532191 -2.0065258 0.9485174
0.56804305 -0.5252317 -1.6323981 0.80860627 0.19310024 -0.1692772 0.044792384 -0.7169225
1.1478257 -2.1480823 0.377835 -1.1785244 -2.340459 2.8432395 -1.4327706 0.24795194
-0.093495525 1.7194563 0.67129844 0.9486041 0.044122644 -0.17716865 -1.5671438 1.4159994
-2.6832466 2.0891964 -2.3093364 -0.5501296 -2.6397314 0.4005495 1.407652 2.22375
2.2213902 -2.2738101 2.7763796 1.1467834 0.44461903 0.46784273 -1.0671096 -0.6491044
-1.5018823 -0.6355208 -0.84024054 1.0780193 0.14959073 0.40578878 -0.1527009 -1.096427
0.29249376 -1.0686897 0.99783653 -1.5974789 -1.989236 0.42529735 1.722321 2.008781
-0.112706475 -1.1498328 -1.4235787 0.59093857 0.3272826 -0.550368 -1.3626754 0.27859753
-1.8186396 1.0088327 -2.482051 0.67343247 -1.1290314 -0.65932864 1.5749319 -0.8813306
-0.13047291 1.4148118 1.6760823 -0.115966864 1.6829044 -1.3711584 0.11947981 -1.6202195
00000000: 14d2 35c0 dba4 0540 3ee5 09c0 3792 e93e
00000010: 854d 253f 85f4 0cbf edb7 d5bf 98f6 623f
00000020: 0b68 35bf 92f1 8a3f f903 20c0 d0d0 9b3f
00000030: a880 47c0 4951 f33f 4148 dfbf 4190 4e3e
00000040: a43e 31bf 23a6 7abe 8fbf 93bf b75e b53f
00000050: 6500 f03f 92b8 ecbf 4285 683d c5ef ddbf
00000060: e542 063f 1b17 55bf 7272 7b3e 546d 99bf
00000070: 95c4 e0bf b92e b03f 457c 143d 8a84 1a40
00000080: 187f 31c0 2b6b 3140 ebe8 23c0 2b28 f1be
00000090: 80c4 3740 fddc 2ac0 fff1 0c40 0497 043f
000000a0: 2053 b4bf f44e 3040 a136 7abf 7d02 483f
000000b0: 7852 8e3e 1dca 1cbf 9bd3 a93f ff2d 1ebf
000000c0: 0e29 24bf 3c62 1fbf 001f b7bd f8ee 5cbf
000000d0: 047d d33f d190 12bf b9f8 0d40 52a7 0fbf
000000e0: a88f 28bf 620f b3bf 4ab5 cb3f 8f2a edbe
000000f0: 3541 eb3f fa3f 8bbf 1018 2b40 8e89 57bf
00000100: 5e82 2ac0 8fba e93f 5ecc 05c0 4dcc dc3e
00000110: abdf 36c0 e839 2940 e6c6 febf bfae 143e
00000120: 65e3 853e b65a d13e 2f0b 8cbf aa07 a73f
00000130: 829b 19c0 ae60 0540 444f 12c0 28e7 363e
00000140: 5e83 20c0 27c3 0e40 f52c f0bf 3c09 863e
00000150: 76b0 333f 06d7 7d3f 8a4c fbbf 62aa c33f
00000160: 3a65 f2be 1812 a0be e5b9 103e 897c e23f
00000170: c90c 683f 0f07 553f e926 06be 8c4c 993f
00000180: 6606 6a3f b5e5 0bbf 9256 e3bf 2e49 9d3e
00000190: f65f 9c3e ac80 e6be fcba b6bf 1caa f33e
000001a0: 65f7 ae3f 2cc9 cbbd 348e 553f 1803 573f
000001b0: 3521 fd3f 9c99 d8bf dfc1 e43f 5eae 4ebf
000001c0: afd3 8bbf a25d a13f da36 81be a006 3540
000001d0: 0c67 92be 3af8 70be eb6a 00c0 09d2 723f
000001e0: 456b 113f 9675 06bf 6cf2 d0bf d200 4f3f
000001f0: 12bc 453e 0157 2dbe 3878 373d 3c88 37bf
00000200: f4eb 923f 2e7a 09c0 9773 c13e e3d9 96bf
00000210: 15ca 15c0 a3f7 3540 0765 b7bf 1de7 7d3e
00000220: 957a bfbd 2517 dc3f 37da 2b3f b8d7 723f
00000230: f2b9 343d b36b 35be 2b98 c8bf 783f b53f
00000240: 50ba 2bc0 65b5 0540 2bcc 13c0 4bd5 0cbf
00000250: 5cf1 28c0 d314 cd3e f12d b43f ec51 0e40
00000260: 422b 0e40 1b86 11c0 34b0 3140 ccc9 923f
00000270: 1ba5 e33e 1589 ef3e 0c97 88bf b52b 26bf
00000280: ae3d c0bf 7eb1 22bf 011a 57bf 89fc 893f
00000290: 502e 193e 8cc3 cf3e a05d 1cbe b857 8cbf
000002a0: bec1 953e d3ca 88bf 3772 7f3f 307a ccbf
000002b0: 499f febf 93c0 d93e 0475 dc3f de8f 0040
000002c0: a7d2 e6bd b92d 93bf d437 b6bf c047 173f
000002d0: 9691 a73e ebe4 0cbf 266c aebf 56a4 8e3e
000002e0: 2fc9 e8bf 6e21 813f ecd9 1ec0 1266 2c3f
000002f0: 1a84 90bf c3c9 28bf 5e97 c93f e29e 61bf
00000300: b19a 05be 8e18 b53f dd89 d63f 0980 edbd
00000310: 6969 d73f 1e82 afbf d5b1 f43d 5a63 cfbf

fc1.bias f4 [50]
0.37509823 -0.40325344 0.053572927 -0.01021175 0.72889835 -0.34965077 -0.90173817 2.234169
0.16272067 0.16988212 1.3395301 0.8531926 0.07317895 0.58549297 -0.07376822 0.7439603
0.24283707 0.5583118 0.15189028 0.3113786 0.6645115 0.7687003 0.35948938 -0.18035391
0.96189916 0.43553475 0.29985574 0.17700107 2.182417 0.49608427 0.013476486 -0.118282385
-0.6378124 1.1283256 1.4276799 -0.17656223 0.52621293 1.0331488 0.108670235 -0.3770295
0.89373434 -0.07697958 -1.2458558 1.3666018 0.10102028 0.4130867 0.5534485 0.019648444
1.2344083 0.28351444
00000000: e00c c03e 3c77 cebe 496f 5b3d 2f4f 27bc
00000010: 1599 3a3f 6d05 b3be 50d8 66bf a0fc 0e40
00000020: 3fa0 263e 94f5 2d3e b975 ab3f d56a 5a3f
00000030: d8de 953d dee2 153f cb13 97bd 2f74 3e3f
00000040: 48aa 783e 86ed 0e3f 2089 1b3e 046d 9f3e
00000050: 6d1d 2a3f 8bc9 443f fe0e b83e b2ae 38be
00000060: 063f 763f 69fe de3e b186 993e c53f 353e
00000070: b8ac 0b40 c2fe fd3e 7bcc 5c3c 093e f2bd
00000080: ac47 23bf f96c 903f 37be b63f bbcc 34be
00000090: e4b5 063f 383e 843f 808e de3d 030a c1be
000000a0: c6cb 643f 78a7 9dbd 3478 9fbf cfec ae3f
000000b0: b8e3 ce3d 1a80 d33e cdae 0d3f c6f5 a03c
000000c0: 1701 9e3f ce28 913e

fc_out.weight f4 [10, 50]
-0.942327 0.6020306 0.87556463 -1.1773299 0.25149402 -3.4552176 -0.602878 -0.001051024
-2.002151 -2.8021257 -1.4442967 -0.15210621 -0.22162986 -0.15056881 -0.18962798 -0.52701896
-0.9982702 -1.2115648 0.7654737 -1.4029834 -0.96951836 0.8937401 0.20932637 0.3127628
0.3972272 0.47535038 -0.45683563 -1.5185806 -0.013064475 0.5295304 0.512296 -0.27532634
-2.7055426 -1.4242417 -0.5555968 0.562692 -2.0386806 -1.0426773 -3.8689027 0.018192265
0.5629149 0.16930899 -0.39404613 -1.5799478 0.520673 0.45818067 1.3100342 -0.19834398
0.1016375 -2.9180882 -0.09871589 0.5185934 -0.21188866 -0.74185413 -0.6049697 -1.3842318
-0.6304113 -0.9951546 -0.9745135 -0.67958176 -1.2215047 0.02424259 0.3070825 -0.14473608
-0.4249203 -0.5209913 -0.9315174 -0.5949578 -0.12845898 -1.0890511 -0.83265626 -0.4943178
-0.4253464 -0.24961638 -0.15667802 -0.048185192 -0.14677829 -1.1845225 -0.8112949 -0.010951667
0.001513188 0.078460686 -0.91018844 -0.8950207 -0.6979646 -0.0052033965 -0.66904664 -1.0907272
-1.18367 -0.27638257 -0.31532267 -0.016333997 -0.9887657 -1.5538661 0.31633145 0.34851778
0.07532437 -0.030828824 -0.26480693 -0.9430745 -0.42334107 0.16709153 0.26193827 -0.94908243
-0.41115195 -1.1373922 -0.87347084 -1.351091 -1.1009084 -0.942063 -0.8575711 0.053553253
-0.13937776 -0.12189012 -0.22977054 -0.67237216 -0.9622127 -0.6746846 -0.28076515 -1.073489
-0.84405154 0.13982351 -0.6201619 0.13690627 -0.3424007 0.15101476 -0.44418272 -0.9978699
-0.9963338 -0.12102619 0.3295533 0.009460131 -0.87881243 -0.58267605 -0.7643352 0.20827007
-1.0075039 -0.8353843 -1.0476643 0.021351863 -0.21041952 0.24833366 -0.8249956 -1.5249834
0.40325508 0.113925666 0.50789475 0.02969589 -0.42384332 -1.3045914 -0.34591192 0.37852433
0.23323207 -0.86360127 -0.14341992 -0.9577202 -0.4942502 -1.4511721 -0.6806552 -0.6182192
-0.95867693 -0.16608067 -0.25676742 -0.2345779 -0.3738862 -0.7888106 -0.48172277 -0.8375002
-0.41903365 -0.869122 -0.8058273 -0.40984437 -0.34659672 -0.32480314 -0.029856684 0.28202143
-0.10625935 -0.86617154 -1.3771142 -0.031414926 -0.23096323 0.29172522 -1.0118381 -0.81728697
-0.78340966 -0.13794246 -0.9210544 -1.1421676 -0.6942078 0.1481181 -0.5653809 -0.2973339
-0.62928486 -1.2423227 -0.14410082 -0.10413204 0.19519368 0.13301885 -0.16681106 -0.9601103
-0.5812124 -0.07734496 -0.54495245 -0.27466312 -0.16113238 -1.1545677 -1.0649437 -2.0643659
-0.87019503 -0.45500696 -0.5186001 -0.47599354 -0.26339397 -0.4808061 -0.82563835 -0.87746507
-0.646142 -0.6662485 -0.18470694 -0.27577436 -0.31788334 -0.57433474 -0.016293114 -0.2608858
-0.9613883 0.39388496 0.23033695 -0.5115461 -2.3056147 0.094992146 0.14316693 -0.06187415
-1.3846745 -0.6283213 -0.90892214 -0.0685089 -0.43346983 -1.1891725 -0.1876046 0.07286789
-0.67013204 0.15460029 -1.366258 -1.0149248 0.2614235 0.12644653 -0.58816254 -0.7138615
-0.94618726 -1.1742371 -0.87951374 0.2887028 -0.51295567 -0.48475304 -0.611795 -0.39778045
00000000: 583c 71bf ad1e 1a3f 0125 603f bfb2 96bf
00000010: d3c3 803e 4922 5dc0 3656 1abf 83c2 89ba
00000020: 3e23 00c0 0756 33c0 b7de b8bf bbc1 1bbe
00000030: f0f2 62be b62e 1abe d62d 42be b7ea 06bf
00000040: a38e 7fbf 8e14 9bbf 16f6 433f f694 b3bf
00000050: 5b32 78bf 27cc 643f a759 563e 7222 a03e
00000060: 5d61 cb3e 2061 f33e 5ce6 e9be d960 c2bf
00000070: 610c 56bc 4e8f 073f d525 033f 93f7 8cbe
00000080: 9c27 2dc0 8d4d b6bf 983b 0ebf 950c 103f
00000090: be79 02c0 7376 85bf 1a9c 77c0 f207 953c
000000a0: 311b 103f 565f 2d3e 6ac0 c9be bb3b cabf
000000b0: d34a 053f a896 ea3e 33af a73f af1a 4bbe
000000c0: 5227 d03d f5c1 3ac0 8e2b cabd 89c2 043f
000000d0: 57f9 58be 27ea 3dbf 4bdf 1abf 822e b1bf
000000e0: a362 21bf 74c2 7ebf b779 79bf 12f9 2dbf
000000f0: 445a 9cbf 6598 c63c eb39 9d3e b235 14be
00000100: 278f d9be b05f 05bf ed77 6ebf 284f 18bf
00000110: c08a 03be 0766 8bbf f628 55bf 3917 fdbe
00000120: 01c7 d9be 709b 7fbe 3470 20be d65d 45bd
00000130: 0c4d 16be 6f9e 97bf 06b1 4fbf 9f6e 33bc
00000140: 2a56 c63a ffaf a03d 1c02 69bf 1420 65bf
00000150: cfad 32bf 4181 aabb a446 2bbf f39c 8bbf
00000160: 8082 97bf 0482 8dbe f971 a1be e0ce 85bc
00000170: c01f 7dbf 16e5 c6bf 32f6 a13e ec70 b23e
00000180: aa43 9a3d bb8c fcbc c694 87be 556d 71bf
00000190: 29c0 d8be 0b1a 2b3e c61c 863e 11f7 72bf
000001a0: 8282 d2be 1196 91bf c99b 5fbf 8df0 acbf
000001b0: 91ea 8cbf 0a2b 71bf c889 5bbf a85a 5b3d
000001c0: 0bb9 0ebe 87a1 f9bd f848 6bbe 9520 2cbf
000001d0: 9253 76bf 21b8 2cbf 73c0 8fbe 1668 89bf
000001e0: c313 58bf e52d 0f3e eec2 1ebf 2831 0c3e
000001f0: 254f afbe 9da3 1a3e eb6b e3be 6774 7fbf
00000200: bb0f 7fbf 94dc f7bd 36bb a83e aafe 1a3c
00000210: daf9 60bf 422a 15bf 79ab 43bf c044 553e
00000220: e3f5 80bf bfdb 55bf dd19 86bf 1aea ae3c
00000230: 3778 57be 2e4b 7e3e e932 53bf a832 c3bf
00000240: 7377 ce3e dc51 e93d 6405 023f cc44 f33c
00000250: fe01 d9be dafc a6bf 5e1b b1be f1cd c13e
00000260: 63d4 6e3e f914 5dbf acdc 12be 272d 75bf
00000270: 5d0e fdbe 02c0 b9bf 6b3f 2ebf 9d43 1ebf
00000280: da6b 75bf 0d11 2abe 0577 83be 3035 70be
00000290: 036e bfbe 7eef 49bf 5ea4 f6be 6a66 56bf
000002a0: 948b d6be c87e 5ebf b34a 4ebf 1fd7 d1be
000002b0: 2075 b1be 994c a6be 0196 f4bc 1d65 903e
000002c0: 819e d9bd 6bbd 5dbf 4745 b0bf f0ac 00bd
000002d0: a081 6cbe 025d 953e e983 81bf b839 51bf
000002e0: 898d 48bf ca40 0dbe 39ca 6bbf 8c32 92bf
000002f0: 9ab7 31bf 45ac 173e cdbc 10bf 263c 98be
00000300: d018 21bf 6e04 9fbf 2a8f 13be 2e43 d5bd
00000310: dae0 473e 1836 083e 85d0 2abe cac9 75bf
00000320: 56ca 14bf 0967 9ebd 0182 0bbf a5a0 8cbe
00000330: e3ff 24be e0c8 93bf 1350 88bf 921e 04c0
00000340: 1ac5 5ebf acf6 e8be fac2 04bf 6db5 f3be
00000350: 93db 86be 382c f6be 095d 53bf 8da1 60bf
00000360: 9069 25bf 438f 2abf d123 3dbe 4c32 8dbe
00000370: 9bc1 a2be 9a07 13bf 2379 85bc d392 85be
00000380: 8b1d 76bf 4aab c93e 73dd 6b3e aff4 02bf
00000390: 318f 13c0 3e8b c23d 5a9a 123e c06f 7dbd
000003a0: 043d b1bf aad9 20bf 1faf 68bf 654e 8cbd
000003b0: c2ef ddbe ce36 98bf 6c1b 40be c33b 953d
000003c0: c68d 2bbf 8a4f 1e3e 8be1 aebf 0ee9 81bf
000003d0: 4dd9 853e 337b 013e d291 16bf a1bf 36bf
000003e0: 5439 72bf 674d 96bf d027 61bf dad0 933e
000003f0: 1051 03bf 8d31 f8be 999e 1cbf e1a9 cbbe

fc_out.bias f4 [10]
0.18051243 -0.43881807 -0.48620477 -0.29756603 -0.44188592 -0.6388209 -0.56833863 -0.82204115
-0.16052094 -0.7091037
00000000: 40d8 383e c3ac e0be d5ef f8be 935a 98be
00000010: df3e e2be c489 23bf a47e 11bf 4a71 52bf
00000020: 9a5f 24be d287 35bf
