models/demo_D0_TOKYO_03_58_10_314.pt (torch_old, 3768 bytes, 4 tensors)

fc1.weight f4 [50, 4]
0	0xc00e7902	-2.2261357
1	0x3b9a5b1e	0.004710569
2	0xbf9bee53	-1.2182106
3	0xbe8cc0d5	-0.2749087
4	0xbef5df47	-0.4802191
5	0xbe70e4f1	-0.23524834
6	0xbfa2a916	-1.2707851
7	0x3f65f062	0.8981992
8	0x3f657727	0.8963494
9	0x40088f00	2.133728
10	0xbf504c82	-0.8136674
11	0x3fa0c4c3	1.2560047
12	0xc0178688	-2.3675861
13	0xbfba28ac	-1.4543662
14	0xbf38273c	-0.71934867
15	0xbe61f9d4	-0.22067958
16	0xbf09c13f	-0.53810495
17	0xbfc890cb	-1.5669187
18	0xbfc95903	-1.5730289
19	0x3fad5058	1.3540144
20	0x3f451e57	0.7699942
21	0xbf7aa703	-0.9791109
22	0xbfd3a078	-1.6533346
23	0xbf659eea	-0.8969561
24	0xbf5571a4	-0.83376527
25	0xbff4e090	-1.9131031
26	0xbf6d3b0d	-0.9266823
27	0xbf5a5e8e	-0.8530053
28	0xc0131b89	-2.2985556
29	0xbee18e66	-0.44053954
30	0xbe82df7b	-0.25561127
31	0xbee2f041	-0.44323924
32	0xbfc2ba8a	-1.5213177
33	0xbec7e1ed	-0.39039555
34	0xbfdbdb7e	-1.7176359
35	0xbfbccd42	-1.475014
36	0xbee6380e	-0.4496464
37	0xbfc5060c	-1.539247
38	0xbea26a47	-0.31721708
39	0x3ed3ab7b	0.41341767
40	0xbdda0833	-0.10646095
41	0x3fa0a8eb	1.255155
42	0x3d8d9d17	0.06914728
43	0xbfccf64d	-1.6012665
44	0xbf8c1c50	-1.094614
45	0xbfd6dc9e	-1.6786077
46	0x3e2175fc	0.15767664
47	0xbfb7568a	-1.4323285
48	0xbfc9c64e	-1.5763643
49	0xbff9d4c8	-1.9518061
50	0x3d46e49d	0.048557866
51	0xbfb85fa8	-1.4404192
52	0xbed10bcf	-0.40829322
53	0x3f80737f	1.0035247
54	0x3fa44d3f	1.2836074
55	0xbfba972c	-1.4577384
56	0xbfe70f97	-1.8051633
57	0xc0119193	-2.2745101
58	0xbe8cd8f7	-0.2750928
59	0xbf25a32d	-0.6470211
60	0xbed771a3	-0.42078885
61	0xbe40f6fa	-0.18844214
62	0x4034f249	2.827288
63	0xbf83d488	-1.0299234
64	0xbfb58893	-1.4182304
65	0xbfb7a2ea	-1.4346592
66	0xbf08b788	-0.53405046
67	0xbed7f83c	-0.42181575
68	0xbf9a7ea4	-1.2069898
69	0x407929f4	3.8931856
70	0xbdbc7a54	-0.0920302
71	0xbeef65b6	-0.46757287
72	0x3ff5a659	1.919139
73	0x3ec7ee05	0.39048782
74	0x3d6f8c7c	0.058483586
75	0x3fe589a7	1.7932633
76	0xbfda042b	-1.7032522
77	0xbf55e43b	-0.8355138
78	0xbf144504	-0.5791781
79	0xbe26ba9d	-0.16282125
80	0xbf71380e	-0.9422616
81	0x4018afde	2.385734
82	0x3f97330d	1.1812454
83	0xbd9577e6	-0.072982594
84	0x3eed6fa3	0.46374235
85	0xbea31953	-0.31855258
86	0xbf7f1305	-0.99638397
87	0x3f056aa6	0.5211586
88	0xbf94bbe4	-1.161984
89	0x3f71f745	0.9451793
90	0x3dcf7a82	0.101307884
91	0x3f0be1bd	0.54641324
92	0xbf6596db	-0.8968331
93	0x3f21dfb5	0.63231975
94	0x3fc35f07	1.5263375
95	0xbed811bf	-0.4220104
96	0x3dbc33ec	0.09189591
97	0xbebb7c42	-0.3661824
98	0xbff1cb29	-1.8890125
99	0xbf6f064a	-0.9336897
100	0x3f2a4b0b	0.66520756
101	0xbf9134ae	-1.1344202
102	0xbf1d77f4	-0.6151116
103	0x3fa7c83b	1.310798
104	0xbd122af7	-0.035685506
105	0xbf14a6c6	-0.58066976
106	0x3d818af0	0.06325328
107	0x3f071ae5	0.5277541
108	0x3e8e8cdd	0.27841845
109	0xbfb5e412	-1.4210227
110	0xbddc9b61	-0.10771824
111	0xbf64a961	-0.8932095
112	0xbfde0eb0	-1.7348232
113	0x3c73c6a0	0.014878899
114	0xbf221d54	-0.63326
115	0x3f7274f4	0.94709706
116	0xbf260b4c	-0.6486099
117	0xbfc261c3	-1.5186085
118	0xbfb5c9f5	-1.4202257
119	0xbe44f998	-0.19235837
120	0x3ed1d4fa	0.409828
121	0xbfd07dd1	-1.6288396
122	0xbf5e90de	-0.869398
123	0x3e20732b	0.15668933
124	0xbf854eee	-1.0414712
125	0xbfd86139	-1.690467
126	0x3d7ec77f	0.062201973
127	0xbfb48883	-1.410416
128	0xbfb873ff	-1.4410399
129	0xc0071648	-2.110735
130	0xbe318237	-0.1733483
131	0xbfb63d8e	-1.4237535
132	0xbcadeec4	-0.021232016
133	0x400874f6	2.1321387
134	0xbf14e17f	-0.5815658
135	0xbfaa2fc5	-1.3295828
136	0x3cf3cfb5	0.029762128
137	0x3f08b508	0.5340123
138	0x3e42a666	0.19008788
139	0xbf86e335	-1.0538088
140	0xbe169606	-0.14705667
141	0x3ea3e8d3	0.32013568
142	0xbdbdf76f	-0.0927571
143	0x3fae3708	1.3610544
144	0xbfa5f1dc	-1.2964435
145	0xc00e24d5	-2.220998
146	0xbf2e162c	-0.6800258
147	0xbfac5df7	-1.3466176
148	0xc0392f63	-2.8935173
149	0xbfebd58e	-1.8424547
150	0x3e083be5	0.13304098
151	0x3eaf1154	0.34192908
152	0xbe71e540	-0.23622608
153	0x3e28c7ad	0.1648242
154	0x3fb1004f	1.3828219
155	0x3fda0957	1.70341
156	0x3f3ed169	0.74538285
157	0x3fa43a62	1.2830317
158	0xbf8c5fab	-1.0966696
159	0xbf9c256a	-1.2198918
160	0xc00a5ebe	-2.1620326
161	0xbfc2e81f	-1.5227088
162	0xbe7e1ec6	-0.24816427
163	0x3ef846ba	0.4849146
164	0xbf466de1	-0.7751141
165	0xc00808e7	-2.1255434
166	0x3e8db7c9	0.2767928
167	0xbfa041fc	-1.2520137
168	0xbf8ac5d9	-1.0841628
169	0xbfe56efa	-1.7924492
170	0xbe8bba84	-0.27290738
171	0xbf452161	-0.7700406
172	0xbffd6f87	-1.979966
173	0x3f3b042d	0.73053247
174	0xbf2f13e8	-0.6838975
175	0x3ee5b226	0.4486248
176	0xbfd28b33	-1.644873
177	0xbf86c0fb	-1.0527643
178	0xbe5be47b	-0.21473877
179	0xbd0ef117	-0.03489789
180	0x3f44fb39	0.76945835
181	0xc000140d	-2.0012238
182	0xbf5c0a8e	-0.85953605
183	0x3ebf74b0	0.37393713
184	0xbf97acb2	-1.1849577
185	0xbf005bdf	-0.50140184
186	0xbea833d1	-0.32852033
187	0xbd855cda	-0.06511851
188	0xc01130f3	-2.2686126
189	0xc00a5763	-2.1615837
190	0x3f010cff	0.50410455
191	0xbf6a330e	-0.91484153
192	0xbdefba19	-0.11705417
193	0x3d086513	0.033299517
194	0x3eeaf717	0.4589164
195	0xbfee6dab	-1.8627218
196	0xbecc60c1	-0.39917567
197	0xbfd78722	-1.6838114
198	0xbf6dd1df	-0.9289836
199	0xbf24fbc9	-0.64446694

fc1.bias f4 [50]
0	0xbdd7d968	-0.10539514
1	0x3e95540c	0.29165685
2	0x3e4c1876	0.19931206
3	0xbed2d81f	-0.41180512
4	0x3ed832ec	0.4222635
5	0x3eff2bb4	0.4983803
6	0x3e60fd64	0.21971661
7	0xbd6cd8f7	-0.0578241
8	0xbe40a8b9	-0.18814363
9	0x3fa24aa5	1.267903
10	0x3d65734b	0.056018155
11	0xbf1f1e29	-0.62155396
12	0xbf2619fc	-0.648834
13	0x3f1d908e	0.615487
14	0xbf105b78	-0.5638957
15	0x3f692d42	0.9108468
16	0xbf07afeb	-0.53002805
17	0xbe9a5892	-0.301457
18	0x3eb6ebea	0.35726863
19	0xbf578c5a	-0.84198534
20	0xbf59eb5c	-0.85124755
21	0x3f24622d	0.64212304
22	0x3ed180be	0.40918535
23	0x3f85d5af	1.0455836
24	0x3d9550f7	0.072908334
25	0x3f0d017e	0.550804
26	0x3fb7a1be	1.4346235
27	0x3f512355	0.8169454
28	0xbe74fdbb	-0.23924915
29	0xbde2d580	-0.11075878
30	0x3f40090a	0.7501379
31	0xbf2f1070	-0.68384457
32	0xbf54207f	-0.82862085
33	0x3db1ea0e	0.086872205
34	0x3f883c3b	1.0643381
35	0xbf5b0d9a	-0.8556763
36	0x3f294ce6	0.6613296
37	0xbec3292a	-0.38117343
38	0xbe5815cb	-0.21102063
39	0xbeb45d34	-0.35227358
40	0xbde100c4	-0.10986474
41	0x3f3e694d	0.74379426
42	0xbf23936f	-0.6389684
43	0x3e633a71	0.22190262
44	0xbf07f42e	-0.53106964
45	0x3edc9da7	0.4308903
46	0x3f955dd6	1.1669261
47	0xbf7a51cd	-0.9778107
48	0x3f8c0fad	1.0942284
49	0x3f8ef69a	1.1169007

fc_out.weight f4 [10, 50]
0	0xbec33f05	-0.38134018
1	0x3f0d9261	0.5530148
2	0xbed3f3e1	-0.41397002
3	0xbf1fe5e0	-0.62460136
4	0xbe0dc10e	-0.13843176
5	0xbe0370e2	-0.1283603
6	0x3ddf83eb	0.10913833
7	0xbea5fd9a	-0.32420045
8	0xbd90571c	-0.07047865
9	0x3ef9eabb	0.48811898
10	0xbf106c8d	-0.56415635
11	0xbe652ff9	-0.22381581
12	0xbf472b83	-0.7780077
13	0xbd949545	-0.072550334
14	0xbf03248c	-0.5122764
15	0x3ee3347a	0.44375974
16	0xbe27ba6b	-0.16379707
17	0x3e8cf9a8	0.27534223
18	0xbf9a2d57	-1.2045087
19	0xbe8467c4	-0.25860417
20	0x3f1ee382	0.620659
21	0x3f66c9cf	0.90151685
22	0xbe33e17b	-0.17566483
23	0x3ee30518	0.44339824
24	0xbe7ad7a5	-0.24496324
25	0x3d0bf7ba	0.034171797
26	0x3ec97b5d	0.3935193
27	0x3f2b4997	0.66909164
28	0xbeeca25f	-0.4621763
29	0xbdafea96	-0.085896656
30	0x3f235c06	0.6381229
31	0xbf8ef60b	-1.1168836
32	0xbf85e6d5	-1.0461069
33	0xbd53fbc3	-0.05175377
34	0x3f8e69e4	1.1126065
35	0x3d85855b	0.06519576
36	0x3e4ad414	0.19807464
37	0xbf5fbafb	-0.87394685
38	0xbf986e34	-1.1908631
39	0x3da45dac	0.08025679
40	0xbe143c92	-0.1447623
41	0x3f6b3756	0.9188131
42	0xbe09ef66	-0.1347023
43	0xbf3b1e8c	-0.73093486
44	0xbf673e0c	-0.9032905
45	0xbeabc6b2	-0.3355003
46	0x3f7a301a	0.9772965
47	0xbf78cb8a	-0.97185576
48	0x3f1e8fc2	0.61938107
49	0x3ec4f5d7	0.3846881
50	0x3e9e0f56	0.30871075
51	0x3f8a8411	1.0821553
52	0xbfac57db	-1.3464311
53	0xbf3903a5	-0.72271186
54	0xbeec5294	-0.46156752
55	0xbd792be0	-0.060832858
56	0x3ebf53fc	0.37368762
57	0xbebd640e	-0.36990398
58	0xbecd3025	-0.40075794
59	0x3fa8f14d	1.3198639
60	0xbf097071	-0.53687197
61	0xbf517b71	-0.8182898
62	0xbf0e8891	-0.55677134
63	0x3eeaad6e	0.4583544
64	0xbf8f08c4	-1.117455
65	0xbf4db89b	-0.8035981
66	0xbf27e701	-0.6558686
67	0x3fd2735e	1.6441457
68	0xbe061415	-0.13093598
69	0xbf5a611b	-0.8530442
70	0xbe3b4620	-0.1828847
71	0x3f0f01cf	0.55862135
72	0x3e1746ba	0.14773074
73	0x3f61dfd1	0.8823214
74	0xbd4e5a4e	-0.05037909
75	0xbe8283a3	-0.25491056
76	0x3f975c46	1.1825035
77	0x3e15991c	0.14609188
78	0xbf3542e8	-0.70805216
79	0x3d965a8e	0.07341491
80	0xbd9ea61e	-0.07746528
81	0xbfa369bb	-1.2766641
82	0xbf5586dd	-0.8340891
83	0xbf3e9caf	-0.7445783
84	0x3f97dd11	1.1864339
85	0x3eaa7f92	0.33300453
86	0x3f2de512	0.6792766
87	0xbf939c6b	-1.153211
88	0xbf1bb8cd	-0.6082886
89	0xbf0d69a2	-0.5523931
90	0xbeb3b328	-0.35097623
91	0x3f7b18d7	0.9808478
92	0xbf030648	-0.5118146
93	0xbf53b1d8	-0.82693243
94	0xbf537029	-0.8259302
95	0xbd593641	-0.053030256
96	0x3f309200	0.6897278
97	0xbf93461c	-1.1505771
98	0x3fbf6f02	1.4955752
99	0x3e820fa4	0.25402558
100	0x3d8c288c	0.06843671
101	0x3f1e9408	0.6194463
102	0xbe90c647	-0.28276274
103	0xbf1c775d	-0.61119634
104	0xbed78f64	-0.42101586
105	0xbdf9ea93	-0.122029446
106	0xbdf66f9c	-0.120330065
107	0xbf2b3e60	-0.6689205
108	0xbdfd6702	-0.12373163
109	0x3f0ebe49	0.557591
110	0xbf075907	-0.5287022
111	0xbdafe83e	-0.085892186
112	0xbf22b83e	-0.6356238
113	0x3ebf7bd9	0.37399176
114	0xbed43489	-0.4144633
115	0xbf3936aa	-0.72349036
116	0xbeb9c19d	-0.36280528
117	0x3ec8ea0d	0.39241067
118	0xbf3c323a	-0.7351414
119	0xbefca79d	-0.4934663
120	0x3ea6afa2	0.32555872
121	0x3f6e089e	0.929819
122	0xbf45011a	-0.76954806
123	0x3f8a75b8	1.0817175
124	0xbd4036d4	-0.04692729
125	0xbe687afb	-0.22703163
126	0x3f31d7ad	0.6946972
127	0x3eb1550f	0.34635207
128	0xbf0401c0	-0.5156517
129	0xbee0610e	-0.43824047
130	0x3fb44afc	1.4085383
131	0xbf1e0b03	-0.6173555
132	0xbecb5447	-0.39712736
133	0x3cbcf30f	0.023065118
134	0x3fa27ce4	1.2694364
135	0x3f4fae25	0.811251
136	0x3e900c00	0.28134155
137	0xbf0896d0	-0.5335512
138	0xbd431913	-0.047631335
139	0xbcfa3d11	-0.030546697
140	0xbea500f1	-0.3222728
141	0x3f5c5502	0.8606721
142	0xbf2b7e6d	-0.66989785
143	0xbf4fd97e	-0.8119124
144	0xbebfffca	-0.3749984
145	0xbec9badb	-0.39400372
146	0x3f2d06c9	0.6758848
147	0xbef00bec	-0.46884096
148	0x3f542ef0	0.8288412
149	0xbe61c268	-0.22046816
150	0x3ebba194	0.36646712
151	0x3f8c4d3f	1.0961074
152	0x3eafe7a0	0.34356403
153	0xbf71cdbb	-0.94454545
154	0xbe8150f6	-0.2525708
155	0xbe128d99	-0.14311828
156	0xbdd16ad2	-0.102254525
157	0xbf90f749	-1.1325465
158	0x3e9ff9cc	0.31245267
159	0x3eaba9b1	0.33527902
160	0xbe6704c2	-0.22560409
161	0xbeac7fc3	-0.33691224
162	0xbf48fae4	-0.7850783
163	0xbe0a5fe6	-0.13513145
164	0xbf117021	-0.5681172
165	0xbefa1e0b	-0.48851046
166	0xbe9fd928	-0.31220365
167	0x3e75d835	0.24008258
168	0xbefdc7f8	-0.49566627
169	0xbf05a8b1	-0.5221053
170	0xbea26b92	-0.31722695
171	0x3f07470e	0.52842796
172	0x3f07dfae	0.53075683
173	0xbeac3cd2	-0.33640152
174	0x3f118827	0.56848377
175	0xbe2981a3	-0.16553359
176	0x3f569e17	0.83834976
177	0x3e188a1a	0.14896432
178	0xbf73ee17	-0.9528517
179	0xbf04c44a	-0.51862013
180	0x3e89bfb3	0.26904067
181	0xbe037a1d	-0.12839551
182	0xbf482bbe	-0.78191745
183	0x3e98e668	0.29863286
184	0x3f7e08ae	0.99231994
185	0xbdf0a430	-0.11750066
186	0xbe9434bc	-0.28946483
187	0xbf8a336c	-1.0796943
188	0xbdcfb361	-0.10141636
189	0x3f473862	0.7782041
190	0xbf56b509	-0.8386999
191	0xbe962e3e	-0.29332155
192	0xbef5c02d	-0.4799818
193	0x3ce42c58	0.027853176
194	0xbf690e78	-0.910377
195	0xbf58936f	-0.84599966
196	0x3eb0753f	0.34464452
197	0xbe9d7fb1	-0.30761483
198	0x3f5fb443	0.8738443
199	0xbe84355d	-0.25821963
200	0xbe7af286	-0.24506578
201	0x3dde5dd2	0.108577386
202	0xbf436336	-0.7632326
203	0xbe380f0e	-0.17974493
204	0xbb5abfa6	-0.0033378392
205	0xbe13b317	-0.14423786
206	0xbe25ea5f	-0.16202687
207	0xbebe9915	-0.37226167
208	0xbeb00969	-0.3438218
209	0x3f0342d0	0.5127382
210	0x3ec2affd	0.38024893
211	0xbe6355fa	-0.22200766
212	0xbf34e582	-0.706627
213	0x3e98396e	0.29731315
214	0xbf2c5f44	-0.67332864
215	0xbf86919c	-1.0513186
216	0xbed05658	-0.40690875
217	0xbeeb99e3	-0.46015844
218	0xbef7dc6f	-0.48410365
219	0x3a6acd96	0.00089570263
220	0xbdb4664f	-0.08808576
221	0x3e3df5f0	0.18550849
222	0x3f10a90d	0.5650795
223	0x3e82c786	0.2554285
224	0xbea228a0	-0.3167162
225	0x3e31de99	0.1737007
226	0x3f8f1ec6	1.1181266
227	0x3f60f3d9	0.8787208
228	0xbeb492ce	-0.35268253
229	0xbeb85e0d	-0.36009255
230	0x3f02aaa4	0.51041627
231	0xbf3fc3c9	-0.7490812
232	0xbf3340b5	-0.7002061
233	0xbdb6d5b9	-0.08927483
234	0x3f967311	1.1753865
235	0x3f2566a3	0.64609736
236	0x3e29add3	0.16570215
237	0xbf2d0131	-0.6757994
238	0xbedbfba5	-0.42965427
239	0xbb5b08e5	-0.003342205
240	0xbeaa4cff	-0.33261868
241	0x3ecfefda	0.4061268
242	0xbf15a118	-0.58448935
243	0x3eb44310	0.35207415
244	0xbe584465	-0.2111984
245	0xbe6c6fa3	-0.23089461
246	0x3d46cd9b	0.048535924
247	0xbe74896e	-0.2388055
248	0x3f0552b6	0.5207933
249	0xbe0b5121	-0.13605167
250	0xbea13c0d	-0.31491128
251	0x3f420b7d	0.7579878
252	0x3e341f8a	0.17590156
253	0xbdbdc6cb	-0.092664324
254	0xbefccacd	-0.49373475
255	0x3e91b602	0.28459173

fc_out.bias f4 [10]
0	0x3df3a12e	0.11895977
1	0xbd333586	-0.043752216
2	0xbe902700	-0.28154755
3	0xbd97870b	-0.07398804
4	0xbea0e51d	-0.314248
5	0xbe97620c	-0.2956699
6	0xbe101b96	-0.14073023
7	0xbef6fbcf	-0.4823899
8	0x3e3b4ff6	0.18292221
9	0xbe025a2b	-0.12729709
