models/demo_A1aTOKYO_11_19_30_314.pt (torch_old, 15769 bytes, 4 tensors)

fc1.weight f4 [250, 4]
-1.1498947 -0.33148783 1.4561958 2.351975 0.31092304 0.60221535 -1.2647063 -0.28723028
0.61906964 -1.5625167 -0.7879368 0.16943845 -0.07889948 0.10462347 -1.0552721 -0.46165594
1.0741673 -1.5915518 0.3815179 -1.151149 0.99002826 -1.5007408 2.6653824 0.5518047
-1.7889642 0.23582001 -0.7695829 0.70504296 -0.50248665 -0.16550426 1.2146137 -0.7059922
-2.139571 1.035431 -2.297621 1.1547241 0.16615307 1.3435398 -2.0966263 -0.82890314
-0.039290953 0.51444125 1.9411528 1.0096393 -0.43437615 2.3199546 -2.3046544 0.7224473
1.4909946 -0.7729218 0.24424356 -1.0816153 0.5184518 0.012058573 -0.8219996 2.416767
0.7856423 0.16105501 2.3786542 -0.5287146 -0.6877102 1.9719895 0.79134214 1.4854316
0.72059655 -0.74053425 -1.3490782 -0.10248297 0.005632096 0.163984 0.23520492 2.124605
-0.14282845 0.9198072 -1.044892 -1.7350408 -0.5126092 0.25636736 -0.53507644 -1.3512412
2.0491564 -0.7124809 -1.3063126 -1.0993499 0.3639841 0.33216974 -0.014039825 1.7127181
1.6545056 -1.7358913 0.9393051 -0.81956655 0.63473284 -1.1608236 0.32837346 -0.7909481
0.6281616 -1.2676014 -2.5700743 0.79265743 0.8026744 -0.76000226 0.89637446 1.8864383
0.71152276 -0.7104214 -0.9461186 1.7384552 -2.3795006 1.4189916 -0.9662627 0.06814026
-1.1678727 0.1809168 -0.13131897 1.5271229 -1.354972 0.8820577 -1.5341611 -2.2240767
0.18989237 -1.535033 -1.6782053 -0.1654995 -1.1479197 0.9980434 0.22649607 -1.5477319
0.1320374 -0.78407705 -0.7491597 0.024538271 0.28931594 1.0814577 -0.43995616 1.0243378
1.0085354 0.97819644 0.99155545 -1.1687206 -1.4921002 0.19660464 1.2846504 1.4414388
0.48624337 0.6996147 -1.5415928 -1.2487594 -0.9085086 0.18570545 -1.270572 -1.7414733
-0.7249207 0.9330248 -0.8007415 -1.7717531 -1.9983375 0.96557474 -2.011219 -0.2760404
-1.5676484 1.5867908 -2.7828906 -0.60444325 0.7599625 -0.20157981 -0.60301816 -0.11791268
-0.59330153 0.27903172 0.40048853 0.12947431 -0.46811602 1.0893364 -0.15453286 0.57328796
-1.1694194 0.4577841 -1.7903372 1.0877957 -0.7905171 -0.035335064 0.1626125 0.6022088
-0.38685682 -0.32732078 -0.36625168 -0.5527062 -0.9714679 0.97647923 2.1532514 0.14528066
0.4345323 1.0809618 -0.24221915 0.8313979 -0.4174776 -0.55399126 0.4889069 2.8360684
0.8301313 -0.33913264 -2.4040549 -0.45965847 -0.22807105 0.647389 0.607097 -1.6073316
-1.0958219 1.2162259 -1.4336133 1.8877789 -0.23561782 -0.5524322 -0.3283915 -1.1875259
-0.6350406 1.1977471 -0.8776242 -2.0157168 -0.05428568 -0.20975757 -1.1064157 0.4167494
-0.71129304 0.9707332 0.34057727 -2.252961 -0.12655027 1.0095295 0.003732267 0.5736691
-1.3040329 0.5804987 -0.25478783 -1.8569626 -0.3828712 -0.39601624 0.051457286 -0.2665518
0.555791 0.58089036 -1.8834422 -1.2590888 -0.14892088 -0.7508982 0.856408 1.0889986
-1.0240736 0.97529423 -1.2088585 -2.3288133 -0.101372674 1.0795616 1.8149899 -0.81987345
00000000: c02f 93bf c6b8 a9be a064 ba3f c286 1640
00000010: 4e31 9f3e c92a 1a3f e5e1 a1bf d90f 93be
00000020: 597b 1e3f 8c00 c8bf 3ab6 49bf 4681 2d3e
00000030: 0d96 a1bd d444 d63d 2813 87bf 2b5e ecbe
00000040: 507e 893f f8b7 cbbf 5056 c33e da58 93bf
00000050: 7e72 7d3f 4618 c0bf a095 2a40 1343 0d3f
00000060: c7fc e4bf cd7a 713e 6303 45bf b27d 343f
00000070: f7a2 00bf f379 29be 7678 9b3f e8bb 34bf
00000080: bbee 08c0 0189 843f 390c 13c0 00ce 933f
00000090: 0824 2a3e 1df9 ab3f 202f 06c0 ff32 54bf
000000a0: 8def 20bd 6cb2 033f b277 f83f dc3b 813f
000000b0: 8d66 debe 237a 1440 757f 13c0 4ef2 383f
000000c0: e9d8 be3f 34de 45bf fc1a 7a3e 5f72 8abf
000000d0: 42b9 043f 5291 453c 916e 52bf 4fac 1a40
000000e0: db1f 493f 9beb 243e df3b 1840 d759 07bf
000000f0: c70d 30bf 276a fc3f 6695 4a3f 9f22 be3f
00000100: 0479 383f a793 3dbf 98ae acbf 97e2 d1bd
00000110: 728d b83b 6ceb 273e 8fd9 703e 87f9 0740
00000120: 9f41 12be 7c78 6b3f 05bf 85bf d115 debf
00000130: 5b3a 03bf 9542 833e c5fa 08bf 79f5 acbf
00000140: 6125 0340 2665 36bf 4035 a7bf 7fb7 8cbf
00000150: 205c ba3e 2712 aa3e 4b07 66bc 593a db3f
00000160: d7c6 d33f b031 debf 4d76 703f 1dcf 51bf
00000170: da7d 223f de95 94bf 9120 a83e 937b 4abf
00000180: 33cf 203f c340 a2bf 197c 24c0 99eb 4a3f
00000190: 127c 4d3f 828f 42bf cc78 653f cf76 f13f
000001a0: 5b26 363f 2dde 35bf d434 72bf b385 de3f
000001b0: bd49 18c0 84a1 b53f fe5c 77bf 1f8d 8b3d
000001c0: da7c 95bf 4142 393e 7b78 06be c378 c33f
000001d0: b96f adbf 89ce 613f 645f c4bf 4657 0ec0
000001e0: 2573 423e f67b c4bf 6ecf d6bf b378 29be
000001f0: 08ef 92bf c67f 7f3f 96ee 673e 141c c6bf
00000200: d034 073e 46b9 48bf eec8 3fbf 7c04 c93c
00000210: 3821 943e 356d 8a3f ef41 e1be 801d 833f
00000220: b017 813f 156b 7a3f 94d6 7d3f a398 95bf
00000230: 24fd bebf ba52 493e 6d6f a43f 1181 b83f
00000240: e4f4 f83e f319 333f ea52 c5bf 59d7 9fbf
00000250: 0594 68bf 9229 3e3e 1aa2 a2bf 99e8 debf
00000260: 6794 39bf b7da 6e3f 65fd 4cbf cec8 e2bf
00000270: 86c9 ffbf e82f 773f d0b7 00c0 2b55 8dbe
00000280: b4a8 c8bf f61b cb3f e11a 32c0 cbbc 1abf
00000290: e78c 423f f06a 4ebe 665f 1abf 347c f1bd
000002a0: 9ce2 17bf 3fdd 8e3e d50c cd3e ea94 043e
000002b0: e7ac efbe 606f 8b3f dd3d 1ebe 00c3 123f
000002c0: 89af 95bf ad62 ea3e c529 e5bf e43c 8b3f
000002d0: 545f 4abf 80bb 10bd e483 263e 5b2a 1a3f
000002e0: 1912 c6be 9796 a7be 5785 bbbe 277e 0dbf
000002f0: 1fb2 78bf 8bfa 793f dfce 0940 74c4 143e
00000300: 057b de3e f55c 8a3f 4c08 78be 7ed6 543f
00000310: a0bf d5be 5fd2 0dbf 0152 fa3e 2582 3540
00000320: 7c83 543f cba2 adbe 09dc 19c0 5b58 ebbe
00000330: 758b 69be 49bb 253f b66a 1b3f 0bbd cdbf
00000340: e443 8cbf 4aad 9b3f a480 b7bf bda2 f13f
00000350: cc45 71be 326c 0dbf ee22 a8be d900 98bf
00000360: 0592 22bf c74f 993f fbab 60bf 8101 01c0
00000370: a95a 5ebd b0ca 56be 089f 8dbf 2d60 d53e
00000380: 4d17 36bf f981 783f 2560 ae3e 8330 10c0
00000390: 6596 01be 4338 813f 0d99 743b fadb 123f
000003a0: 8dea a6bf 909b 143f 8d73 82be f3b0 edbf
000003b0: b207 c4be a4c2 cabe e0c4 523d 7a79 88be
000003c0: 5248 0e3f 3bb5 143f a214 f1bf d229 a1bf
000003d0: b77e 18be dd3a 40bf 8e3d 5b3f 4e64 8b3f
000003e0: d814 83bf e2ac 793f e0bb 9abf 470b 15c0
000003f0: 7a9c cfbd 132f 8a3f 9751 e83f 3ae3 51bf

fc1.bias f4 [250]
1.463937 -0.5511341 0.14265215 -1.1196097 -0.39628103 1.1601808 1.0990818 -0.51969916
1.5817063 0.14886537 0.927869 1.2216518 -0.0431747 1.5137159 -0.45852876 1.1489451
0.54172504 1.7626439 -0.6009362 -0.030152133 -0.4563548 0.94552946 0.36012077 -0.2980588
-0.3208023 0.40739134 1.9496418 0.7851319 0.5262826 -1.3547505 0.9117836 -0.807865
-0.29754993 0.54537106 -0.12867261 0.5021284 -0.4701805 -1.1636406 -0.7991964 0.5061233
0.42257103 -0.22125012 0.19707699 0.38828307 0.75269717 0.71299946 0.3703336 0.79004866
0.37753505 1.093229 0.33796152 -0.39926296 0.7590251 -0.13359672 -0.55721235 0.6972349
-1.0227859 0.15473726 -0.61203665 -0.04026085 -0.39257887 -0.25039142 -0.6923713 -1.3362805
0.74313194 0.38563034 -0.95336753 -0.42574424 1.3000755 -0.45561832 0.5359799 -0.30223396
-0.53576034 1.9919857 1.262675 -0.1409437 0.9800714 0.9058296 0.23326536 0.43636775
-0.0073489547 0.97911674 -0.45843446 1.2853158 0.70303816 0.23173778 0.26843482 0.18891658
-0.9650837 -0.24888974 0.015959153 1.0031602 0.5174221 -0.82968897 0.40573528 0.45919546
-1.0831555 0.16673413 0.008055541 0.5307051 -0.8458874 0.53761923 -0.52618116 -1.0817665
0.41690814 -1.043906 -0.4603643 0.49436346 0.6022817 1.1424747 0.42180508 0.9322761
-0.8141097 -0.30450615 0.23004238 -0.2481499 0.98406345 -0.9396392 0.15541212 1.1056571
-0.7649395 -0.10573264 -1.388331 0.8774581 0.022216102 1.3887573 1.4350736 -0.7662303
-1.3197621 0.8415098 -0.087623596 1.1312932 1.1611085 -0.59697455 0.1632775 1.8707048
1.560906 1.5785619 -0.30252603 -0.038883317 0.42589086 2.0258846 -1.0231959 -0.9308659
-0.27922097 0.4947764 -1.3171554 0.3658594 1.5071818 0.15769215 0.638948 0.6444059
1.436803 0.99398625 -0.024334686 -1.0875306 1.2928585 0.8492527 1.3214108 0.20204632
-0.65663576 0.40130863 -0.21276493 1.2305628 -0.034877107 -0.47434512 0.5458336 -1.0652668
-0.4816369 -1.5623673 0.8253396 -1.2076721 0.45120743 -0.030956732 -1.4774452 -0.13819174
-0.68142444 0.0463194 -0.1349178 -0.8828612 1.2573814 0.9970883 1.6508027 1.2040519
-0.50298464 0.3952584 0.23993385 -0.09661892 -0.28760427 -0.2616844 -0.53822327 -0.16607273
-0.06908825 -0.053903237 1.5559082 1.6804928 0.7805901 -0.23120907 0.96036875 -0.57686436
-1.2747934 -0.79427063 0.99802 0.5627009 1.5379659 -0.79194295 -0.564381 -0.054845605
-1.0808759 0.683183 0.923186 1.1030426 -0.9033295 0.044535566 -0.44800436 -0.4370844
-0.90420526 -0.13312219 0.5561632 0.19803858 1.1917598 0.07777247 0.32119164 -0.7451915
1.8479345 1.9466398 1.65365 -0.06507152 0.9992883 0.66520077 -0.5647304 0.5164793
1.1601065 -0.12377136 -0.14075842 -0.22162083 0.6054064 -0.3194134 -0.4196436 -0.09115159
-0.0028190294 1.706689 -0.65644825 -1.3054919 -0.43047327 0.5174713 -0.68965685 -0.8629676
-0.15152237 2.5276654
00000000: 4a62 bb3f 2017 0dbf 6813 123e 5f4f 8fbf
00000010: 59e5 cabe ce80 943f b6ae 8c3f 010b 05bf
00000020: 5a75 ca3f 2a70 183e d388 6d3f 165f 9c3f
00000030: f4d7 30bd 71c1 c13f 48c4 eabe a210 933f
00000040: 7eae 0a3f 519e e13f f4d6 19bf 9b01 f7bc
00000050: 56a7 e9be 380e 723f c061 b83e 2a9b 98be
00000060: 3340 a4be 9995 d03e dd8d f93f 67fe 483f
00000070: 75ba 063f 7768 adbf a66a 693f 3ed0 4ebf
00000080: 7758 98be 709d 0b3f c1c2 03be 7d8b 003f
00000090: 80bb f0be 2df2 94bf 2398 4cbf 4c91 013f
000000a0: 3b5b d83e 648f 62be 8dce 493e 0acd c63e
000000b0: c3b0 403f 2287 363f 5e9c bd3e a140 4a3f
000000c0: 464c c13e eeee 8b3f 4b09 ad3e 326c ccbe
000000d0: 784f 423f 94cd 08be 78a5 0ebf fd7d 323f
000000e0: a6ea 82bf 7273 1e3e 6fae 1cbf 90e8 24bd
000000f0: 1900 c9be 4e33 80be 3f3f 31bf 3d0b abbf
00000100: e53d 3e3f 5771 c53e e50f 74bf 26fb d9be
00000110: e068 a63f ce46 e9be fb35 093f 69be 9abe
00000120: 9727 09bf 63f9 fe3f 569f a13f 8c53 10be
00000130: f6e5 7a3f 73e4 673f 1ddd 6e3e 986b df3e
00000140: 80cf f0bb 65a7 7a3f ecb7 eabe 3a85 a43f
00000150: 4ffa 333f ab4c 6d3e 4a70 893e 5973 413e
00000160: ba0f 77bf f4dc 7ebe c5bc 823c 8e67 803f
00000170: c675 043f 7f66 54bf 89bc cf3e ab1b eb3e
00000180: d7a4 8abf 5abc 2a3e 63fb 033c 4adc 073f
00000190: 148c 58bf 6aa1 093f cfb3 06bf 5377 8abf
000001a0: fc74 d53e b69e 85bf dfb4 ebbe 351d fd3e
000001b0: 222f 1a3f 9c3c 923f d6f6 d73e a6a9 6e3f
000001c0: 7e69 50bf 3be8 9bbe 3b90 6b3e 021b 7ebe
000001d0: 95eb 7b3f 328c 70bf 5b24 1f3e 2c86 8d3f
000001e0: 13d3 43bf 5b8a d8bd d5b4 b1bf 18a1 603f
000001f0: 8bfe b53c cdc2 b13f 7eb0 b73f ab27 44bf
00000200: f7ed a8bf 306d 573f 0074 b3bd 37ce 903f
00000210: 349f 943f 53d3 18bf 3832 273e 4173 ef3f
00000220: c5cb c73f 510e ca3f b1e4 9abe 1d44 1fbd
00000230: 5e0e da3e 18a8 0140 15f8 82bf 3a4d 6ebf
00000240: 0df6 8ebe 5553 fd3e 8c98 a8bf ec51 bb3e
00000250: 55eb c03f 0d7a 213e 1992 233f c9f7 243f
00000260: 29e9 b73f e275 7e3f 8959 c7bc 3434 8bbf
00000270: 637c a53f a068 593f fd23 a93f 3be5 4e3e
00000280: 4819 28bf 5378 cd3e 0ddf 59be 1583 9d3f
00000290: 4cdb 0ebd 5ddd f2be c0bb 0b3f aa5a 88bf
000002a0: 1d99 f6be a7fb c7bf 7549 533f 0095 9abf
000002b0: a904 e73e f998 fdbc ed1c bdbf 2382 0dbe
000002c0: d571 2ebf 69b9 3d3d e427 0abe 3103 62bf
000002d0: e0f1 a03f 2e41 7f3f 814d d33f 5f1e 9a3f
000002e0: 9ac3 00bf 4f5f ca3e 38b1 753e 24e0 c5bd
000002f0: de40 93be 7ffb 85be 00c9 09bf f80e 2abe
00000300: 247e 8dbd a4c9 5cbd 0028 c73f 631a d73f
00000310: c1d4 473f 12c2 6cbe bada 753f 62ad 13bf
00000320: 6e2c a3bf 5255 4bbf 3d7e 7f3f 2b0d 103f
00000330: 11dc c43f c6bc 4abf 467b 10bf c9a5 60bd
00000340: 245a 8abf 15e5 2e3f eb55 6c3f 8030 8d3f
00000350: 9a40 67bf ed6a 363d d460 e5be 87c9 dfbe
00000360: ff79 67bf 2f51 08be b660 0e3f a0ca 4a3e
00000370: 968b 983f 2c47 9f3d 3b73 a43e dfc4 3ebf
00000380: 1e89 ec3f 7e2b f93f ceaa d33f 3844 85bd
00000390: 5cd1 7f3f 994a 2a3f 2c92 10bf fd37 043f
000003a0: 5f7e 943f d77b fdbd fa22 10be 92f0 62be
000003b0: eafb 1a3f 278a a3be 87db d6be afad babd
000003c0: 77bf 38bb c974 da3f fe0c 28bf 5c1a a7bf
000003d0: fe66 dcbe 0079 043f 5a8d 30bf 72eb 5cbf
000003e0: ae28 1bbe 45c5 2140

fc_out.weight f4 [10, 250]
-0.18253611 0.8478903 0.14536856 0.3524881 1.5610533 -0.58752817 -0.29668364 0.002751449
0.38537413 -1.0651429 -3.0518649 0.14261256 -1.3531063 0.2636874 0.117168196 -3.1638575
-1.190935 -0.07142973 1.2784337 0.5469701 2.5622454 0.2543336 -1.6014189 -0.5672339
0.27350166 0.022586653 -0.8514067 -2.111789 0.24498665 1.8361739 -2.0001404 0.5383402
0.16804159 0.26623455 0.06658718 0.84113437 -1.2830139 1.0432069 1.1183524 -1.0369978
-0.7470267 0.81088984 0.597942 1.2874318 0.33644003 0.61423767 -0.11294287 0.70790064
0.24844539 -0.13995993 -0.3447324 0.46078354 -0.03564208 0.07038137 1.3853042 0.30521694
-0.08585904 0.44411975 0.36065522 0.037616715 -1.0099477 0.1832731 1.6467987 -0.56251884
-0.7765895 0.18558918 -1.261457 -0.047214556 0.24441156 -0.14290044 0.7882415 0.30656022
0.3245875 -2.2176688 0.045590326 1.573685 -0.57933277 0.48803988 -0.009181681 0.33355138
0.10137954 -0.18585283 0.029741317 0.5977121 -0.4232288 0.07730039 0.5404055 0.15047505
0.1810751 -0.8376464 0.568476 -0.81556165 0.5176767 0.6289065 -0.20053075 0.5986795
0.52369106 0.06858172 -0.5273874 0.17016552 0.5835968 1.3840349 1.0826486 1.4205304
1.0720599 0.616737 1.4335643 -0.9210708 -1.6064848 0.47015372 -0.013552793 0.25577047
0.46796867 -0.1446578 0.32209462 -0.904342 0.22856772 0.49289647 0.069110736 -3.9452384
-0.7945645 0.34040913 1.4112111 -0.005304792 1.6057539 -0.56241274 -0.9896851 1.0000397
1.0931743 0.27525082 -0.52286553 -1.2776008 -1.0703957 0.56089437 0.066770874 -1.0701903
-3.9599574 -3.1729438 0.21840543 1.2289106 0.91234374 0.24274759 0.68274456 -1.7511442
-0.12654004 -0.39442423 1.4532152 -0.23850948 -1.7662643 -0.109048866 -0.2108288 -3.6548233
-1.9668536 0.2526202 -0.027205072 0.06919296 0.15140165 -1.1213356 0.26343045 0.29545245
1.4353367 -3.2542562 -0.072122246 0.7161711 0.8956883 0.7500943 0.2548003 0.41698942
0.008662928 -0.31508648 -0.06401904 1.6185502 0.4090639 0.45799947 1.8340956 0.18605076
0.407081 0.5070961 -0.027538262 0.37125805 0.38490066 -2.4265506 0.6137832 -0.4829487
-0.10179805 -0.2700289 0.34677786 0.40372315 0.57383984 -0.09921596 0.5069791 0.39810643
0.16995877 -0.15814242 0.19044244 0.3601175 -1.3603793 1.0387946 1.4684654 0.48314458
0.48747736 1.46678 0.09999576 0.04160222 -0.9537138 0.61773056 0.3767545 0.09349332
0.3878345 -0.43043926 -1.9542786 0.6691482 -0.44775265 0.74384063 -0.034427356 0.72507995
-0.23821725 0.6928364 -0.06675546 0.011378348 -2.1865969 0.9541894 -0.47290948 1.4794934
-0.23517467 -0.035086334 0.034138042 1.0237612 0.40141663 -0.029523084 0.539062 -1.3555486
-0.70806605 -0.3961844 -0.6366243 -0.48728392 -2.1852102 -1.5799011 -1.5547092 0.32683143
-1.2683644 0.94498634 0.8757366 1.6435763 1.1301244 -0.45927188 -0.42423463 -0.726479
0.07713278 -0.15911609 0.4523167 -1.846034 -0.49054223 0.2657787 0.9626572 -1.8905586
00000000: bfea 3abe 570f 593f 7fdb 143e 5279 b43e
00000010: 98d0 c73f 3f68 16bf ebe6 97be a751 343b
00000020: c24f c53e 9a56 88bf c151 43c0 0709 123e
00000030: 9632 adbf 0902 873e e1f5 ef3d a47c 4ac0
00000040: 8f70 98bf c049 92bd b7a3 a33f 3c06 0c3f
00000050: d4fb 2340 0338 823e 4bfb ccbf 3e36 11bf
00000060: 6908 8c3e a507 b93c caf5 59bf 8d27 07c0
00000070: c8dd 7a3e bf07 eb3f 4d02 00c0 aad0 093f
00000080: 1813 2c3e e54f 883e dc5e 883d 9554 573f
00000090: cd39 a4bf ce87 853f 2c26 8f3f 58bc 84bf
000000a0: 243d 3fbf 7a96 4f3f ba12 193f 91ca a43f
000000b0: de41 ac3e ae3e 1d3f 974e e7bd fa38 353f
000000c0: 7868 7e3e a851 0fbe c480 b0be d2eb eb3e
000000d0: 6efd 11bd 1c24 903d a651 b13f 6545 9c3e
000000e0: ddd6 afbd aa63 e33e cda7 b83e fc13 1a3d
000000f0: f745 81bf f2ab 3b3e 4dca d23f 3c01 10bf
00000100: 92ce 46bf 170b 3e3e 6c77 a1bf 0d64 41bd
00000110: 0647 7a3e 7e54 12be 32ca 493f 76f5 9c3e
00000120: 5530 a63e 49ee 0dc0 ecbc 3a3d 836e c93f
00000130: 274f 14bf 5de0 f93e c36e 16bc 3fc7 aa3e
00000140: 14a0 cf3d 3450 3ebe 10a4 f33c a903 193f
00000150: 72b1 d8be ab4f 9e3d 0458 0a3f 2216 1a3e
00000160: c06b 393e ff6f 56bf a587 113f a6c8 50bf
00000170: 7686 043f 0400 213f ef57 4dbe 0f43 193f
00000180: 9e10 063f 9374 8c3d dc02 07bf df3f 2e3e
00000190: 9a66 153f 0e28 b13f 3b94 8a3f f1d3 b53f
000001a0: 4239 893f 7ae2 1d3f 097f b73f 4ccb 6bbf
000001b0: 4ba1 cdbf fdb7 f03e 890c 5ebc 59f4 823e
000001c0: 9799 ef3e 2d21 14be 96e9 a43e f582 67bf
000001d0: a80d 6a3e ed5c fc3e ee89 8d3d c97e 7cc0
000001e0: 9468 4bbf 1b4a ae3e 91a2 b43f d2d3 adbb
000001f0: 5889 cd3f 48fa 0fbf 015c 7dbf 4d01 803f
00000200: 23ed 8b3f aded 8c3e 84da 05bf 6c88 a3bf
00000210: ba02 89bf c696 0f3f 2bbf 883d fffb 88bf
00000220: f16f 7dc0 8311 4bc0 aca5 5f3e f14c 9d3f
00000230: 5c8f 693f d392 783e 59c8 2e3f 7e25 e0bf
00000240: b693 01be f9f1 c9be f502 ba3f d43b 74be
00000250: f314 e2bf 0355 dfbd 81e3 57be a0e8 69c0
00000260: dcc1 fbbf 6f57 813e 2cdd debc 0ab5 8d3d
00000270: 0909 1b3e ed87 8fbf 5be0 863e 8b45 973e
00000280: 1db9 b73f bc45 50c0 d4b4 93bd fd56 373f
00000290: d44b 653f 2e06 403f 2f75 823e a37f d53e
000002a0: f4ee 0d3c 0453 a1be 6a1c 83bd a72c cf3f
000002b0: d370 d13e e87e ea3e a5c3 ea3f 1784 3e3e
000002c0: ec6c d03e 0dd1 013f ec97 e1bc 8915 be3e
000002d0: b311 c53e 9b4c 1bc0 e520 1d3f 0d45 f7be
000002e0: 7f7b d0bd 3a41 8abe de8c b13e cdb4 ce3e
000002f0: 2be7 123f bd31 cbbd 62c9 013f 9bd4 cb3e
00000300: ac09 2e3e 16f0 21be 5803 433e 5261 b83e
00000310: e920 aebf 39f7 843f adf6 bb3f ba5e f73e
00000320: a296 f93e 72bf bb3f 94ca cc3d 1767 2a3d
00000330: 9626 74bf 9723 1e3f f7e5 c03e 6d79 bf3d
00000340: 3e92 c63e 8962 dcbe cd25 fabf 4c4d 2b3f
00000350: d63f e5be 576c 3e3f b303 0dbd d79e 393f
00000360: 39ef 73be ba5d 313f 16b7 88bd 406c 3a3c
00000370: 34f1 0bc0 c245 743f 3121 f2be 0a60 bd3f
00000380: a1d1 70be b0b6 0fbd 55d4 0b3d 9b0a 833f
00000390: 7b86 cd3e 65da f1bc f8ff 093f 9e82 adbf
000003a0: d143 35bf afd8 cabe cff9 22bf 477d f9be
000003b0: 7cda 0bc0 333a cabf b600 c7bf 7356 a73e
000003c0: c459 a2bf a0ea 713f 4630 603f b560 d23f
000003d0: eba7 903f af25 ebbe 4835 d9be 87fa 39bf
000003e0: caf7 9d3d 54ef 22be 0e96 e73e d84a ecbf
000003f0: 5a28 fbbe 2514 883e b470 763f d3fd f1bf

fc_out.bias f4 [10]
-0.075176656 -0.03232133 -0.5036451 -0.46452382 -0.35749084 -0.46239084 -0.58856386 -0.4322186
-0.2483975 -0.44046476
00000000: 38f6 99bd 5f63 04bd e3ee 00bf 11d6 edbe
00000010: 0a09 b7be 7ebe ecbe 1fac 16bf c24b ddbe
00000020: ea5b 7ebe 9984 e1be
