models/demo_B0TOKYO_14_11_37_314.pt (torch_old, 4167 bytes, 5 tensors)

fc1.weight f4 [50, 4]
-0.95912963 0.2927333 -0.88816196 0.5706257 0.37670055 -0.24554622 -1.2513686 0.6311337
0.048244424 0.36995205 -0.92678314 1.211572 -1.0719635 -0.06712785 -1.1894652 0.096452534
-0.1852704 -0.7350723 -0.9774996 0.5574843 0.23739366 -0.22690658 -1.0271608 -1.6717048
-0.2649346 -0.05901332 -1.2009732 -0.54509217 -1.6200621 1.2694358 0.67783225 0.14511321
-0.3084838 0.38818738 -1.3443457 -0.92415625 0.95545197 -0.74823976 0.16199987 1.6533834
-0.3366056 1.7275599 0.66351753 -1.056096 -0.6089035 0.2562787 -0.26446864 -1.567717
0.25695738 -1.5235119 0.06875212 -0.78236103 0.9794864 0.108763576 0.9550471 -1.0009423
-0.60972285 -1.4767385 0.4504273 -0.27493706 1.5649045 -0.8453631 1.1660551 -1.060845
-1.0177447 0.24489246 -0.5166566 -1.0185783 -1.5569054 1.4202787 -0.7990251 -0.8114032
0.4259379 0.24706917 0.06680165 1.8817593 -0.60726947 0.36243516 -0.86472857 -0.83257884
-1.3139716 1.1208565 0.52199495 0.45430294 1.0788821 0.61902225 -0.9488731 0.85291135
-0.81788826 -0.01957977 0.59663147 1.4501393 1.9363915 -0.25403705 1.4517096 0.9427815
0.9318447 -0.5570629 -0.9423504 -1.3235123 -0.051670097 -0.08769588 -0.8335857 0.29162097
1.5564954 -0.2819999 0.044662043 1.0759974 1.0975769 -0.8113159 0.65062326 -1.0702984
-1.0807484 1.2502483 -0.76366764 0.32570502 -0.5418197 0.040976282 -1.4513593 0.0286826
0.85655177 -0.7946868 -0.2737101 0.7829161 1.1690081 -1.1467611 0.19130152 -0.77799255
1.186662 -2.1966894 -0.30107743 -0.7604631 -0.72866714 1.2857871 0.6965429 -0.8322259
0.1358902 1.5129023 -0.36331224 -0.50726193 -0.83188623 0.6652567 -0.798526 1.3064755
-0.127603 -0.37541664 -1.0333008 -0.9850218 -1.8747356 -0.35960382 0.9982116 0.86852425
-0.6819604 0.6294423 1.3827908 0.5457166 0.5067793 0.40664482 -1.133723 -1.0598214
-1.1764657 -0.9137119 0.09616442 1.650619 -0.4688651 1.0114692 -0.3650934 -1.5961037
1.252302 -2.013816 0.07889714 -0.48085922 -1.414576 -0.117028475 0.3347587 1.947235
0.66825867 -1.8980939 -0.35243273 -0.07915747 1.0362793 -1.2727605 -0.6290589 -0.32843447
-0.5294048 -0.23198068 -0.69486815 0.6577097 -1.6140677 -0.18609564 0.0837329 -1.2698739
-0.047816105 1.3647606 0.66133004 -1.8380773 0.022102965 0.2833835 -1.3176367 -1.6062187
00000000: 8589 75bf 24e1 953e 955e 63bf 8714 123f
00000010: e5de c03e 7870 7bbe d92c a0bf fa91 213f
00000020: f29b 453d 5b6a bd3e a941 6dbf cb14 9b3f
00000030: 1a36 89bf 547a 89bd 6540 98bf e888 c53d
00000040: 86b7 3dbe b32d 3cbf 6a3d 7abf 4bb7 0e3f
00000050: 5317 733e 335a 68be 017a 83bf 6cfa d5bf
00000060: 82a5 87be f3b7 71bd 7db9 99bf 298b 0bbf
00000070: 325e cfbf df7c a23f 6a86 2d3f 8f98 143e
00000080: 97f1 9dbe 7fc0 c63e 8513 acbf 8195 6cbf
00000090: 8098 743f a48c 3fbf 4be3 253e 11a2 d33f
000000a0: 9257 acbe af20 dd3f 49dc 293f 272e 87bf
000000b0: 1ae1 1bbf f636 833e 6f68 87be f3aa c8bf
000000c0: eb8f 833e 7002 c3bf e9cd 8c3d d048 48bf
000000d0: 9fbf 7a3f 70bf de3d f77d 743f e11e 80bf
000000e0: cc16 1cbf c405 bdbf 689e e63e 8dc4 8cbe
000000f0: ca4e c83f b769 58bf 4b41 953f c5c9 87bf
00000100: 7545 82bf 17c5 7a3e 9b43 04bf c660 82bf
00000110: ad48 c7bf b1cb b53f e98c 4cbf 1fb8 4fbf
00000120: 8814 da3e b3ff 7c3e 4ecf 883d 7ddd f03f
00000130: 0376 1bbf 1a91 b93e da5e 5dbf e323 55bf
00000140: 3930 a8bf 3a78 8f3f 76a1 053f 659a e83e
00000150: cf18 8a3f 3e78 1e3f 59e9 72bf 6658 5a3f
00000160: 2061 51bf c165 a0bc d7bc 183f 2a9e b93f
00000170: addb f73f 2511 82be 9fd1 b93f 215a 713f
00000180: 608d 6e3f ad9b 0ebf e03d 71bf da68 a9bf
00000190: 06a4 53bd e699 b3bd df65 55bf 584f 953e
000001a0: 3e3b c73f 4a62 90be 8cef 363d 48ba 893f
000001b0: 667d 8c3f 66b2 4fbf 3f8f 263f 8aff 88bf
000001c0: f755 8abf 2308 a03f b97f 43bf cfc2 a63e
000001d0: b2b4 0abf bfd6 273d 24c6 b9bf c6f7 ea3c
000001e0: fa46 5b3f 9870 4bbf bb23 8cbe 316d 483f
000001f0: 0fa2 953f 11c9 92bf 8ce4 433e 852a 47bf
00000200: 8ae4 973f 8f96 0cc0 d226 9abe b6ad 42bf
00000210: ee89 3abf ac94 a43f a350 323f c20c 55bf
00000220: cd26 0b3e c8a6 c13f 1004 babe ebdb 01bf
00000230: 7ff6 54bf 434e 2a3f 336c 4cbf 973a a73f
00000240: 5caa 02be 9c36 c0be 3343 84bf 642a 7cbf
00000250: 56f7 efbf fe1d b8be cc8a 7f3f 9b57 5e3f
00000260: f594 2ebf 2123 213f 4aff b03f 15b4 0b3f
00000270: 4abc 013f c033 d03e d61d 91bf 3aa8 87bf
00000280: 6e96 96bf 06e9 69bf daf1 c43d 7c47 d33f
00000290: 160f f0be d377 813f 86ed babe 204d ccbf
000002a0: 6f4b a03f 5de2 00c0 d394 a13d 2e33 f6be
000002b0: d410 b5bf a0ac efbd 7e65 ab3e ff3e f93f
000002c0: 0013 2b3f bef4 f2bf 1072 b4be 501d a2bd
000002d0: cda4 843f d1e9 a2bf 010a 21bf 9028 a8be
000002e0: 1387 07bf 588c 6dbe e1e2 31bf aa5f 283f
000002f0: c599 cebf db8f 3ebe 287c ab3d 3a8b a2bf
00000300: d2da 43bd 7ab0 ae3f ed4c 293f 1e46 ebbf
00000310: 4711 b53c a417 913e 52a8 a8bf 9398 cdbf

fc1.bias f4 [50]
0.7370843 0.22620595 0.49708533 -0.63866967 1.2628299 -0.6502567 -0.9068842 0.44534278
-1.2348573 1.3974628 -0.7026978 -0.18884636 0.8067775 0.08638676 0.7573926 1.2515867
-1.0907147 0.1979478 0.32744867 -1.0304075 0.3187576 0.853602 0.07482607 -0.024977997
0.27434874 0.36866677 1.1112472 -0.3682561 -0.12185654 -0.859887 0.67935187 0.5613095
-0.056997903 -0.4417813 0.4789218 0.089112125 0.7138735 0.8373163 0.9255467 -0.9297523
0.35666534 -1.4033252 -0.5913533 -0.6192934 -0.68340605 1.0390767 1.0473288 -0.97628224
-0.5469355 -0.07341151
00000000: 8fb1 3c3f 88a2 673e f881 fe3e db7f 23bf
00000010: 69a4 a13f 3977 26bf 9029 68bf f803 e43e
00000020: ce0f 9ebf 10e0 b23f 01e4 33bf f160 41be
00000030: f888 4e3f 8beb b03d 7be4 413f fe33 a03f
00000040: 8a9c 8bbf d4b2 4a3e 5aa7 a73e 65e4 83bf
00000050: 3234 a33e a985 5a3f 693e 993d a89e ccbc
00000060: 7077 8c3e e4c1 bc3e 593d 8e3f 108c bcbe
00000070: ec8f f9bd 8e21 5cbf 01ea 2d3f fbb1 0f3f
00000080: a276 69bd 2931 e2be 3d35 f53e 6b80 b63d
00000090: 6ac0 363f 5c5a 563f a1f0 6c3f 3f04 6ebf
000000a0: d79c b63e 29a0 b3bf ee62 17bf 038a 1ebf
000000b0: b3f3 2ebf 7700 853f df0e 863f a2ed 79bf
000000c0: f703 0cbf c658 96bd

adv.weight f4 [10, 50]
-0.08454597 0.3685089 0.72004056 -0.48376575 -0.17138202 -0.30014154 -0.8742377 0.7864576
-0.4575488 -1.3543266 -0.5160729 -0.03965422 -0.09072372 -1.1979774 0.55677396 0.3221942
-0.7740002 0.01476531 0.17461713 -0.7206656 0.71974987 0.5304014 -0.4521553 1.3662089
-0.18980502 0.089622796 -1.4774073 -0.5783964 -0.106456935 -1.110554 -0.4119654 -0.102862604
0.010903452 -0.62938595 0.110181645 0.7908528 -0.44709086 0.54862046 -1.3299503 -0.6675314
-0.665293 -0.5580842 -1.1128583 -0.24225025 1.8780394 0.1934328 0.43557814 -0.8736188
0.22829093 0.17589976 0.3641059 0.39566952 0.2904548 -0.85843474 -0.3279487 -0.56181353
-0.39491943 0.8119398 -0.38163173 -0.7167429 -0.12443211 -0.006062921 0.21475714 -0.8628409
0.10252595 0.12995382 -1.0723236 0.1392413 0.057127405 -0.9034242 0.51978326 -0.18343168
-0.7082286 0.9680158 -0.39162824 -0.09151869 -0.825128 -0.65002704 -0.102917455 -0.91394484
-0.5255952 0.08558306 0.30520767 0.12324269 0.026145663 0.653765 0.05284638 0.046240497
-0.6222231 -0.67358947 -0.25586045 -0.81313074 -0.3878471 -0.18159485 -0.0133481445 0.2220133
0.11283129 -0.9890689 0.17112266 -0.19533896 0.26460087 0.098791264 0.40520778 -0.666516
-0.14564542 -0.43571278 -1.1354796 0.47188923 -0.6232833 -1.0272127 -0.26479673 -0.08695409
-0.14943598 -0.6845534 0.37989324 0.10807441 -1.0996642 0.3026464 -0.47780088 -0.94852567
0.45079103 0.37952024 -0.39191955 1.0220438 -0.31074843 0.1445879 -0.8736806 -0.7695342
-0.052181408 -0.87474376 -0.119809665 0.07354517 0.4646715 -0.09895549 -0.13229683 0.35494757
-0.11494195 0.3935933 -0.6856195 -0.73213845 -0.457496 -0.77220875 -0.44062686 -0.07641728
0.85066754 0.13492143 0.37448913 -0.79755235 -0.16154099 -0.32753894 0.20949331 0.14995392
0.16689533 -0.5859451 0.07004722 -0.43449035 -0.1491708 0.36065695 -0.21552515 -0.4413421
-0.62631387 -0.09818811 -0.26195908 -0.2899441 0.09825411 0.025126714 -0.18667808 0.36031342
-0.46736628 -0.5673853 -0.26847622 -0.27326077 -0.06896096 0.21179582 0.11760314 0.14618501
-0.11236428 -0.70860016 -0.4071956 0.11346835 -0.3238819 0.37218177 -0.20567665 -0.4267349
0.21233828 0.040621363 -0.20920761 -0.23498268 0.028018454 0.025394533 -0.5071516 -0.7920604
0.302029 0.21512152 -0.37421507 -0.1719528 0.0668096 -0.17007199 -0.30955017 -0.4058681
-0.23900503 -0.066057175 0.06704557 -0.18215726 0.13155767 -0.15601872 -0.14027442 0.040390417
-0.6462543 -0.46192098 -0.13053212 -0.5842998 -0.13905865 -0.098245256 -0.0885405 -0.12165985
-0.5008434 -0.008498377 -0.81032145 -0.15744087 0.14164689 -0.1371411 -0.19599013 0.017609198
-0.4470092 0.31911036 0.2034968 -0.4001834 -0.31424168 0.2917081 0.0562456 0.16929384
0.022204805 -0.030691989 0.32848418 -0.14256968 -0.046414483 -0.1141109 0.18727021 0.10423429
-0.7179868 -0.43402764 0.49400505 0.27009994 -0.121712245 0.20395629 -0.13896133 -0.33800736
-0.2473687 -0.278912 -0.2482304 0.27284753 0.06710397 -0.61163384 -0.09812501 0.31100556
00000000: 7026 adbd 33ad bc3e 9454 383f 25b0 f7be
00000010: c57e 2fbe 27ac 99be 0bce 5fbf 4955 493f
00000020: d643 eabe 935a adbf 5b1d 04bf 776c 22bd
00000030: 5ccd b9bd 5357 99bf bd88 0e3f a3f6 a43e
00000040: e124 46bf 33ea 713c d5ce 323e 8a7d 38bf
00000050: 8741 383f 63c8 073f e680 e7be efdf ae3f
00000060: 3f5c 42be 288c b73d af1b bdbf c911 14bf
00000070: 1806 dabd a226 8ebf 21ed d2be a1a9 d2bd
00000080: 64a4 323c 701f 21bf eaa6 e13d 5475 4a3f
00000090: 18e9 e4be 6472 0c3f d03b aabf 56e3 2abf
000000a0: a450 2abf 9bde 0ebf 2472 8ebf 7310 78be
000000b0: 9863 f03f 3f13 463e 1904 df3e 7ba5 5fbf
000000c0: 19c5 693e 111f 343e 176c ba3e 3295 ca3e
000000d0: 7eb6 943e 61c2 5bbf e4e8 a7be 03d3 0fbf
000000e0: e132 cabe 49db 4f3f 3c65 c3be 767c 37bf
000000f0: 43d6 febd 78ab c6bb 4ce9 5b3e 24e3 5cbf
00000100: 20f9 d13d 9d12 053e e641 89bf 4595 0e3e
00000110: 6dfe 693d cf46 67bf 8410 053f 84d5 3bbe
00000120: 784e 35bf e2cf 773f 7f83 c8be 276e bbbd
00000130: 973b 53bf 2c68 26bf 63c6 d2bd 4af8 69bf
00000140: 688d 06bf 2c46 af3d 2e44 9c3e aa66 fc3d
00000150: 6e2f d63c 255d 273f 7275 583d ad66 3d3d
00000160: 034a 1fbf 5c70 2cbf 2400 83be 5629 50bf
00000170: e593 c6be 00f4 39be 2db2 5abc 7457 633e
00000180: 1714 e73d 9f33 7dbf c73a 2f3e f006 48be
00000190: c479 873e 1353 ca3d 6577 cf3e cba0 2abf
000001a0: 1324 15be bf15 dfbe 6557 91bf 779b f13e
000001b0: 7f8f 1fbf b57b 83bf 7093 87be fc14 b2bd
000001c0: bf05 19be e43e 2fbf 5e81 c23e 1e56 dd3d
000001d0: ccc1 8cbf 78f4 9a3e 51a2 f4be 94d2 72bf
000001e0: 15ce e63e 7a50 c23e aea9 c8be 55d2 823f
000001f0: 6b1a 9fbe da0e 143e 88a9 5fbf 3100 45bf
00000200: 2cbc 55bd 35ef 5fbf c55e f5bd da9e 963d
00000210: 6ce9 ed3e 2da9 cabd d278 07be b0bb b53e
00000220: af66 ebbd 1085 c93e c284 2fbf 6d6d 3bbf
00000230: ea3c eabe 79af 45bf d899 e1be aa80 9cbd
00000240: 59c5 593f d828 0a3e 0abd bf3e 642c 4cbf
00000250: 006b 25be 2fb3 a7be 6a85 563e 858d 193e
00000260: 9ce6 2a3e 8000 16bf eb74 8f3d 8575 debe
00000270: 3bc0 18be 07a8 b83e a0b2 5cbe 97f7 e1be
00000280: 1b56 20bf d916 c9bd 801f 86be 8e73 94be
00000290: 7339 c93d 8ad6 cd3c 8a28 3fbe 007b b83e
000002a0: a24a efbe 2a40 11bf b775 89be d6e8 8bbe
000002b0: 673b 8dbd 01e1 583e ead9 f03d 86b1 153e
000002c0: 3e1f e6bd d266 35bf f17b d0be 1862 e83d
000002d0: d9d3 a5be 9c8e be3e e69c 52be ff7c dabe
000002e0: 356f 593e 9662 263d 853a 56be 4d9f 70be
000002f0: f586 e53c 3208 d03c b0d4 01bf 78c4 4abf
00000300: 8ca3 9a3e d148 5c3e 1e99 bfbe 6514 30be
00000310: 79d3 883d 5a27 2ebe 5c7d 9ebe f2cd cfbe
00000320: bcbd 74be fc48 87bd 304f 893d 6f87 3abe
00000330: 0eb7 063e 5fc3 1fbe 19a4 0fbe 6c70 253d
00000340: ec70 25bf e880 ecbe 36aa 05be ac94 15bf
00000350: 6465 0ebe cf34 c9bd b954 b5bd cd28 f9bd
00000360: 4637 00bf c73c 0bbc 3a71 4fbf 2e38 21be
00000370: e20b 113e b76e 0cbe a3b1 48be 2a41 903c
00000380: 64de e4be 6f62 a33e 7761 503e d7e4 ccbe
00000390: 49e4 a0be c45a 953e c961 663d 5d5b 2d3e
000003a0: dae6 b53c c46d fbbc 142f a83e c9fd 11be
000003b0: 1d1d 3ebd fab2 e9bd c3c3 3f3e ca78 d53d
000003c0: fccd 37bf df38 debe 3bee fc3e 8a4a 8a3e
000003d0: 4544 f9bd ebd9 503e e14b 0ebe 4d0f adbe
000003e0: 384e 7dbe 8ecd 8ebe 1c30 7ebe acb2 8b3e
000003f0: ce6d 893d 0994 1cbf c4f5 c8bd 1f3c 9f3e

adv.bias f4 [10]
0.32718337 -0.014792144 -0.02483884 0.047700394 -0.17741919 -0.12653904 -0.07315517 -0.1452843
-0.05615265 -0.28896633
00000000: 9484 a73e c05a 72bc d37a cbbc 7d61 433d
00000010: 60ad 35be 7393 01be 61d2 95bd 68c5 14be
00000020: 5200 66bd 65f3 93be

val.weight f4 [1, 50]
0.12177602 0.30475783 0.4424595 -1.4215572 0.79257715 -0.7559221 -1.1722393 1.2139597
-0.9548941 -1.0558646 -1.3938076 -0.59154713 1.1983953 -0.6495347 1.5038402 1.5275121
-2.025762 -0.6336666 -1.2060407 -1.8461627 0.89585805 0.83898497 -0.50179005 -0.15895827
0.15561323 -0.14080495 -0.5944674 -1.2058667 -0.64158607 -1.7323219 -0.33737344 1.0753112
0.90481 -0.94034326 -0.4732945 0.40541357 0.16691743 0.9804881 0.25572798 -1.1159893
-1.0668436 -2.2433429 -2.6913774 -1.9518775 -1.9972813 1.2008123 0.6439082 -2.0321553
-0.8808772 -0.27018684
00000000: b565 f93d 3809 9c3e 0d8a e23e 96f5 b5bf
00000010: 56e6 4a3f 1c84 41bf f00b 96bf 0863 9b3f
00000020: f173 74bf 9226 87bf 4a68 b2bf a26f 17bf
00000030: 0465 993f e847 26bf d67d c03f 8485 c33f
00000040: 16a6 01c0 f937 22bf 8b5f 9abf 0f4f ecbf
00000050: f456 653f b8c7 563f 5075 00bf f5c5 22be
00000060: 1359 1f3e 2c2f 10be 042f 18bf d759 9abf
00000070: fc3e 24bf b9bc ddbf 36bc acbe cca3 893f
00000080: a1a1 673f 56ba 70bf a853 f2be 5e92 cf3e
00000090: 67ec 2a3e 4501 7b3f c7ee 823e bdd8 8ebf
000000a0: 558e 88bf ee92 0fc0 873f 2cc0 1fd7 f9bf
000000b0: eaa6 ffbf 38b4 993f 2bd7 243f d50e 02c0
000000c0: 2b81 61bf ee55 8abe
