models/demo_C0_TOKYO_03_31_26_314.pt (torch_old, 3768 bytes, 4 tensors)

fc1.weight f4 [50, 4]
0	0xbe88f271	-0.26747468
1	0x3ee38d23	0.44443616
2	0xbf1b7c8c	-0.6073692
3	0x3f6082ee	0.8769978
4	0x3e9c8715	0.3057181
5	0x3e018fee	0.12652561
6	0xbf271c6c	-0.65277743
7	0x3f7b1886	0.98084295
8	0x3d5c3b87	0.053767707
9	0x3f752936	0.9576601
10	0xbf4801a4	-0.78127503
11	0x3fa38a0d	1.2776505
12	0xbfc275d1	-1.5192205
13	0xbfb6fdc1	-1.429619
14	0xbf8367f1	-1.0266095
15	0x3f2c6972	0.67348397
16	0xbea2c694	-0.31792128
17	0xbf6f52cd	-0.9348572
18	0xbf2536c3	-0.64536685
19	0x3f2dc9ad	0.6788586
20	0x3fdeaebb	1.7397074
21	0xbf8fae3f	-1.1225051
22	0xbec96969	-0.39338234
23	0xbfcedc8f	-1.6161059
24	0x3e42d4cf	0.19026493
25	0x3e1ae2b6	0.15125546
26	0xbf9911f1	-1.19586
27	0xbe92a8e9	-0.28644493
28	0xbf6aa704	-0.91661096
29	0x3e349caf	0.17637895
30	0xbf3be9d5	-0.73403674
31	0x3f380b84	0.7189257
32	0xc0177528	-2.3665257
33	0xbfbfc72e	-1.498266
34	0xbfcd549e	-1.6041448
35	0xbf6811d0	-0.9065218
36	0x3f8aa6d7	1.0832165
37	0xbfcfd113	-1.6235679
38	0x3ebbf21b	0.3670815
39	0x3f59c446	0.85065114
40	0x3f29f044	0.6638224
41	0x40409d11	3.0095866
42	0x3f206c78	0.6266551
43	0xbef0430a	-0.46926147
44	0x3e29e4e8	0.16591227
45	0x3f9cdc93	1.2254814
46	0x3fb8d56d	1.4440132
47	0xbf6aa56a	-0.9165865
48	0xbfc91e11	-1.57123
49	0xc0126729	-2.2875464
50	0x3ec9525c	0.39320648
51	0x3c8a6cd4	0.016897596
52	0x400ed491	2.231724
53	0x3f9a4905	1.2053534
54	0x3f459ec0	0.7719536
55	0xbf3cafe4	-0.7370589
56	0xbf8bda74	-1.0926042
57	0xc021b4ce	-2.5266604
58	0x3f7aa54d	0.9790848
59	0x3e1c74a2	0.15278867
60	0x400bf2bd	2.1866906
61	0xbe149775	-0.14510901
62	0x3f3f24e6	0.7466568
63	0xbfa3352d	-1.2750603
64	0xbfcc70cb	-1.5971922
65	0xc00acd1d	-2.1687691
66	0xbf2f1c93	-0.68402976
67	0xbe8335f2	-0.25627095
68	0xbfdb7ef0	-1.7148113
69	0xbffbae85	-1.9662634
70	0xbec8fd07	-0.39255545
71	0xbe6be73b	-0.23037426
72	0xbdedf11c	-0.116182536
73	0x3e83a0b0	0.25708532
74	0xbe131f12	-0.14367321
75	0x3f856d9c	1.0424075
76	0xbecf2dcd	-0.4046463
77	0x3da181c4	0.07886079
78	0xbf65897a	-0.896629
79	0x3ddd276c	0.10798535
80	0xc00632de	-2.0968547
81	0xbeabdc24	-0.3356639
82	0xbf61242d	-0.87945825
83	0xbe31239a	-0.17298737
84	0x3eec2494	0.46121657
85	0x3fbca3d5	1.4737498
86	0xbf71f799	-0.9451843
87	0x3f3e1ba9	0.74260956
88	0xbeeca875	-0.46222273
89	0xbfbb171a	-1.4616425
90	0x3faf3482	1.3687899
91	0x3f9a9126	1.2075546
92	0x3fcbf47c	1.5933986
93	0x3fce4e76	1.6117694
94	0x3f0a39ac	0.5399425
95	0xbe33d91b	-0.17563288
96	0x3fcd4e8d	1.6039597
97	0xbe5bb8e1	-0.21457244
98	0xbf5d635d	-0.8647974
99	0xbfc6d0b7	-1.5532445
100	0x3e080c7d	0.13286014
101	0xbf029d49	-0.5102125
102	0xbf183da1	-0.5946904
103	0x3ea2b2ef	0.3177714
104	0x3fcc3600	1.595398
105	0x3f261cfe	0.6488799
106	0x3f6db650	0.9285631
107	0xbdcf1822	-0.10112025
108	0x400c3de8	2.1912785
109	0x3fa0cc9c	1.2562442
110	0x3f171919	0.5902267
111	0xbf7a6c98	-0.9782195
112	0xbefee089	-0.49780682
113	0x3f4616c6	0.773785
114	0xbe07d335	-0.13264163
115	0x3f8d3bf0	1.1033916
116	0x3f2ff48d	0.6873253
117	0xbfba5cc5	-1.4559561
118	0xbee43d56	-0.44578046
119	0xbda9fb17	-0.08299845
120	0x3f1c2258	0.60989904
121	0xbf42cb7f	-0.7609176
122	0xbee04ca5	-0.43808475
123	0x3f81f62e	1.0153253
124	0x3e3dd86a	0.18539587
125	0xbe25aaf3	-0.16178493
126	0x3d476c13	0.048687052
127	0xbf39d0ee	-0.72584426
128	0x3efa0edb	0.4883946
129	0xbf74c304	-0.9561007
130	0xbf995394	-1.1978631
131	0xbf0c4aa2	-0.5480138
132	0xbf21e963	-0.63246745
133	0x4003980a	2.0561547
134	0xbf0a474c	-0.5401504
135	0xbf045226	-0.5168785
136	0x3faea9af	1.3645533
137	0x3fe271f9	1.7691032
138	0xbf00af17	-0.50267166
139	0xbe38596f	-0.18002866
140	0xbddc04c3	-0.10743096
141	0x3e8d6f71	0.27624086
142	0xbec99238	-0.3936937
143	0x3fb2bb45	1.39634
144	0xbffeffb6	-1.9921787
145	0xbffb9c3b	-1.9657053
146	0xbfafcf95	-1.3735224
147	0xbf0f0b26	-0.55876386
148	0xbfb41c89	-1.4071208
149	0xbfe170a2	-1.7612498
150	0x3f84dc5d	1.037975
151	0x3fb31165	1.3989683
152	0x3eb5ebde	0.35531515
153	0xbfb2d28f	-1.3970507
154	0x3f7dfc44	0.9921305
155	0x3f9e2adc	1.235683
156	0x400035a8	2.003275
157	0x3ea2976e	0.31756157
158	0xbf285cf2	-0.65766823
159	0xbc691c50	-0.014227942
160	0xbf43ea77	-0.7652964
161	0xbfcc038e	-1.5938585
162	0x3f830bec	1.0238013
163	0x3f448c46	0.7677654
164	0x3e192e50	0.14959073
165	0x3ecfc38c	0.40578878
166	0xbe1c5da0	-0.1527009
167	0xbf8c57b8	-1.096427
168	0x3e97f5c7	0.296797
169	0xc0018872	-2.023953
170	0xbe863385	-0.2621118
171	0x3cc2724c	0.023736142
172	0xbf4978fa	-0.7870022
173	0x3e2fbbbc	0.17161459
174	0x3f4d1398	0.8010802
175	0x3fc78c6d	1.558973
176	0x3eb72a3c	0.3577441
177	0xc00e73fb	-2.225829
178	0x3f3ea755	0.7447408
179	0x3ef42d07	0.47690603
180	0x3e3ff36c	0.18745202
181	0xbf8774af	-1.0582484
182	0xbef33d66	-0.4750778
183	0x3ebde22c	0.37086618
184	0xbf042dac	-0.5163219
185	0x3e0c1601	0.13680269
186	0xbf23ee8b	-0.6403586
187	0x3f77c2e1	0.96781737
188	0xbff33b9e	-1.9002569
189	0xbfe32007	-1.7744149
190	0x3fa02cba	1.251365
191	0x3e9edd12	0.31028038
192	0x3feeacd3	1.8646492
193	0x3fdb2c77	1.7122945
194	0x3ea8e0b6	0.3298394
195	0xbf28787b	-0.6580884
196	0x3fc59991	1.543749
197	0xbec25f74	-0.3796345
198	0xbf307411	-0.68927103
199	0xbfd889d0	-1.6917057

fc1.bias f4 [50]
0	0x3f17c716	0.59288156
1	0xbd947966	-0.072497174
2	0x3e0bd6f0	0.13656211
3	0x3efa5deb	0.4889978
4	0x3e13ee64	0.14446408
5	0xbf05e541	-0.5230294
6	0xbebb7818	-0.36615062
7	0x3eeb0687	0.45903417
8	0xbe8c3c42	-0.27389723
9	0x3e638c56	0.22221503
10	0x3e9800aa	0.29688007
11	0x3edf3872	0.43597752
12	0x3f7e9f5f	0.9946193
13	0x3ed3b1b0	0.41346502
14	0x3eae8365	0.3408462
15	0x3e733a12	0.23752621
16	0xbed5c069	-0.4174836
17	0x3e39b995	0.181372
18	0x3b575aa1	0.0032860416
19	0x3e0e52c4	0.1389876
20	0x3ea3c33b	0.31984887
21	0x3d988eb1	0.07449091
22	0xbe4edc46	-0.20201215
23	0xbf8d1378	-1.1021566
24	0xbf3863e2	-0.7202741
25	0x3eee89f1	0.46589616
26	0xbf089c49	-0.5336347
27	0xbe400068	-0.18750155
28	0x3e663172	0.224798
29	0xbeaa5f5e	-0.33275884
30	0x3eda06c4	0.42583287
31	0xbe02ecf8	-0.12785709
32	0xbebbf2c4	-0.36708653
33	0x3ea213b3	0.31655654
34	0x3eae9f32	0.3410583
35	0xbe020693	-0.1269782
36	0x3f04e781	0.51915747
37	0xbcc45951	-0.02396837
38	0x3d68a98d	0.05680232
39	0x3eb426d6	0.3518588
40	0x3f070072	0.52735054
41	0xbd9da778	-0.07697958
42	0x3d30ab33	0.04313202
43	0x3f13a4da	0.5767342
44	0x3e5f6d25	0.21818979
45	0x3f437664	0.76352525
46	0x3f5f4d69	0.87227494
47	0x3f8031ef	1.0015239
48	0x3f4bb810	0.7957773
49	0xbd383d52	-0.044980355

fc_out.weight f4 [10, 50]
0	0x3e0c95f1	0.13729073
1	0x3dc270e1	0.09494186
2	0x3ec49ede	0.38402456
3	0xbf161b34	-0.5863526
4	0xbdbab756	-0.09117
5	0xbfa7c994	-1.3108392
6	0x3f2bf1b3	0.6716568
7	0x3ec61e08	0.38694787
8	0xbf5bdbb0	-0.8588209
9	0xbeb6ed47	-0.35727903
10	0xbf6e799a	-0.931543
11	0xbfae3407	-1.3609627
12	0xbfb6d84c	-1.4284759
13	0xbf898bdb	-1.0745806
14	0xbf0785aa	-0.5293833
15	0xbf8ffb9c	-1.124866
16	0xbe8eb235	-0.27870336
17	0xbe2ab9b2	-0.166724
18	0x3ef7651e	0.48319334
19	0x3ec9b689	0.39397076
20	0x3ecac056	0.39599866
21	0x3e5694ce	0.20955202
22	0x3f4826b3	0.7818405
23	0xbde5a5a3	-0.11213233
24	0xbf960ab7	-1.172202
25	0xbd8758d9	-0.06608743
26	0xbebb6b49	-0.3660529
27	0xbf48ca34	-0.7843354
28	0x3e2e559a	0.17024842
29	0x3f837a46	1.027169
30	0x3e46ae63	0.19402461
31	0xbe89e1b4	-0.2693001
32	0x3fa99918	1.3249846
33	0x3efa80d7	0.48926422
34	0xbf09ffba	-0.5390583
35	0x3e888143	0.2666112
36	0xbf562c21	-0.83661085
37	0x3f447fb5	0.76757365
38	0xbf21106a	-0.6291567
39	0xbf5b7bf5	-0.8573602
40	0x3f542e5c	0.8288324
41	0x3e2d5f56	0.16930899
42	0x3f2d1707	0.6761326
43	0x3ebc4853	0.3677393
44	0x3fb03c2b	1.3768362
45	0xbd81f03e	-0.06344651
46	0x3f13182f	0.57458776
47	0xbf80bcef	-1.0057658
48	0x3f07fb21	0.5311757
49	0xbf2f55cf	-0.6849031
50	0x3ed14e1f	0.40879914
51	0x3eef06c6	0.46684855
52	0x3e3b7cf7	0.18309389
53	0xbfa53520	-1.2906837
54	0xbd62fd82	-0.055417545
55	0xbf5e9301	-0.8694306
56	0x3e6c12ea	0.2305409
57	0x3f3d784e	0.74011695
58	0xbe37d841	-0.17953588
59	0x3e33a21e	0.17542312
60	0xbf82491f	-1.0178565
61	0xbf834371	-1.0254956
62	0xbed512d0	-0.41615915
63	0xbf9ae180	-1.2100067
64	0xbf4db955	-0.8036092
65	0xbf8f51ed	-1.1196877
66	0xbf9e39f2	-1.2361434
67	0x3e37d0d1	0.17950751
68	0x3eaf6fd3	0.34265003
69	0x3f0fc58f	0.56160825
70	0xbf20aa44	-0.62759805
71	0xbd368600	-0.044561386
72	0x3f365e8b	0.7123801
73	0xbebed5c2	-0.3727246
74	0xbf82c727	-1.0217026
75	0x3d0646a0	0.032782197
76	0x3a998330	0.001171207
77	0xbf877d7e	-1.0585172
78	0x3edb9b64	0.4289199
79	0x3f7f3049	0.9968305
80	0x3e9e15e1	0.30876067
81	0x3d9aa4f2	0.07550992
82	0x3f9aba97	1.2088193
83	0x3fab056c	1.336103
84	0xbf398cf4	-0.724807
85	0x3ee92df0	0.4554286
86	0xbed81d9f	-0.422101
87	0x3f162394	0.5864804
88	0x3dc476f9	0.09593005
89	0xbf89f4f2	-1.0777876
90	0x3f57e8a5	0.8433936
91	0xbc85cee0	-0.016333997
92	0xbf0e593a	-0.556049
93	0x3bf2de9f	0.0074117924
94	0x3f69fc22	0.9140035
95	0x3ecdc89b	0.40192112
96	0x3e83918f	0.2569699
97	0xbfa4f8ee	-1.2888467
98	0xbefd90b5	-0.49524465
99	0xbec5ba7a	-0.38618833
100	0x3ecc50ae	0.39905304
101	0x3dfc69dc	0.123248786
102	0x3ed837dc	0.42230117
103	0xbf029f70	-0.5102453
104	0xbe4ffcb6	-0.20311245
105	0xbf331c63	-0.6996519
106	0x3fa1e326	1.2647445
107	0xbceb8fba	-0.028755058
108	0x3dffa4f5	0.12482635
109	0xbe9fc40d	-0.31204262
110	0xbeb363c9	-0.35037068
111	0xbf20bf04	-0.62791467
112	0xbf937d91	-1.1522695
113	0xbf7a53cb	-0.9778411
114	0xbf358647	-0.70908016
115	0xbec94716	-0.39312047
116	0xbf1eb176	-0.61989534
117	0x3ece0c4e	0.40243763
118	0xbd2d4228	-0.04229942
119	0x3eb9e0a1	0.3630419
120	0xbf747d16	-0.95503366
121	0x3ea8909c	0.32922828
122	0x3f4fe75d	0.8121241
123	0x3d5d5f40	0.054045916
124	0xbf7b3cb1	-0.9813948
125	0x3de30db9	0.11086602
126	0xbf68e52b	-0.9097468
127	0xbf8f29f3	-1.1184677
128	0xbd38c788	-0.045112163
129	0x3f4dbe97	0.8036894
130	0x3efc25ea	0.49247676
131	0x3c2ebe00	0.010665417
132	0x3f4c7f36	0.7988161
133	0x3f87591d	1.057407
134	0xbf2cbe7b	-0.6747815
135	0x3edf6662	0.436328
136	0xbf652a5e	-0.8951777
137	0x3fa35f47	1.2763451
138	0xbee23bd4	-0.4418627
139	0xbeb6527c	-0.35609806
140	0x3f86badb	1.0525774
141	0x3e7e4b2e	0.24833366
142	0xbf24dd05	-0.6439975
143	0xbd2a28ff	-0.041543003
144	0x3fb23f8e	1.3925645
145	0x3e4b2322	0.19837621
146	0x3ed28ba1	0.41122153
147	0xbf7422eb	-0.9536578
148	0xbd83a2e2	-0.06427552
149	0xbf856b8b	-1.0423445
150	0x3f2ff1f8	0.6872859
151	0x3f093a08	0.53604174
152	0x3ef56cf5	0.4793469
153	0xbf58a411	-0.84625345
154	0x3e9c7f6a	0.3056596
155	0xbf4d618e	-0.8022698
156	0x3f801f44	1.0009542
157	0xbecc8ac1	-0.3994961
158	0xbee52a01	-0.4475861
159	0x3d1da69c	0.03848897
160	0xbf8c165f	-1.0944327
161	0xbf94e20c	-1.1631484
162	0xbf5c6151	-0.86085993
163	0xbf7ff94d	-0.9998978
164	0xbe928a45	-0.28621116
165	0xbf874c4b	-1.0570158
166	0xbe03fe77	-0.1289004
167	0xbe8ef452	-0.27920777
168	0xbc17457c	-0.009232875
169	0x3f259ef6	0.6469568
170	0xbd455c95	-0.048183996
171	0xbe90c78d	-0.28277245
172	0x3f5dc649	0.86630684
173	0xbeb61664	-0.35563958
174	0xbeb59dd0	-0.35471964
175	0x3eff5b45	0.4987432
176	0x3ebfb0fa	0.3743971
177	0xbfae78e2	-1.363064
178	0x3d5e1465	0.05421867
179	0x3e88554d	0.2662758
180	0x3d902e73	0.070401095
181	0x3e95678f	0.2918057
182	0x3f1a7195	0.6032956
183	0x3fb74cf3	1.4320358
184	0xbf81135b	-1.0084032
185	0x3e7971c7	0.24359809
186	0xbf689ea2	-0.90867054
187	0xbe1ef168	-0.15521777
188	0x3e8d894f	0.2764382
189	0xbeddf9ab	-0.43354544
190	0x3f44fadf	0.769453
191	0xbe983c26	-0.2973339
192	0xbd962db8	-0.07332939
193	0x3f01d391	0.5071345
194	0x3f27c7b2	0.65539086
195	0x3cf2076e	0.029544558
196	0x3ed22464	0.4104339
197	0xbf591927	-0.84804004
198	0xbdf8df51	-0.12151969
199	0xbf6e1055	-0.9299367
200	0x3e3e2767	0.18569718
201	0xbe151080	-0.14557076
202	0x3bd09206	0.0063650636
203	0x3ded4760	0.11585879
204	0x3e61ae80	0.22039223
205	0xbf11b634	-0.56918645
206	0x3f3b0fa8	0.73070765
207	0xbe85f26c	-0.26161516
208	0xbf13098a	-0.5743643
209	0x3dc8dca2	0.09807707
210	0x3dbbf994	0.091784626
211	0xbf294f23	-0.6613638
212	0xbeb3d5c9	-0.35124043
213	0xbf62642d	-0.88434106
214	0xbf5b8bf0	-0.857604
215	0xbf39defe	-0.72605884
216	0xbec5c14a	-0.3862403
217	0xbf446e81	-0.76731116
218	0x3ddd2c6d	0.10799489
219	0x3e67032a	0.225598
220	0xbe7ccb82	-0.24687007
221	0xbe02a256	-0.12757239
222	0x3f3de4a6	0.74177015
223	0xbf05f164	-0.5232146
224	0xbf52ce39	-0.8234592
225	0x3ed11eab	0.4084371
226	0xbe314d9e	-0.17314765
227	0xbf9f08b8	-1.2424536
228	0x3ba20b25	0.004945176
229	0x3f0ca110	0.5493326
230	0x3ed73c90	0.42038393
231	0xbd7b0f70	-0.06129402
232	0xbe7917c6	-0.24325475
233	0x3f7c14ed	0.9846943
234	0xbe208b9a	-0.15678254
235	0x3eb0237c	0.34402072
236	0xbf4f1477	-0.808906
237	0x3cf5da96	0.030011456
238	0x3e25119f	0.16120003
239	0xbe0f3d63	-0.13988261
240	0x3f1700bc	0.58985496
241	0x3e1e4f8a	0.15460029
242	0xbd707b52	-0.058711357
243	0x3f2229f2	0.63345253
244	0x3f1891c1	0.595974
245	0x3e47a666	0.1949707
246	0x3e801556	0.25016278
247	0xbf1e46f4	-0.61827016
248	0xbf481198	-0.78151846
249	0xbf243879	-0.6414867
250	0x3e9b647e	0.30350107
251	0x3f051c5e	0.5199641
252	0x3ea19b64	0.31563866
253	0xbdfe8b82	-0.12428953
254	0x3e2ee758	0.17080438
255	0xbf1ff8c3	-0.62488955

fc_out.bias f4 [10]
0	0x3e74679e	0.23867652
1	0x3e1c9c49	0.15293993
2	0xbe56eada	-0.20988026
3	0x3e770e39	0.2412652
4	0xbd3447c1	-0.044013742
5	0x3e01d121	0.12677433
6	0xbc1350ae	-0.0089914035
7	0xbe35a087	-0.17737018
8	0xbda209ef	-0.07912051
9	0xbe7d28a2	-0.24722531
