models/demo_B0_fukuoka_314.pt (torch_old, 4167 bytes, 5 tensors)

fc1.weight f4 [50, 4]
00000000: 6908 0cbf af1f ed3c 21a7 48bf 662e 2f3f
00000010: 776d b83e 74d1 57be 2e42 4dbf 05db 3b3f
00000020: 7463 c43d 962a a23e be05 13bf e870 9e3f
00000030: 0a06 85bf 2538 efbe c001 44bf f18c b73e
00000040: 9144 20be cf13 1ebf afd6 26bf eb22 a63f
00000050: 6dcf 543f 8fef 74bf 5864 16bf a76f 6abf
00000060: 9521 5cbd 1f2c 12be a8ba 8bbf 274f fdbe
00000070: 4ef5 ecbe 2656 a83f 9403 0e3f 4909 313e
00000080: 6a35 973c 26b1 b43f bf3a 9dbf 546c 31bf
00000090: 8ec9 763f 1c8c 96bf 2384 8c3e 7ccb 813f
000000a0: 61f7 5abe e133 d83f add6 1a3f 56c3 a4be
000000b0: 1bad 41bf c48b 5d3d 803c 443e 08e4 d1be
000000c0: dc89 9dbf 2ece aabf 4de8 81bb 51a2 a7bf
000000d0: 7b1b 013f 9b57 2b3c c571 733f f0d3 86bf
000000e0: 7c98 75bf 29af 93bf 5d27 2e3d 24d0 d0bd
000000f0: 9d1d 073f f8e7 e93e e1c5 c43f 8d2a d2be
00000100: d2c8 95bf bcc6 3cbf f4ec e0be 9ba4 1fbf
00000110: 93db c7bf 1b92 28bf c383 86be 4a4b 4abf
00000120: 7b77 5a3f b1cc 163f d5aa 933d 8b7d 523f
00000130: 313f a9be a6ce 943e 4f30 5ebf 58d8 9bbe
00000140: b434 23bf cdba 873f 809b 153f 5699 80bf
00000150: e74b 653f f9d5 e13e 730b 56bf 7b35 943f
00000160: e9fa 74be d72f f9be 8fdc 423f 714e ab3f
00000170: c16d 783f 7e13 ce3e d3a2 fd3e 0c60 813f
00000180: 1847 c13c 752e b53e fe5c b3bf be64 53bf
00000190: 0ff7 dc3d 1349 96be 6fc9 16bf e04e 133e
000001a0: 834d 6e3f 8204 b03d 04d8 9e3d a80f 923f
000001b0: 8bde 283f 3d1c 16bf 7b3d 8a3f 0136 01bf
000001c0: eef1 51be 096d a03e 3573 89bd 4e59 9c3f
000001d0: bdf9 36be 32dc 13bf 5041 6bbf 7e68 9bbd
000001e0: 0715 803f b082 b7bf 4c2d f63d 0d2f f03e
000001f0: dee1 bc3e a26e a1be d7de 05be ad05 09bf
00000200: 5a96 743e f39a 25bf 63f8 44bf 82fc 48bf
00000210: 386f 2dbe 021c 0140 b1d9 3b3e a01a 7bbe
00000220: 3524 f83e 8115 c73f b383 bebe 6c9e 133e
00000230: 253c 31be 3573 22bd cb1f 3abf 3949 a13f
00000240: c8bc dbbe 6f90 c63e 498a a7bf 8759 95bf
00000250: 214d 59bf d2b0 92bf 690e 4f3f bd54 d03f
00000260: bf11 623d 6c6e 17bf 1f65 733f 8cf9 9c3f
00000270: 238b 593f fcdd 013f 35e0 bfbe 6652 6fbf
00000280: f477 a6bf bd38 acbf fd1c 62be 341f 933e
00000290: 502e 193e 8cc3 cf3e a05d 1cbe b857 8cbf
000002a0: 49d9 9b3d 5691 88bf 3bca f7be 3a32 733d
000002b0: a61c a6bf e700 5ebf c1b7 36be d1f4 783f
000002c0: e1b4 6e3c b237 95bf 5fb9 2bbe 2c90 943e
000002d0: b12c ac3e 3254 a5be c77f 45bf ceb4 653d
000002e0: c373 b9be d497 79be 6b13 39bf 1552 413f
000002f0: bfe4 e8bf 27ff c4bf 1def 84be 6c51 91bf
00000300: 0e9e a23e 4f3a c83f 56fe 49bd 1dce 83bf
00000310: 574f f23e 80f4 c83e 5091 52bf c5ca abbf
-0.5470033 0.028945772 -0.7838002 0.68430173 0.36021015 -0.21075994 -0.8017911 0.7338107
0.09589282 0.31673115 -0.57430637 1.2378206 -1.0392468 -0.46722522 -0.7656517 0.35849717
-0.15651156 -0.61748976 -0.6517133 1.2979406 0.83129007 -0.9567804 -0.5874686 -0.9157662
-0.053742964 -0.14274643 -1.0916338 -0.4947445 -0.46280903 1.315129 0.5547421 0.17288698
0.018458087 1.4116561 -1.2283553 -0.6930592 0.964013 -1.1761508 0.27444562 1.0140224
-0.2138343 1.6890832 0.6048382 -0.3218028 -0.75654763 0.05408837 0.19163704 -0.40994287
-1.2307696 -1.3344171 -0.00396446 -1.309641 0.50432557 0.0104578985 0.95095474 -1.0533428
-0.959358 -1.153783 0.04251801 -0.1019595 0.5277956 0.4568479 1.5372888 -0.4104809
-1.170191 -0.73740745 -0.4393078 -0.62360543 -1.5613884 -0.6584794 -0.262724 -0.7902113
0.8533856 0.58906084 0.07210318 0.82222813 -0.33056024 0.2906391 -0.86792463 -0.30438495
-0.63752294 1.0603882 0.584404 -1.0046794 0.8956894 0.4410856 -0.8361122 1.1578821
-0.2392384 -0.4866931 0.76117796 1.3383313 0.9704247 0.40249246 0.49538288 1.0107436
0.02359347 0.35387006 -1.4012754 -0.82575595 0.1078931 -0.29352626 -0.58901113 0.14385557
0.93087023 0.0859461 0.077560455 1.1411028 0.65964574 -0.5863684 1.0800012 -0.5047303
-0.20502445 0.31333187 -0.06711427 1.2214754 -0.17868705 -0.57757866 -0.91896534 -0.0758829
1.0006417 -1.4336758 0.120203584 0.46910897 0.36891073 -0.3152972 -0.13073288 -0.53524286
0.2388548 -0.6468956 -0.7694151 -0.78510296 -0.16936958 2.0173345 0.18344761 -0.24521875
0.48465124 1.5553437 -0.37209854 0.14415902 -0.173081 -0.03966065 -0.7270476 1.2600471
-0.42917466 0.3878207 -1.3089076 -1.1667947 -0.84883314 -1.1460211 0.80881363 1.627586
0.055192705 -0.59152865 0.95076174 1.2263656 0.8497793 0.50729346 -0.37475744 -0.93485105
-1.3005357 -1.3454815 -0.2208137 0.28734744 0.14959073 0.40578878 -0.1527009 -1.096427
0.07609803 -1.0669353 -0.48396477 0.05937407 -1.2977493 -0.86720127 -0.17843534 0.9724856
0.014569492 -1.1657622 -0.16769932 0.29016244 0.33627847 -0.32290798 -0.771481 0.056080632
-0.36221132 -0.24374324 -0.72295254 0.7551587 -1.8194808 -1.5390366 -0.2596368 -1.1352973
0.3176121 1.5642794 -0.04931482 -1.0297276 0.47326156 0.3924904 -0.8225298 -1.3421255

fc1.bias f4 [50]
00000000: f051 063f 8f73 5a3d c72e 5c3e cba9 0c3e
00000010: 885e 833f 03af da3e b0b2 b2be 16a5 28be
00000020: b5d8 96be c89e dd3d b74d e53e 39cf 193f
00000030: 16a4 d3be 9343 42be 522e 6ebd 2105 d03f
00000040: 9938 53bf e56b c6be 3da9 e9be 3034 e7bd
00000050: b8c0 7abe 9957 273f 8a5c 213e 3a4a 94be
00000060: 668d 63be bd0f 7a3e b8df 673f 1172 69be
00000070: 8af2 363f 04a5 cebe 89f8 ec3e 7e7f 723d
00000080: 50ac dabe 2365 063f f547 0b3f 2dc0 353e
00000090: 76cd 98ba 7419 bb3e 930f 8c3e 66d4 40bf
000000a0: a40e 0f3e 78a7 9dbd 2015 c9be e326 433e
000000b0: 54ae e8be 3cc2 333f 7615 673f 3783 12bf
000000c0: de4a d63e e8ee 5f3e
0.52468777 0.05333286 0.21502219 0.13736646 1.0263224 0.42711648 -0.34901953 -0.16469225
-0.2946221 0.10821301 0.44785854 0.6008182 -0.41336125 -0.1897109 -0.058149643 1.6251565
-0.82508236 -0.38754192 -0.4563693 -0.11289251 -0.24487579 0.6536804 0.15757957 -0.2896288
-0.22221908 0.24420066 0.9057574 -0.22797419 0.71463835 -0.40360272 0.46283367 0.059203617
-0.4270959 0.5249807 0.5440667 0.1774909 -0.0011657912 0.36542857 0.27355632 -0.75324094
0.13970429 -0.07697958 -0.3927393 0.19057803 -0.45445502 0.70218253 0.9026712 -0.5723147
0.41853994 0.21868479

adv.weight f4 [10, 50]
00000000: d154 6bbe 9f91 633b 8537 c03d 3ece 20be
00000010: a963 4fbe a1cc 1abf 4d21 d8be d73e d73e
00000020: 33aa 983e 0e75 c2be ae3c 0ebf 8388 06be
00000030: a30a 98bf 1e77 a03e a2f2 c73e 5b9d eebd
00000040: 43d5 24be b004 243e b81d 9fbd 7d0a bfbd
00000050: 80be 1c3d 62f6 2e3e 5eb5 5d3e be93 7bbe
00000060: 332d ed3e 1e95 78bd d918 84be fee7 5bbe
00000070: edd5 66be 8252 f33d 7d5c f33e b851 cebd
00000080: d5df 4ebe 3a58 003f d2f5 b9be fc70 4e3c
00000090: 5561 b2bf d909 533e 7b3e d7be 02c6 603c
000000a0: 7b4d 3c3e 565f 2d3e d94d 793e db6a 213d
000000b0: 9936 473e a9bc cebd 89db 853e fce5 48bf
000000c0: b4d1 8fbc 0ca9 e73d 1380 243e eab3 823e
000000d0: 7847 ebbd 0a98 23bd 2c9f b1be 42c7 8ebe
000000e0: e6b6 ecbe 8bcd 8f3e b17c 403e 1e4e 10bd
000000f0: 43e5 04bf 4c7c 28be 3a7a 2dbf 2f96 c4be
00000100: cdc8 723e 41dd 2fbe 4f3a 02bf eb27 df3d
00000110: b89d 70be 13de a5be cc61 89be f45d c0be
00000120: 4d5d 0a3e d8b2 7cbe eb4b a63e 802d 2bbe
00000130: 3527 c93d eb3c 6bbe 96d2 5b3d 43e0 db3d
00000140: c844 773d 117e ec3e 85b1 703e 63fd 8f3e
00000150: c741 87be c37a 333e 34b6 01bf 01be f5bc
00000160: e8c5 423d 75bf 073c f146 983e e0ce 85bc
00000170: cb50 78be a26b a5bd 6d6c ae3e 55a8 453e
00000180: 35ff 16bc 7713 4cbf 2cea 133e c572 193e
00000190: eff9 893b 559d 81bd 17af 673e 7f9e f6bd
000001a0: 4282 a2be 25c4 173d 5ce3 4cbf 3af7 db3c
000001b0: 1ea0 553e 2706 cfbe aca4 acbe a55c 21be
000001c0: 4383 94bf 7c87 3fbe 9874 9f3e 90f1 563d
000001d0: 998f 15bf f384 2cbd acd7 d9be a267 08be
000001e0: 6522 97bd 7797 143e 3aef 45be b68e 4d3d
000001f0: 5b6a aa3e 51d8 a9bc 7b9d 5cbe 5fcc 233e
00000200: b1f4 45be 8301 2bbe 85f3 793e c68d 603e
00000210: 4fdc c63d 34e6 c23e f37a debe da3b 623e
00000220: a212 2bbf a368 1d3e 109e 813c 4d59 aa3e
00000230: a5b1 8d3e 2e4b 7e3e 992a b0be 556e 9fbb
00000240: fca9 243e 939b 443b 0a04 043e ebfb 04bf
00000250: 53ff 16be bf14 16be c490 873d 87b4 7d3e
00000260: f786 553e ef9d 533c fb52 e63b be8a 783e
00000270: 273c dabe bd0d 9e3d ce73 6e3e e199 33be
00000280: 44fe 83be 149b 98bd c696 7abf 1d4b 683e
00000290: a58f 863c af54 f5bd c495 0abd af5e a1be
000002a0: 7c2f b2be 67b0 7ebd 9d7f cf3d 9dd1 9fbe
000002b0: 4c4d 063e 4f6c 92bd 32d7 4a3c b3a8 2d3e
000002c0: 3023 363e 34e1 f33e 8e84 87be f0da 22be
000002d0: bf9c bebc 5f34 c53e a953 263e 59a9 a83e
000002e0: 0068 abbe d22b c2bd 1a66 b3be e8d7 97be
000002f0: db83 e43d 66ed 4f3e 3904 823e 263c 98be
00000300: 54bb c0bd 7cb7 383e d591 23be 16f7 72be
00000310: bf62 93bd b217 82be d477 173e 9c8a 10be
00000320: d87f 09be 72b8 53be ba07 9ebd 8f85 0b3e
00000330: 29bb 133b 41d9 6d3e c4af 46bf fef1 9b3c
00000340: efba 06bc cc86 9cbe 895e 6ebe 4d24 abbd
00000350: 6d21 49bf e691 a83e 8c5d 0dbe fefe 9abe
00000360: 7618 6abe 8ab3 7fbe 17c3 38be 19f9 423c
00000370: 3369 903e 12dc 6abe 76b8 493e 8d09 35be
00000380: 0d66 0bbd edb4 913e 413f ad3e 1afa ad3d
00000390: 114c 43be ee01 b2bd e161 013e 1210 dc3d
000003a0: 557f eb3d 6e91 d63d 2a43 fa3c c0c7 ce3d
000003b0: ec78 c6bd e52c a9be 446b 293e 9171 cd3d
000003c0: 4f80 013e 8a4f 1e3e 9219 c9be 1dbe 113e
000003d0: 71e9 cabd 11d3 20bd 5966 3ebd ce5a 1bbe
000003e0: 3ca7 233d 674f fe3d 3632 e4bd 407f 3f3e
000003f0: a2fd b13c a651 013e 51af 5cbe bbb8 b83e
-0.22981574 0.0034724248 0.093855895 -0.15703675 -0.20252861 -0.6046849 -0.42212906 0.4204013
0.29817352 -0.3797993 -0.5556134 -0.13138013 -1.1878246 0.3134088 0.39052302 -0.11651107
-0.16096978 0.16017413 -0.0776934 -0.09328172 0.038267612 0.17086175 0.21651217 -0.24568078
0.46323547 -0.060689084 -0.25800207 -0.21475217 -0.22542544 0.118809715 0.475315 -0.1007418
-0.20202573 0.50134623 -0.3632036 0.01260018 -1.3935953 0.20609225 -0.42039856 0.013719084
0.18388931 0.16930899 0.24346103 0.039408546 0.19454421 -0.10094578 0.26144055 -0.7847593
-0.017556049 0.1131154 0.16064481 0.2552789 -0.11488241 -0.039939918 -0.3469175 -0.27886397
-0.4623329 0.28086504 0.18797566 -0.03523075 -0.51912326 -0.16453665 -0.6776463 -0.3839583
0.23709412 -0.17174245 -0.5087022 0.108962856 -0.23497665 -0.32395992 -0.26832426 -0.3757168
0.13512154 -0.24677598 0.32479796 -0.16716576 0.09821931 -0.22972457 0.053667627 0.10736134
0.06036833 0.4618993 0.23505218 0.28123006 -0.26417372 0.17527299 -0.50668645 -0.029997827
0.04755202 0.008285393 0.29741624 -0.016333997 -0.2424957 -0.0807717 0.34067097 0.19302495
-0.00921612 -0.797172 0.14444798 0.14985187 0.0042107026 -0.06328837 0.22625385 -0.120419495
-0.31740004 0.037052292 -0.8003442 0.026851285 0.20861861 -0.4043438 -0.33719385 -0.15757997
-1.1602558 -0.18704027 0.3114364 0.052476466 -0.5842224 -0.042118978 -0.42547357 -0.13320783
-0.07379607 0.14510904 -0.19329539 0.050184928 0.33284268 -0.02073303 -0.21544449 0.1599593
-0.19331624 -0.16699795 0.24409302 0.21929082 0.09709989 0.38066256 -0.43453178 0.22093144
-0.66825306 0.15371947 0.01582244 0.33271256 0.27674595 0.24833366 -0.344075 -0.0048654475
0.16080469 0.0029999956 0.12892166 -0.51946896 -0.14745836 -0.14656352 0.06619409 0.24775897
0.20852266 0.012916072 0.007028935 0.24271676 -0.42624018 0.07717464 0.23286363 -0.17539169
-0.25779927 -0.07451454 -0.9788631 0.22684903 0.016425917 -0.11979043 -0.033834234 -0.3151755
-0.34801853 -0.06217995 0.10131762 -0.3121461 0.13115424 -0.071495645 0.012380408 0.16958885
0.1778686 0.47632754 -0.2646832 -0.1590383 -0.023268102 0.38516518 0.16242851 0.32941702
-0.33477783 -0.09481014 -0.35038835 -0.2965691 0.11157962 0.20305404 0.25393847 -0.2973339
-0.0941073 0.18038744 -0.159736 -0.23727068 -0.07196569 -0.25408703 0.14791805 -0.14115375
-0.13427675 -0.20675829 -0.077163175 0.13625167 0.0022541976 0.23227407 -0.7761195 0.01903629
-0.008223279 -0.30571592 -0.2327825 -0.08356533 -0.7856663 0.32923812 -0.13805217 -0.3027267
-0.22860894 -0.24970832 -0.18043171 0.01190021 0.2820526 -0.22935513 0.19699273 -0.17679425
-0.03403287 0.28458348 0.3383732 0.08494969 -0.19071986 -0.08691774 0.12634994 0.10745253
0.11498896 0.10476957 0.030549604 0.10096693 -0.09691033 -0.33042064 0.16544825 0.10031427
0.12646602 0.15460029 -0.3927732 0.14232679 -0.09907807 -0.03926379 -0.046484325 -0.15171358
0.03995441 0.124174885 -0.111423895 0.18700886 0.021727387 0.12628803 -0.21551253 0.36078438

adv.bias f4 [10]
00000000: 2e09 e83a 6507 17be 33cb 4dbe b296 0fbd
00000010: 582b f0bd 47bb b43b 7be2 7c3e 8b69 5f3d
00000020: ab61 3b3e 8bca 9c3e
0.0017702931 -0.14748915 -0.20097046 -0.035055824 -0.11727017 0.0055154893 0.2469577 0.054544013
0.18298976 0.30623278

val.weight f4 [1, 50]
00000000: 8b8e 5c3e f971 453e 14ee 8e3e c701 acbe
00000010: 57b8 ea3e 3832 27bd 8be6 ebbe aa41 063f
00000020: 1ea4 bd3e 2870 a7be bbde e9be f368 22bf
00000030: 9c33 17c0 33ac dbbb 27a6 babc 413f aa3e
00000040: 77a7 bbbf 47b9 90bf bade 51bf 0b52 ecbe
00000050: 39a0 723e d16f d83e c7ea 2f3f e8f1 b2be
00000060: 39dd 5a3f 8299 4abe be80 e73e 8247 93bd
00000070: 0c9c 893e a030 29be 1328 b03e 9b80 453e
00000080: 355f a1bd 0c72 5d3f 0d25 54bf 37f6 f23e
00000090: 53fb f0bf 9b4e e63e 9a06 073f 02b0 7bbf
000000a0: 8ecc 17bf fcae a2be 8524 b0be 38a4 24bf
000000b0: c94b b1be a1a8 bc3e 90ec da3e 226d 0cc0
000000c0: 9dba aebe 7c61 bcbf
0.21538751 0.19281758 0.27916014 -0.33595106 0.45843765 -0.040819377 -0.46074328 0.52443945
0.37039274 -0.32702756 -0.45677742 -0.6344139 -2.362525 -0.0067038774 -0.022784306 0.33251384
-1.4660481 -1.1306542 -0.8198048 -0.46156344 0.23693933 0.4227281 0.68717617 -0.34950185
0.8549381 -0.19785121 0.4521541 -0.071913734 0.26876867 -0.16522455 0.34405574 0.1928734
-0.078794874 0.86502147 -0.82869035 0.47453472 -1.8826698 0.44981846 0.5274445 -0.9831544
-0.592965 -0.31774127 -0.34402862 -0.6431308 -0.34628132 0.36847404 0.42758608 -2.194161
-0.3412675 -1.471725
