models/demo_A0TOKYO_14_31_04_314.pt (torch_old, 3768 bytes, 4 tensors)

fc1.weight f4 [50, 4]
0	0xbfbbd256	-1.4673564
1	0x3f3b5565	0.73177177
2	0xbf9918f6	-1.1960742
3	0xbf0e4f54	-0.55589795
4	0x3eac607b	0.3366736
5	0xbe76cf63	-0.24102549
6	0xbf79193d	-0.97304136
7	0xbce34872	-0.027744506
8	0xbf0668a2	-0.52503407
9	0x3f5ccb7c	0.8624799
10	0xbf74570e	-0.95445335
11	0xbe32f122	-0.17474797
12	0xc0220172	-2.5313382
13	0x3fa5c61c	1.2951083
14	0xbfe570a6	-1.7925003
15	0xbe3a95d1	-0.18221213
16	0xbf515355	-0.8176778
17	0xbe3f07cc	-0.18655318
18	0xbdd1fdfb	-0.10253521
19	0x400e13ba	2.219954
20	0x3f1f55c7	0.6224026
21	0xbf15eda1	-0.5856572
22	0xbfd23b6a	-1.6424382
23	0xbf986997	-1.1907223
24	0xbf293628	-0.6609826
25	0x3e856cab	0.2605947
26	0xbfaf6559	-1.3702804
27	0xbf5d64e1	-0.86482054
28	0xc0113809	-2.269045
29	0x3fed7bce	1.8553407
30	0xbf1ca850	-0.61194324
31	0xbf1d6cdf	-0.6149425
32	0xbf920547	-1.140786
33	0x3f8ef1c6	1.1167533
34	0xbfdea0d3	-1.739283
35	0xbffaf604	-1.9606328
36	0x3fab9f85	1.3408056
37	0xbf93b822	-1.1540568
38	0x3fbe8b19	1.4886199
39	0x404239ad	3.0347703
40	0xbc54b647	-0.012982911
41	0x3fa89ab4	1.3172212
42	0xbdf2fcb9	-0.11864609
43	0xbff52577	-1.9152058
44	0xbf127177	-0.57204384
45	0x3e24e832	0.161042
46	0x3edc28f1	0.42999986
47	0xbf87eb98	-1.0618773
48	0xbf4a7ceb	-0.7909686
49	0xbf056c2c	-0.5211818
50	0xbc18e2fc	-0.009331461
51	0xbfdd1324	-1.7271466
52	0x3f281ea6	0.65671766
53	0x3eb33b7b	0.35006317
54	0x3f3f5b88	0.7474904
55	0xbfacc552	-1.3497717
56	0xbe870317	-0.26369545
57	0xbff20949	-1.8909084
58	0x3e976a46	0.29573268
59	0xbf563389	-0.83672386
60	0x3e8d3c74	0.27585185
61	0x3edf5e4f	0.4362664
62	0xbde4980f	-0.111618154
63	0xc023f257	-2.5616663
64	0xbfdafd69	-1.7108585
65	0x3f65fa8e	0.8983544
66	0xbfaa7532	-1.3317015
67	0xbfc57291	-1.5425588
68	0xbfde38e0	-1.7361107
69	0x3fc1e0cc	1.5146728
70	0xbfe69427	-1.8013963
71	0xbfa4ec56	-1.2884624
72	0x3f403d4e	0.75093544
73	0xbdbda45c	-0.09259865
74	0x3f3c2be0	0.7350445
75	0x40001d36	2.001783
76	0xbe1741fb	-0.14771263
77	0xbe3e7b90	-0.18601823
78	0xbfca12fc	-1.5787044
79	0xbf11b5fe	-0.56918323
80	0xbf68ad62	-0.9088956
81	0x3f193e00	0.5986023
82	0xbe46b47d	-0.19404788
83	0xbfcb4aa3	-1.5882152
84	0x3f3d2d22	0.7389699
85	0x3f669c2e	0.9008206
86	0xbfbe3bd7	-1.4862012
87	0x3f2775e1	0.65414244
88	0xbffe3b51	-1.9861852
89	0x3f986447	1.1905602
90	0x3f1bbb61	0.6083279
91	0x3e85d81c	0.2614144
92	0x3f01d1e5	0.507109
93	0x3f9a5559	1.2057296
94	0x3f93cd5c	1.1547046
95	0xbf40cb76	-0.75310457
96	0xbeac9198	-0.3370483
97	0x3f1fe1e6	0.6245407
98	0xbf3284fb	-0.6973416
99	0xc00a5dd7	-2.1619775
100	0x3db0cccb	0.08632811
101	0xbe8b31ef	-0.27186534
102	0xbf6c4e2f	-0.923068
103	0x3e18c2f5	0.1491812
104	0x40054283	2.0821846
105	0xbf54fceb	-0.8319842
106	0x3ee4bad6	0.44673795
107	0x3fad9e84	1.3564
108	0x3fe9e451	1.8272802
109	0xbfc7a037	-1.5595769
110	0x3f608173	0.87697524
111	0x3f083a4b	0.5321395
112	0xbfe10f41	-1.758278
113	0x3ff019f1	1.8757917
114	0xbfce0bb7	-1.6097325
115	0x3f2fd736	0.6868776
116	0xbe059f05	-0.13048942
117	0xbef13004	-0.47106946
118	0xbfefffc8	-1.8749933
119	0xbea2fff7	-0.3183591
120	0x3fc82f17	1.5639371
121	0xbfc2cd0f	-1.5218829
122	0xbf108721	-0.5645619
123	0xbf87a5c8	-1.0597467
124	0xbeb8aa57	-0.3606746
125	0x3ec389d1	0.38191083
126	0xbe8bf374	-0.27334177
127	0xbfb55ecf	-1.4169558
128	0x3ea1ecb4	0.31625903
129	0xbfac5867	-1.3464478
130	0xbf22cfa7	-0.635981
131	0xbfb3d53f	-1.4049453
132	0xbfbf9e98	-1.4970274
133	0x3fff4806	1.9943855
134	0xbe8c07e6	-0.27349776
135	0xbfb8a4ef	-1.4425334
136	0x3f0153ee	0.5051869
137	0x3f8b7c0c	1.0897231
138	0x3ed77bf7	0.42086765
139	0xbf313016	-0.69214
140	0xbe90d42e	-0.2828688
141	0x3e147e03	0.14501195
142	0xbffca99d	-1.9739262
143	0x3f110e42	0.5666238
144	0xbf90b865	-1.1306273
145	0x3f0a18d1	0.53944117
146	0xbf35060d	-0.7071236
147	0xbfbabcdd	-1.4588886
148	0xbf58a040	-0.8461952
149	0xbfad8e76	-1.3559101
150	0x3f90bc73	1.130751
151	0x40453aed	3.0817215
152	0x3f54fdb8	0.83199644
153	0xbf671b85	-0.90276366
154	0x3fae4794	1.3615594
155	0x3fa4fb57	1.2889203
156	0x3f2248cb	0.63392323
157	0x3e92828a	0.28615218
158	0xbf8d76b4	-1.105185
159	0xbf94aa76	-1.161452
160	0xbfb88bef	-1.4417704
161	0xbf3b28aa	-0.73108923
162	0xbb4e2fa8	-0.003146151
163	0x3e853449	0.26016453
164	0xbea2310c	-0.31678045
165	0x3f4c436a	0.79790366
166	0xbfaa1815	-1.3288599
167	0xc00e93c0	-2.227768
168	0x3fdfd1ea	1.7485936
169	0xc021d7f2	-2.5288053
170	0x3f01e109	0.50734
171	0x3f2d1a52	0.67618287
172	0xbff3bd25	-1.9042097
173	0x3e9227df	0.28546044
174	0xba651ba4	-0.00087397755
175	0xbea472c9	-0.32118824
176	0x3e9abc4e	0.3022179
177	0xbfca29fd	-1.5794064
178	0xbeb53b65	-0.35396877
179	0xbebd77a5	-0.37005344
180	0x3ef5d1a2	0.480115
181	0xbf463223	-0.7742025
182	0xbe406a18	-0.18790472
183	0xbe786b70	-0.24259734
184	0xbf940504	-1.1564031
185	0x3ea57001	0.32312015
186	0xbf58796a	-0.84560263
187	0x3e258b16	0.16166338
188	0xbf90b8b4	-1.1306367
189	0xbf39ff8f	-0.72655576
190	0x3d4f231a	0.050570585
191	0xbfc9f25f	-1.5777091
192	0xbf87d585	-1.0612036
193	0x40127387	2.2883012
194	0x3e869399	0.26284483
195	0xc0076055	-2.1152546
196	0x3d75b0d1	0.05998308
197	0x3e359dd0	0.17735982
198	0xbfdd957b	-1.7311243
199	0xbf856e4d	-1.0424286

fc1.bias f4 [50]
0	0x3f3a98e6	0.72889555
1	0x3e7899fa	0.24277487
2	0x3f656f42	0.8962289
3	0xbf2a8b1e	-0.66618526
4	0xbddef878	-0.108872354
5	0xbedac841	-0.42730907
6	0xbf49e23f	-0.7886085
7	0x3f157273	0.5837776
8	0xbea7d26d	-0.3277773
9	0x3e682350	0.2266972
10	0xbe8c48e2	-0.27399355
11	0x3f93153b	1.1490854
12	0xbf09498d	-0.53627855
13	0x3f65fef6	0.89842165
14	0x3f0fca21	0.561678
15	0xbf3c3861	-0.7352353
16	0xbec63686	-0.38713473
17	0x3ede0e3a	0.4337023
18	0xbf40b668	-0.7527833
19	0xbe494c61	-0.19658042
20	0xbf57e6e0	-0.8433666
21	0x3ec46fa4	0.38366425
22	0x3e966cb4	0.2937981
23	0x3f919fc3	1.137688
24	0x3c92241e	0.017839488
25	0x3f7fde35	0.99948436
26	0x3f8b84af	1.0899867
27	0xbeac436f	-0.33645198
28	0xbe5e23a6	-0.21693286
29	0xbe8424ba	-0.2580927
30	0x3f9927e7	1.1965302
31	0x3ebe5b2f	0.37178943
32	0xbec1afa0	-0.37829304
33	0x3e40339b	0.18769686
34	0x3f8a47aa	1.080312
35	0xbf54ad46	-0.83076894
36	0x3f172022	0.59033406
37	0x3f1ac2a0	0.60453224
38	0x3fbd12cc	1.4771361
39	0xbf959777	-1.1686848
40	0x3f5d7611	0.8650828
41	0xbdf77d43	-0.12084439
42	0xbf21b468	-0.63165903
43	0x3ec3bf23	0.38231763
44	0x3f48580f	0.78259367
45	0x3f2d8c97	0.6779265
46	0x3f9c8ee2	1.2231104
47	0x3e1a00b6	0.15039334
48	0x3e18b815	0.14913972
49	0x3f69c8f1	0.9132224

fc_out.weight f4 [10, 50]
0	0xbea9094b	-0.33014902
1	0x3e609f97	0.21935879
2	0x3d2a9020	0.041641355
3	0x3ebf21df	0.3733053
4	0x3e8addd5	0.2712237
5	0xbde2a801	-0.110672005
6	0xbe7f69ba	-0.24942675
7	0xbd6d3bcd	-0.05791836
8	0xbec49bc7	-0.384001
9	0xbf84474c	-1.0334258
10	0xbe8ab3bb	-0.27090248
11	0x3dea1f2b	0.11431726
12	0xbf604fd8	-0.8762183
13	0x3e0f749a	0.14009324
14	0x3fc16fa5	1.5112196
15	0xbefc7234	-0.4930588
16	0xbd47a372	-0.048739858
17	0x3dbbbc42	0.09166767
18	0xbf346388	-0.7046437
19	0xbe742777	-0.2384318
20	0xbf11e7dd	-0.5699442
21	0x3f2e403d	0.6806677
22	0x3f75cb84	0.96013665
23	0x3fad4786	1.3537452
24	0xbdebd506	-0.1151524
25	0x3e9f1f8c	0.31078756
26	0xc007660b	-2.1156032
27	0xbf231e61	-0.6371823
28	0xbecbc3af	-0.39797732
29	0xbe75fdb1	-0.24022557
30	0x3f561b12	0.83635056
31	0xbc8a6f46	-0.016898762
32	0xbf1134eb	-0.5672137
33	0xbec10ad6	-0.3770358
34	0x3ee0b0c5	0.43884864
35	0xc0392e24	-2.8934412
36	0xbe8d00c0	-0.27539635
37	0xbe1f8dc0	-0.15581417
38	0xc037515e	-2.8643413
39	0xbfb3e925	-1.4055525
40	0x3f2a59ef	0.6654348
41	0x3d859781	0.06523038
42	0xbd8f0cdb	-0.06984874
43	0xbedfb9dd	-0.4369649
44	0x3f7618fc	0.96131873
45	0x3f38781d	0.7205828
46	0x3ede8fa3	0.4346896
47	0xbf9e57da	-1.237056
48	0x3e899423	0.26870832
49	0x3eb36925	0.35041156
50	0x3ecd5455	0.40103403
51	0x3f2d12d3	0.6760685
52	0xbcd6985d	-0.0261957
53	0xbf70d8d0	-0.9408083
54	0x3c38f6c0	0.011289299
55	0xbecd1ea7	-0.40062448
56	0xbe02fae2	-0.12791017
57	0xbd73ba98	-0.05950412
58	0xbc4abb20	-0.012373716
59	0xbe469007	-0.1939088
60	0xbef3588e	-0.475285
61	0x3e3b1873	0.18271045
62	0x3f0004e5	0.5000747
63	0x3e5efa95	0.21775277
64	0x3f774863	0.9659483
65	0xbf166e25	-0.5876182
66	0xbeee2138	-0.4650972
67	0x3e95f53f	0.2928867
68	0xbf6f0b52	-0.9337665
69	0xbee45a44	-0.44600117
70	0xbf028d4f	-0.5099687
71	0xbed34746	-0.41265315
72	0x3ef0a51e	0.47000974
73	0x3f5edeed	0.8705891
74	0xbe45e136	-0.19324192
75	0xbe43dca9	-0.19127144
76	0xbf7650dc	-0.9621713
77	0xbcc8cd34	-0.024511911
78	0xbf3f90d0	-0.7483034
79	0xbe6a2615	-0.2286609
80	0x3f03d08a	0.5149008
81	0x3f036347	0.5132336
82	0x3ead361f	0.33830354
83	0xbe92a7c2	-0.28643614
84	0x3eebe9a9	0.46076706
85	0xbfc0513d	-1.5024792
86	0x3e5a012c	0.2128951
87	0xbe8d681c	-0.27618492
88	0xbfabd325	-1.3423811
89	0xbf823d86	-1.0175025
90	0x3f0abdfb	0.5419614
91	0xbe6b5cf7	-0.22984682
92	0xbfa50911	-1.2893392
93	0xbf722e5d	-0.94601995
94	0x3f67e66e	0.9058598
95	0x3f10209d	0.56299764
96	0x3da0e615	0.07856385
97	0xbf80bef3	-1.0058273
98	0xbe9c80c7	-0.30567
99	0xbe415acc	-0.18882293
100	0x3edffeb9	0.43749025
101	0x3f089047	0.5334515
102	0x3ef936c4	0.48674595
103	0xbf78b635	-0.97153026
104	0xbf3fc17f	-0.74904627
105	0xbf10a554	-0.5650227
106	0xbfe9a0c1	-1.8252183
107	0xbec1fa46	-0.37886256
108	0x3dc4e179	0.09613318
109	0xbf2a67ce	-0.66564643
110	0xbf557636	-0.833835
111	0x3ec6403b	0.3872088
112	0xbfda0907	-1.7034005
113	0x3ea84a77	0.32869312
114	0x3f9e6f0a	1.2377636
115	0xbfd0f71d	-1.6325413
116	0xbeb296ae	-0.34880584
117	0x3ec26595	0.37968126
118	0xbf63cc17	-0.8898329
119	0xbee42489	-0.44559124
120	0xbf30ac49	-0.69012886
121	0x3e3cb9c3	0.18430237
122	0x3f9be78d	1.2180039
123	0x3fc457e7	1.5339326
124	0x3c171afe	0.009222744
125	0x3bc6c669	0.006066133
126	0xbf980f7a	-1.1879723
127	0xbf10853f	-0.5645332
128	0xbf56b0c5	-0.8386348
129	0xbeefc9ec	-0.46833742
130	0x3f949bd8	1.161006
131	0x3e871c62	0.26388842
132	0x3ee38686	0.4443857
133	0xbcd96333	-0.02653656
134	0x3dbd05ea	0.09229644
135	0xc0280622	-2.6253743
136	0x3d5b0365	0.053470034
137	0xbf6efd89	-0.93355614
138	0xbf8be6ab	-1.0929769
139	0xbfae21f4	-1.3604112
140	0x3e5d40f9	0.21606816
141	0x3e25f0b1	0.16205098
142	0xc018ec22	-2.3894124
143	0xbf1726fd	-0.59043866
144	0x3f995fbd	1.1982342
145	0x3f062b09	0.52409416
146	0x3ea3fcc8	0.32028794
147	0x3f0a2853	0.5396778
148	0xbf1e0cd8	-0.6173835
149	0xbec7320d	-0.38905373
150	0x3f04083e	0.51575077
151	0x3f0cd520	0.550127
152	0x3ef480ac	0.4775442
153	0xbf5d87de	-0.8653544
154	0x3e874589	0.2642024
155	0xbf07de55	-0.53073627
156	0x3e65e5d3	0.22450952
157	0xbeb7b7bf	-0.35882375
158	0xbebe4094	-0.37158644
159	0xbd51ca65	-0.05121841
160	0xbf05f314	-0.5232403
161	0x3e2c7271	0.16840531
162	0xbee6aa9d	-0.45052043
163	0x3d7a97a6	0.06117978
164	0x3f088d80	0.5334091
165	0xbf256681	-0.64609534
166	0x3d864453	0.065560006
167	0x3c00903b	0.007846887
168	0xbec54f7e	-0.3853721
169	0xbef3d21a	-0.47621232
170	0xbebccccf	-0.36875007
171	0xbe98b9ea	-0.2982934
172	0x3e969ee6	0.29418105
173	0x3f06ef98	0.5270934
174	0x3f124090	0.57129765
175	0x3ef0caa6	0.47029608
176	0xbdb35253	-0.087559365
177	0xbf8968bc	-1.0735087
178	0xbf4f96a5	-0.8108924
179	0xbe6f0f96	-0.2334579
180	0x3ebd8cf7	0.3702161
181	0x3f468aa4	0.775553
182	0xbe9f1ecd	-0.31078187
183	0xbeeb17cb	-0.4591659
184	0x3d9b3e0c	0.07580194
185	0xbf0530f8	-0.52027845
186	0x3e6935a2	0.22774366
187	0xbf4cd35e	-0.8001002
188	0xbef16d27	-0.4715359
189	0xbecd5979	-0.40107325
190	0x3e227c99	0.15867843
191	0xbe76924f	-0.2407925
192	0xbf9462cb	-1.1592649
193	0xbf4aa27a	-0.7915417
194	0x3ec50a0f	0.38484237
195	0x3e22d0c4	0.1589995
196	0x3e959643	0.29216203
197	0x3eb5f535	0.3553864
198	0xbedca552	-0.4309488
199	0x3bea182f	0.007143996
200	0xbba87672	-0.005141073
201	0xbe99f135	-0.3006684
202	0x3e7cabaa	0.2467486
203	0xbf09933a	-0.53740275
204	0x3e87a2f0	0.264915
205	0xbed221ba	-0.41041356
206	0xbdd63223	-0.104587816
207	0xbe1fd044	-0.15606791
208	0xbeabb58a	-0.3353694
209	0xbeb05999	-0.34443358
210	0x3d399287	0.045305755
211	0x3e145555	0.14485677
212	0xbfb91a80	-1.4461212
213	0x3ea44fc7	0.32092115
214	0x3f00636c	0.50151706
215	0xbf6a47ed	-0.91516
216	0x3e3ffdcb	0.18749158
217	0xbe23ddf1	-0.16002633
218	0xbe775bfa	-0.2415618
219	0xbdab4db2	-0.083644286
220	0xbe9ffcae	-0.31247467
221	0xbe05a303	-0.13050465
222	0x3f32a0f3	0.6977684
223	0x3ec2b23e	0.38026613
224	0x3e655574	0.22395879
225	0x3e8dd20a	0.2769931
226	0xbd0883fc	-0.033328995
227	0xbf8670cc	-1.0503173
228	0xbf3d4564	-0.73934007
229	0xbdb2c305	-0.08728603
230	0x3ea37c74	0.31930888
231	0x3dae9e4c	0.085262865
232	0xbf067535	-0.52522594
233	0xbe38592b	-0.18002765
234	0x3ec576f1	0.38567308
235	0xbe2edb01	-0.17075731
236	0x3f27e610	0.6558542
237	0xbf9e162c	-1.2350516
238	0x3d834b47	0.064108424
239	0xbe678fec	-0.22613496
240	0xbd733d89	-0.059384856
241	0x3f02ae69	0.5104738
242	0xbf9d2608	-1.2277231
243	0xbc2a10ec	-0.010380011
244	0x3ed78aa6	0.42097968
245	0x3ddefd57	0.108881645
246	0x3e01c3dd	0.12672372
247	0x3f4b7ef1	0.7949057
248	0xbf2d6b6f	-0.67742056
249	0x3c1b1c67	0.009467221
250	0xbf05ea85	-0.52310973
251	0x3eb6bfe4	0.35693276
252	0x3f1e7a7f	0.61905664
253	0xbf58dc07	-0.84710735
254	0xbd7c598d	-0.06160884
255	0xbec7cade	-0.39021963

fc_out.bias f4 [10]
0	0x3ef5cb1b	0.4800652
1	0x3e595c8e	0.21226713
2	0x3c38d77c	0.011281844
3	0x3eafc96a	0.34333354
4	0xbdc55398	-0.09635085
5	0xbe0acea6	-0.13555393
6	0xbd3ed0fd	-0.046586026
7	0xbe3dbfdc	-0.1853022
8	0x3dce3146	0.10067992
9	0xbebc0b76	-0.36727494
