models/demo_A0FUKUOKA_18_06_49_314.pt (torch_old, 3768 bytes, 4 tensors)

fc1.weight f4 [50, 4]
000000 cc 3e 02 c0 30 f0 65 bf 65 8d c2 bf f8 5b 85 3e
       -2.0350828 -0.8981962 -1.51994 0.2604673
000010 e2 e8 fe 3e ec 86 22 be 40 48 82 bf dd 69 25 3f
       0.4978705 -0.15871781 -1.0178299 0.6461466
000020 5c 54 0a be 30 d5 8c 3e 07 91 53 bf 63 fe 6f 3f
       -0.13508743 0.275064 -0.8264317 0.9374754
000030 06 00 39 c0 ae 35 08 c0 c9 d8 f1 bd 73 d4 41 be
       -2.8906264 -2.1282763 -0.118089266 -0.18928699
000040 1b 54 30 bf a1 3b 3c bf 5b 5c 74 bf 1c f7 ca 3f
       -0.68878335 -0.73528486 -0.95453423 1.5856662
000050 3d d0 4c 3f ab 70 7b bf b7 23 f4 be 14 46 9f bf
       0.80005246 -0.9821879 -0.47683498 -1.2443261
000060 0c 2c 44 bf ca 15 4c be ad 1d af bf 19 f4 7f 3e
       -0.7662971 -0.19930187 -1.3680931 0.2499546
000070 94 d7 24 c0 d3 20 69 bf 98 81 f4 be b1 25 78 3e
       -2.5756578 -0.9106571 -0.47755122 0.24233128
000080 2f cf f8 be 58 03 f8 3d 47 a7 cd bf f5 68 fe bf
       -0.4859557 0.12110013 -1.6066674 -1.987578
000090 7b d6 a4 3f 56 f4 33 3f ce df cd 3e 53 e0 f9 3f
       1.2877954 0.702947 0.40209812 1.9521583
0000a0 b1 c8 dc be 62 77 02 40 00 3a be 3f b4 76 35 bc
       -0.43121865 2.0385365 1.486145 -0.011075664
0000b0 9d cb 24 3f 8b 4b 46 be dd 3e 83 3e 91 73 18 bf
       0.6437319 -0.19364755 0.25633898 -0.5955134
0000c0 89 eb b9 bf a4 66 47 c0 5a df fa bb bb 47 01 bf
       -1.4525005 -3.1156397 -0.00765602 -0.50500077
0000d0 27 39 0f 3f 9a 71 c7 be 04 23 6b 3f 1d ae d4 bf
       0.5594658 -0.3895386 0.91850305 -1.6615635
0000e0 ee 8f 12 bf 76 d4 8d bf dc 8e fe 3c 13 5c a4 bd
       -0.5725087 -1.1080463 0.03107398 -0.08025374
0000f0 e8 c2 e4 3e 5f c2 b3 be d5 ab 53 3f 09 90 9f bf
       0.44679952 -0.3510923 0.8268407 -1.2465831
000100 b6 53 06 c0 2c ba f3 bf 49 f2 dd be da a4 02 bf
       -2.0988593 -1.904119 -0.4334891 -0.51032794
000110 9d 03 99 be a8 d0 77 3f 3c c4 6d be 37 2a 34 be
       -0.2988557 0.9680276 -0.23219389 -0.17594229
000120 28 94 07 40 54 19 70 3f 26 8b b6 3e d9 a8 67 bd
       2.1184177 0.9378865 0.35653037 -0.05655751
000130 2b 90 db bf 30 27 9e bf 00 f7 aa be 21 54 3c bd
       -1.7153372 -1.2355709 -0.3339157 -0.04597867
000140 ef 1a 81 bf 1e 9c b6 3f da 60 8a 3f 57 3f af be
       -1.0086344 1.4266393 1.0810807 -0.34228012
000150 7d a5 0f 40 5c 98 d4 3f 82 f9 6b bf 1a 42 4b 3f
       2.2444756 1.6608996 -0.92177594 0.7939774
000160 de c4 2a bf c2 7b ae 3e a9 d8 40 3f 08 47 a4 3f
       -0.66706645 0.34078795 0.753306 1.2834177
000170 14 77 5f 3f 0b 1c 00 40 ca 34 51 3f a1 1c 81 3f
       0.87291074 2.0017116 0.81721175 1.0086862
000180 e1 24 fd 3e e1 1b d0 3d cf c9 9a bf fc 0b 79 bf
       0.494422 0.101615675 -1.2092837 -0.9728391
000190 ea 55 08 3f 7e 6d d9 be ba b1 09 bf 00 2b be 3e
       0.53256094 -0.42466348 -0.53786814 0.3714218
0001a0 8e 47 04 40 22 df 99 3f 47 c6 53 be c2 0a f7 3e
       2.0668674 1.202122 -0.20681106 0.48250395
0001b0 83 01 b3 3f 78 5a ba 3f 34 65 0f 3f 10 41 36 bf
       1.3984836 1.4558859 0.560138 -0.7119303
0001c0 ba 11 81 be d5 28 a5 3f b6 dc 96 be e6 f8 b0 3f
       -0.25208837 1.2903086 -0.29465264 1.3825958
0001d0 29 0f 58 bb c7 04 65 bf 7a 4e b7 bf ad 7f 46 3e
       -0.003296802 -0.89460415 -1.4320824 0.19384642
0001e0 75 46 16 3f 0f ea 9e bf 05 12 eb be e0 c1 8b 3e
       0.5870126 -1.2415179 -0.45912185 0.27296352
0001f0 92 1d 25 3f 3b 4b 69 bf 41 b2 58 3d 7c d2 97 bf
       0.64498246 -0.9113042 0.05290437 -1.186111
000200 5e 23 e2 3e 3d c2 fd bf 1f 89 9f be c1 17 33 bf
       0.44167608 -1.9824902 -0.31159303 -0.6995812
000210 0b 71 72 bf c2 78 4b 40 61 1b 1e 3d 02 7e 29 be
       -0.9470374 3.1792455 0.03860033 -0.16551974
000220 7d 07 28 3e 91 48 65 3f 90 32 81 bd 66 03 0a bf
       0.16409107 0.8956385 -0.06308472 -0.53911436
000230 bc 0c d8 bd 5d 08 be bd 11 8b 4d bf dd 0a 8f 3f
       -0.10549304 -0.09278939 -0.80290323 1.117519
000240 53 79 29 bf fe cf bd be 5a 21 9a bf b5 d0 d4 bf
       -0.6620075 -0.37072748 -1.2041428 -1.6626192
000250 35 c4 0b bf b0 0d f9 be b1 c6 56 3e ea 61 10 40
       -0.54596263 -0.48643255 0.20974232 2.2559762
000260 a4 e6 33 3f b0 d1 10 3f 04 7c 2b 3f ce 6a db 3f
       0.70273805 0.5656996 0.6698611 1.7141969
000270 2e 8f 81 3f 8d ea 4d be 5d 37 70 bf 2f b2 19 bf
       1.012182 -0.20109005 -0.9383448 -0.6003751
000280 f9 94 28 bf 94 dc 96 bf 8c 63 14 3d bb 19 29 3f
       -0.65852314 -1.1786065 0.036227748 0.66054887
000290 8d 15 8a be 29 34 b7 bd c0 a2 68 be cb cf 22 c0
       -0.26969567 -0.08945496 -0.22718334 -2.5439327
0002a0 4c 12 91 be f0 46 d5 bf 3b 5d 68 be d3 52 43 bf
       -0.28334272 -1.6662273 -0.22691815 -0.76298255
0002b0 de 01 20 bf 4b 3b 8e be 31 b5 89 3f 4f 96 b8 3f
       -0.6250285 -0.27779612 1.075842 1.442087
0002c0 13 d3 9f 3d a4 34 85 bf 20 31 04 bf 42 36 16 3e
       0.07803931 -1.040669 -0.5163746 0.14669135
0002d0 b4 9e 15 3f 54 2b 05 bf 02 18 2e bf 31 54 01 3c
       0.58445287 -0.5201924 -0.68005383 0.007893608
0002e0 d7 09 fc be d9 05 24 3e 61 48 7b bf cb da d2 3e
       -0.49226257 0.16017856 -0.98157316 0.4118255
0002f0 49 3f 32 c0 2e 13 07 c0 9d 2d 9f 3e 8e 33 03 bf
       -2.7851126 -2.1105456 0.31089488 -0.5125054
000300 d0 5b 33 3e 3f 99 9f 3f 01 ca 87 3f 80 37 13 bf
       0.17515492 1.2468642 1.0608522 -0.5750656
000310 e5 98 a7 3d 48 fe 38 3e 70 6d 6d bf e3 95 58 bf
       0.08183459 0.1806575 -0.92745113 -0.8460371

fc1.bias f4 [50]
000000 fc ad 68 3d 95 a1 88 3f 3b 73 82 3f da e1 9f bf
       0.05680655 1.0674311 1.0191416 -1.24908
000010 72 62 c0 bd 8c 0a 33 3f 85 90 10 bf 3a 76 96 be
       -0.09393777 0.6993797 -0.5647052 -0.29387075
000020 e1 a3 a5 bc a1 44 7b bf 7b 66 86 3f e4 fa d6 3f
       -0.020219745 -0.98151594 1.0500025 1.6795316
000030 e1 a7 2f bf f7 d8 9b 3f 9f 0e 94 3f 75 a6 c6 3f
       -0.6861554 1.2175587 1.1566962 1.5519549
000040 57 1c ed be aa ab b2 3f ab 3e 47 bf 68 23 4b bf
       -0.46310684 1.3958638 -0.7783 -0.793509
000050 37 79 16 3f b8 e6 3c 3d 32 6d ae 3e 44 54 54 bf
       0.5877871 0.046118468 0.34067684 -0.8294108
000060 21 e1 e6 3d 70 90 be 3f 7e 7c 36 3f 8b 9e 46 3e
       0.11273409 1.4887829 0.7128371 0.19396417
000070 b2 3a 06 3f 79 45 2c bf f2 68 45 3f 79 cf 41 3f
       0.5243331 -0.67293507 0.7711326 0.75707203
000080 fa c8 5a be ed c2 5f 3e 54 5c 98 3f a2 59 71 3f
       -0.21365729 0.21851702 1.1903176 0.94277394
000090 32 6b 36 3e 28 17 b6 3d 78 c0 10 bf 39 00 18 3f
       0.1781433 0.088911355 -0.56543684 0.5937534
0000a0 cf f5 99 3f fd b1 0f 3f a9 dd 02 bf b4 aa 32 3f
       1.202814 0.56130964 -0.51119477 0.6979172
0000b0 f2 f6 84 3f 7e 77 b4 3f 76 63 c1 3f ee 35 8f bf
       1.0387862 1.4098966 1.5108478 -1.1188333
0000c0 19 99 c2 3f 2b 2c 89 3f
       1.5202972 1.0716604

fc_out.weight f4 [10, 50]
000000 af 34 1d bf ef 85 36 3e 53 0b 0d 3f 3e 53 c4 bf
       -0.61408514 0.17824529 0.55095404 -1.5337903
000010 fc 41 38 bd c3 87 e2 3e 13 4c b6 bf 61 e9 92 3e
       -0.044984803 0.44244203 -1.4241966 0.2869368
000020 9c 44 9c be a7 4b 34 bf 01 8e 57 3f 9a eb 18 3f
       -0.30521095 -0.70427936 0.84201056 0.597345
000030 45 55 c8 bf dd fe ca 3e 31 a9 df 3e 02 4e e8 3e
       -1.5651022 0.3964757 0.4368377 0.45372015
000040 81 df 5c be 13 c8 d8 3e 1d 91 78 bf 2d 40 49 bf
       -0.21569635 0.42340145 -0.97096425 -0.7861355
000050 ee c4 ea bf 33 8d 08 bf 00 5e a1 3d 92 14 46 be
       -1.8341348 -0.5334045 0.07879257 -0.19343784
000060 1d a7 eb 3d 63 72 05 3f db 1d 9b bf 63 a2 f4 be
       0.11506484 0.52127665 -1.2118486 -0.4778014
000070 8a 74 62 3e 76 ec 04 c0 af 73 1b 3e a0 c2 83 3e
       0.22114769 -2.0769324 0.15180849 0.25734425
000080 8f c5 42 3f 53 9e b6 3f ce 6c 7c 3e 3b cf 44 3e
       0.760827 1.4267067 0.2465088 0.19219677
000090 ec bb e3 be fd 6b 34 3e 57 16 75 bf b0 5e 92 3e
       -0.4447931 0.1761932 -0.9573721 0.28587866
0000a0 af db a4 3e fd 37 da 3b 25 ee 1e 3f ed ee fa 3d
       0.32198855 0.0066595064 0.6208213 0.12252603
0000b0 19 8a e8 3e f1 d6 ed 3e b3 aa 2b 3f 2f 43 dd bf
       0.4541786 0.4645305 0.6705734 -1.7286128
0000c0 be d0 3e 3f 3e cf 03 3f 9d 0a b0 be 97 b9 2f 3f
       0.74537265 0.514881 -0.34383097 0.6864256
0000d0 06 63 f2 3e 1c 95 ab bf 83 12 13 bf 2c 14 ae 3e
       0.47341174 -1.340488 -0.5745012 0.33999765
0000e0 29 ef 9b bf ca 6c 9a 3e bc 38 d8 be 42 24 2f 3d
       -1.2182361 0.30161124 -0.42230785 0.042759188
0000f0 92 f7 31 3f 4b 51 19 3f 09 f3 aa bf a1 96 fc 3e
       0.6951839 0.5988967 -1.3355418 0.4933367
000100 74 e2 cd bb a7 a7 0e 3f 34 b1 46 bf 91 06 b6 3e
       -0.006283099 0.5572457 -0.7761414 0.35551885
000110 f2 47 31 bf 91 2a 77 bf 01 9a ed be 42 56 84 bf
       -0.69250405 -0.96549326 -0.46406558 -1.0338824
000120 21 76 63 3e b6 83 8c bf 86 fb 44 be 9b b8 ee 3e
       0.22213031 -1.0977695 -0.19236574 0.46625218
000130 a1 ed 3b bf 72 3b 47 bf 76 9c 17 3e f7 b3 99 bf
       -0.7340947 -0.7782508 0.14805779 -1.2008046
000140 fe 76 ad 3d fe 6e 73 3f e8 02 23 3f 43 50 7a 3f
       0.084699616 0.95091236 0.6367631 0.9777872
000150 ee 56 34 3f 13 9f de 3e 79 98 50 be 23 72 3a 3e
       0.70445144 0.4348074 -0.20370664 0.18207602
000160 eb 57 e8 be b4 9c 4c 3e c4 6e a0 3e da 87 d6 be
       -0.45379576 0.19981652 0.31334507 -0.41900522
000170 3b c6 9a be 41 a6 99 3e fd 6a 12 3f a4 6f 4b 3f
       -0.30229363 0.30009654 0.571945 0.79467225
000180 d4 cf 8f 3e 4c 3d c1 bf 0d 2d 31 3f b6 e2 1f 3e
       0.28088248 -1.5096831 0.6920937 0.15613827
000190 06 b1 6b be 62 33 6b 3e f0 47 2b 3f 2e 08 c9 bf
       -0.23016748 0.2296882 0.6690664 -1.5705621
0001a0 c8 0d 3a bf 03 e2 9c 3e f0 02 b1 be f1 f9 18 be
       -0.7267728 0.30641183 -0.34572554 -0.14939095
0001b0 92 c1 f7 be ac 1d 08 bf c9 92 6d 3f 70 c0 53 3f
       -0.4838987 -0.53170276 0.928021 0.8271551
0001c0 c6 82 01 c0 ef 43 36 3f 04 aa ce 3e 6b 2d 0f 3f
       -2.0236068 0.7119741 0.40364087 0.5592868
0001d0 a9 92 ee be 5b 54 d3 3e a3 41 ad bf ed f4 23 bf
       -0.46596268 0.41275296 -1.3535656 -0.640456
0001e0 e3 c4 1c bf ab ca 38 bf 55 ba 05 3f 79 e8 1f bf
       -0.61237925 -0.72184247 0.52237445 -0.624641
0001f0 c7 1a 09 bd 1a 9e 17 3f 37 93 5c bf 82 4c 49 bf
       -0.033472802 0.5922562 -0.8616213 -0.78632367
000200 03 41 b9 bf 92 be 18 be f5 d6 b6 3e c8 ca 36 3f
       -1.4472965 -0.14916447 0.35710874 0.7140317
000210 8c fd f2 3e ad c5 1f 3f 06 8c a7 3e 03 73 e2 3e
       0.47459066 0.62411004 0.32724017 0.44228372
000220 88 cd e3 be 7d 60 3f 3d 2b d8 a5 be 3a 71 e6 3e
       -0.44492745 0.046722878 -0.32391486 0.4500826
000230 b9 84 b2 3e b5 2b 51 be 1c d4 91 bf 36 43 a0 3e
       0.34866884 -0.20426829 -1.1392856 0.31301278
000240 09 eb 1e 3f 06 de 0d 3f f3 c6 15 3f 82 4c a3 bf
       0.62077385 0.55416906 0.585067 -1.2757723
000250 e8 20 fe 3e 6e 42 89 bd 9e 3b 1b bf 77 db 22 3f
       0.4963448 -0.067021236 -0.60637844 0.63616127
000260 0c fa 1f 3f ab 31 a2 bf ba 0d 81 be a9 03 36 3e
       0.62490916 -1.2671407 -0.25205785 0.17774834
000270 26 36 48 bf a7 ff 37 bf c4 80 87 be b9 09 9a bd
       -0.78207624 -0.7187447 -0.26465428 -0.07521386
000280 f9 86 f0 3e 42 89 0f 3f e6 f9 96 bf 55 55 27 3f
       0.46977976 0.56068814 -1.1795013 0.6536458
000290 dc 1f ae 3e 68 84 06 3f 71 c0 c7 be 6a 20 29 bb
       0.34008682 0.52545786 -0.3901401 -0.0025806674
0002a0 a6 e3 73 bf 9a 2c 45 bf ba 68 2a bd 1f e0 52 bf
       -0.9526924 -0.7702118 -0.04160378 -0.8237323
0002b0 63 57 dd 3e 7d 56 58 bf 09 2a 8a 3e b4 9c 3f 3f
       0.43230733 -0.8450697 0.26985195 0.74848485
0002c0 c5 8f 49 be aa d1 23 bf 74 b2 85 bd 82 3e 58 be
       -0.1968375 -0.63991797 -0.06528178 -0.21117595
0002d0 51 75 00 3d 32 23 a6 3f 45 60 37 3e 1f d6 67 3f
       0.03136188 1.2979491 0.17907818 0.905611
0002e0 0e 40 9a 3e e8 01 7e 3e 2c 4f ff be 27 4b 3e 3d
       0.30126995 0.24805415 -0.4986509 0.04645839
0002f0 a3 91 58 bd 19 30 1b 3f e2 f4 9c 3d fc 76 21 bf
       -0.052873265 0.60620266 0.07663895 -0.6307218
000300 d3 cd aa bd 7b f1 11 3f 03 77 3c 3e 94 c5 a8 3e
       -0.08340039 0.57009095 0.18404774 0.3296324
000310 51 7c 9d 3e 44 a2 52 bf fe ec 44 3f df 02 1c be
       0.30758908 -0.8227885 0.7692412 -0.1523547
000320 89 e0 bf bf 5f 08 41 3e 25 3c c0 3e 97 f7 5f bf
       -1.4990398 0.1885085 0.37545887 -0.8748717
000330 85 5c cb be 02 60 b8 3e 0a f3 80 bf af 36 de be
       -0.39719024 0.36010748 -1.007417 -0.43401095
000340 0a 69 3a bf fc 7a ec be 70 54 47 3f 2b 11 15 3f
       -0.72816527 -0.4618758 0.77863216 0.5822932
000350 bd d4 b7 bf d1 36 43 3f fe d9 5c 3e c9 a3 a0 3e
       -1.4361798 0.7625552 0.21567532 0.31374958
000360 63 2f 2b bf e3 4d 22 3e 2d 29 75 bf 62 f4 0e bf
       -0.6686918 0.15850024 -0.95765954 -0.5584165
000370 f5 b3 1f 3e 73 fe 1d bf cd 41 35 3f f7 99 79 bf
       0.15595992 -0.61716384 0.7080353 -0.97500557
000380 2d 58 73 be 2a db 4a 3f 2f 3d e3 3d 99 fa 30 bf
       -0.23764105 0.7924067 0.11095654 -0.6913238
000390 15 2b 33 bb bd a0 53 3e f4 38 d8 3e 22 fc 38 3f
       -0.0027338911 0.20666786 0.42230952 0.72259724
0003a0 ee 22 8b 3e 67 3d a3 3e 80 a5 40 3f 21 6a e3 3e
       0.27175087 0.31882784 0.7525253 0.44416907
0003b0 cf 69 87 be f4 f3 08 3d 3c 6e 11 3e 2d 99 fa 3e
       -0.26447913 0.033435777 0.14202207 0.4894499
0003c0 1b d9 73 3e 47 1a 3c bf 82 7d 58 bf 74 c7 1d 3f
       0.23813288 -0.73477596 -0.8456651 0.61632466
0003d0 dc 16 14 3f 6b 9f 05 3f 44 b4 63 3e ec 2f 6a bf
       0.5784738 0.5219638 0.22236735 -0.9147937
0003e0 cc 09 40 3e 4c ef 8d 3d 27 4f 9f bf 3b c5 0c 3f
       0.18753737 0.06930408 -1.244603 0.5498845
0003f0 e3 74 d1 3e dd 18 4a bf 18 cc a8 be 5b ad de 3e
       0.4090949 -0.7894419 -0.3296821 0.43491635

fc_out.bias f4 [10]
000000 78 01 2c 3f 82 68 c3 3e f1 d8 c9 3e 6a 56 fe 3e
       0.6718974 0.3816567 0.39423326 0.49675304
000010 2e 79 9c 3e 7e a4 cb 3e 1d e3 ed 3e c1 13 ac 3e
       0.30561203 0.39773935 0.46462336 0.3360882
000020 95 bf 18 3f 11 7a da 3e
       0.5966733 0.42671254
