models/demo_A0TOKYO_15_05_00_314.pt (torch_old, 3768 bytes, 4 tensors)

fc1.weight f4 [50, 4]
00000000: 920b 0dc0 3518 c13f b75c dbbf 039c 373e
00000010: 32c7 883e 216b ecbd c8c2 a2bf 6c44 be3e
00000020: 0996 bebe c835 493f ef90 cbbf 21f3 503f
00000030: 1e86 d5bf 9419 033f f4b3 53bf 8af4 bebf
00000040: ec6b 8abd 6b60 5dbf 7647 f73b 72e4 a53f
00000050: 5968 b23f 45a9 b1bf 5711 15be c781 8fbf
00000060: 9f80 24bf 45ae 9d3e 4ba4 a4bf f05f 2fbf
00000070: 4c1b 0dc0 99fd e93f 94c7 5ebf 78b4 d6be
00000080: 36f2 a9bf 8558 b13f 206b b0bf d64f 05c0
00000090: 117d ac3f dfc5 94bf f14e 1c3e 88d7 b63f
000000a0: f393 47bf 2297 0a40 06ee 1c3e 516c fbbf
000000b0: f10b 053f cd61 5dbf 73b8 323f b753 52bf
000000c0: 9b94 74be 4335 85bf 2c9e 853d 91df c5bf
000000d0: 4232 8f3f 0748 67bd 716f 7b3f f5cb 8dbf
000000e0: 96c0 8ebf 6c9e 74bf f0f3 113e bc92 34bd
000000f0: 2d43 863f 10aa a8be 02d7 aa3f 82eb 8bbf
00000100: bab6 c7bf 8d0b 463f 48da 79bf 9ecc f7bf
00000110: a4c9 2cc0 0690 2240 1e09 7ebf dd35 dabf
00000120: 7802 4940 2818 1fc0 598e 093f 313b 5a3f
00000130: ccda 83bf 345a 473f bdfb b1bf 48e7 a3bf
00000140: a221 abbf 1388 8f3f 5edf 90be c87e ebbf
00000150: 307d e53f d812 c7bd a475 efbe fddd ed3f
00000160: 2f7c a3bf 2889 f53e 45dc a73d 499b cc3f
00000170: 3e70 613f bdc0 523f 6ccc 043f a623 0340
00000180: 6ae8 a63e 91a8 bf3c 3491 d0bf e63a c8bf
00000190: 69e9 5d3e 6e6d aebe 7e47 4abf 6604 723e
000001a0: 8d09 833f 83e5 673e 19aa ed3e d109 a73f
000001b0: bad3 ba3f 3274 98bf bb1c d13f 429e 1abf
000001c0: 2e9b 8abf 5cc3 9e3f 848d e9bf 2055 9d3e
000001d0: fa34 4abf b4b1 8d3e cc69 d1bf ea78 503d
000001e0: 9c71 3d3f 68c4 31bf c7bf 84be c691 e0be
000001f0: ceb5 5c3f cafa 58bf 890c 263e 5ec4 87bf
00000200: 502f 563f 1b36 edbf 756e 87be 3337 91bf
00000210: 2d0e cebf c5c7 0940 a37a 2a3e a118 f8bf
00000220: 082f 97bf 3576 3440 5f3d 82bf abf7 dbbf
00000230: 33b1 1ebf 1d5e ee3e 939a 80bf a4a4 0540
00000240: e268 39bf c0fd 4b3e 98a7 b9bf df08 09c0
00000250: 5c7c b5be a764 ecbf f6e8 453f e2f8 3940
00000260: aa34 203f aaf4 31bf 4fd3 073f 651b b23f
00000270: 6c30 ff3c 0d42 5b3f 1d30 8cbf 2808 54bf
00000280: 31bd b0bf af72 36bf 947e 283d 1621 293f
00000290: d5df 073c a973 053f 84e0 afbe fa87 48c0
000002a0: 3bab 1c40 d362 4ec0 472a 193f a606 90bf
000002b0: 46cc c9bf bcb9 5b3d 2a49 293f 5e70 0740
000002c0: 901b 8f3e 93e5 c3bf 0cb0 28bf da72 57be
000002d0: f666 903f d6ca adbf 105e 33bf 45b8 aebe
000002e0: 7c7e 99bf 9c3f e03e 3219 7cbf 307f 773e
000002f0: 6b18 efbf 7c16 5e3d 9dc3 c2bd 4f32 edbf
00000300: de53 1e3f bcf8 2e3f 300d 5f3d 4b0e 65c0
00000310: aef0 cabe 7642 353f 1868 a9bf 341f 8cbf
-2.2038312 1.5085512 -1.7137669 0.17930607 0.26714474 -0.11543871 -1.2715693 0.37161577
-0.37223843 0.7859769 -1.5903605 0.81620985 -1.6681554 0.51210904 -0.8269646 -1.4918377
-0.06758866 -0.8647525 0.0075463606 1.2960341 1.3938094 -1.3879782 -0.14557396 -1.121148
-0.6425876 0.3079702 -1.2862638 -0.68505764 -2.204791 1.8280517 -0.8702328 -0.41934562
-1.3277042 1.3855139 -1.3782692 -2.0829978 1.3475667 -1.1622885 0.15264489 1.4284525
-0.7796013 2.1654744 0.15325174 -1.964243 0.51971346 -0.8647736 0.698127 -0.8215899
-0.23884813 -1.0406879 0.065243095 -1.5458852 1.1187212 -0.056465175 0.9821692 -1.1077868
-1.1152523 -0.9555423 0.14253211 -0.04408525 1.048925 -0.32942247 1.3346865 -1.0931246
-1.5602639 0.77361375 -0.97598696 -1.9359319 -2.6998072 2.5400405 -0.9923266 -1.7047688
3.1407757 -2.4858494 0.5373283 0.8524657 -1.0301147 0.77872014 -1.390495 -1.2804956
-1.3369639 1.1213402 -0.28295416 -1.8398066 1.7928829 -0.09720391 -0.4676944 1.858337
-1.2772273 0.47956204 0.0819631 1.5984889 0.88061893 0.82325345 0.51874423 2.0490508
0.32599193 0.023395808 -1.6294312 -1.5642974 0.2167107 -0.34067863 -0.7901534 0.2363449
1.023729 0.22646146 0.46418837 1.3049871 1.4595864 -1.191046 1.6336893 -0.6039773
-1.0828607 1.2403369 -1.8246312 0.30729008 -0.78987086 0.2767464 -1.6360412 0.050896563
0.7400148 -0.6944032 -0.25927565 -0.43861216 0.8621491 -0.84757674 0.1621572 -1.0606802
0.83665943 -1.8532137 -0.2645146 -1.134497 -1.6098076 2.152818 0.16648345 -1.9382516
-1.1811228 2.8197148 -1.0174979 -1.7184957 -0.61989135 0.46556178 -1.0047172 2.0881739
-0.72425663 0.19921017 -1.450427 -2.1411664 -0.3544644 -1.8468217 0.77308595 2.9058156
0.6258036 -0.6951395 0.53056806 1.391461 0.031151019 0.8564766 -1.0952183 -0.82824945
-1.3807737 -0.71268743 0.04113634 0.6606611 0.008293112 0.5212961 -0.3435098 -3.1332994
2.447951 -3.2247818 0.59830135 -1.1252029 -1.5765464 0.053643927 0.66127264 2.1162333
0.27950716 -1.5304435 -0.65893626 -0.21039906 1.1281421 -1.3577526 -0.70065403 -0.34124961
-1.1991725 0.4379853 -0.98475945 0.24169612 -1.8679327 0.05422066 -0.095099665 -1.8530978
0.6184672 0.6834829 0.054455936 -3.5789974 -0.3963675 0.70804536 -1.3234892 -1.0947022

fc1.bias f4 [50]
00000000: 9bf2 4abf cd92 853f 4d5c 423f 9100 e4bf
00000010: 9f96 8c3f 8858 363f 7cd1 9dbf 7d2c 95be
00000020: 9478 09c0 5efa c53f e842 c4bf c8b1 9d3f
00000030: ad6a e73e 031c ae3f 2f7a ae3f 039c d73f
00000040: 3a6d e5bf 6579 6fbd 1933 3d3f e545 dabf
00000050: 723d dcbf c04d babc ff4f 023f 7b9e 96bf
00000060: d9db 78bf 16ea a93f ba8c b33f bb01 37be
00000070: 852a 74bf b0be 81bf 57d2 5b3f c053 4c3f
00000080: e22b 183f 744f c0bf 87d4 30bf 1841 593e
00000090: 410d 52be 5e03 12bf 41da c33f 2f6f 9abf
000000a0: 24b2 bc3f ad83 7d3f 3d41 3cbf cc34 753f
000000b0: 5371 a03f 8c79 9d3f 0266 ba3f 1f57 d0bf
000000c0: ee14 923f 97b5 233f
-0.79276437 1.0435425 0.7592209 -1.7812673 1.0983466 0.7122884 -1.2329555 -0.29135504
-2.1479845 1.5467031 -1.5332918 1.231988 0.45198575 1.3602298 1.3631037 1.6844486
-1.7923958 -0.05846538 0.73906094 -1.705258 -1.7206252 -0.022742152 0.50903314 -1.1767114
-0.9721046 1.3274562 1.4027321 -0.17871754 -0.9537738 -1.0136318 0.8586783 0.7981529
0.5944196 -1.5024247 -0.6907429 0.21216238 -0.20512868 -0.5703639 1.5300981 -1.206518
1.4741864 0.99029046 -0.73537046 0.95783687 1.2534584 1.2302718 1.456238 -1.6276587
1.1412637 0.6394896

fc_out.weight f4 [10, 50]
00000000: 50e3 24bf 5303 483f d2e5 033f 70d3 d9bf
00000010: f3d5 9bbf 4080 4b3f 440e a9bf ce5f a1be
00000020: d393 d1bf 4c53 f7bf e607 bfbf ffba 093f
00000030: ec47 80bf ea2a d73e 9531 8e3f 72b6 3b3f
00000040: 0f07 acbf 3598 a3be bdd4 b13f 4057 d1bf
00000050: dd41 8dbf 0e7d 103f 044b 863f 5a8c 563e
00000060: 860e 07bf 5117 3b3f d160 0cc0 9971 f1be
00000070: 8edb 47bf 5cca f8bf 8c8d 993e cc4b 7a3e
00000080: e86c 363f 3e29 bebf 926a aa3e 08aa 8a3f
00000090: faf6 40bf 9975 30bf 9579 0cc0 9872 bebf
000000a0: 745b b63f 2b04 dfbe 74f7 32c0 7f87 b33f
000000b0: ecd8 503f 6b58 4b3f a869 173f 6e7d f8bf
000000c0: de3e 93be ff77 6e3e 3d3c e4be df24 363f
000000d0: 7cd9 0b3e bc38 cdbf 2a65 8fbf b25d 523e
000000e0: 6832 64bf c814 9abc a161 ccbf a7cd 82bf
000000f0: 5adc c6bf 5610 1b3f c94a e4be 3ab3 0d3f
00000100: 7f67 4d3f c320 643f 2ff6 e5bf 0e79 17bd
00000110: fbd4 613f 3ffa d5bf 85ce b8bf 77f9 2bbe
00000120: bc27 383f 10a7 1b3e 611c 45bf ba1d d53e
00000130: d68a 9cbf d7b2 a2bf ec22 4fbf 511c 87bf
00000140: 8f6e 363d 56b5 db3e decc 3b3f 151b a0bf
00000150: d2c1 6f3e 0cf4 473f 2109 d0be ea66 1dbf
00000160: 5502 a1bf 07a1 bcbf f53c 8d3f 6bb0 27bf
00000170: 3c04 e7bf 686e 5f3f f42c 493f 2895 4f3f
00000180: 6394 983e 1964 f2bf aeed e2be b867 d3bc
00000190: e1d4 d7be 828a c33e 2352 453e 938f e5bf
000001a0: 7dca 91bf 9dcb c53e 7e6e a7bf 461b eebe
000001b0: 8d25 f7bf 6340 b1bf e96c b7bf 803f 5c3f
000001c0: 03fa 52bf 85f3 1f3f 295e 8c3f 9770 5c3f
000001d0: 4228 fdbf 55a5 893e bed9 433f 053b dfbf
000001e0: cdc2 dabf deed 913d a642 633f 9d4f 9f3e
000001f0: 21d5 f6be aa7b e73e 1cc6 bbbf f753 4dbf
00000200: 06d5 4fbf 351f 8fbf 2d4a a63e 83b8 e03e
00000210: 8f47 393f addd 7fbf 9f73 fd3c 96c6 143f
00000220: f601 aabe 1352 bebe 83af b0bf ce11 a5bf
00000230: 6de0 693f 889c 43be a7dc b4bf 7a7b 1f3f
00000240: bedf 503f 2289 143f 1534 d23e 7642 e5bf
00000250: 1d8b adbe c7f1 8fbe 3d96 11bf 8e75 1f3f
00000260: b55d 20bd 4faf a3bf 2486 053d c6e3 cc3e
00000270: a187 d8be d7e0 32be e4ee 84bf 815a 5fbe
00000280: edfa acbf 1c88 323f ba7f 32bf ced3 053f
00000290: 8462 423f 127a 213f 20ad 76bf f603 3f3d
000002a0: a9b5 81bf 2912 96bf 0382 abbf ac7d 7bbe
000002b0: c332 b43e 317c 8a3e 900f 37be 7891 203f
000002c0: 2034 8f3d 1482 2cbf 81b0 8fbf 2bb3 98be
000002d0: 2362 3a3e 35e5 5b3f 1567 d33e 126b 9bbf
000002e0: 6cae 20bf 12fe 52bd 7bd6 c9be 203b a9be
000002f0: 2bbd 3ebe dc32 b2be 547c 2f3e 6619 1fbf
00000300: ec5c 9bbf bd88 743e dbe1 e63e fd71 023f
00000310: 9fbe 3fbd 7f61 49bf f8dc 57be 025b 0dbe
00000320: 1101 95bf a9cd 433e d731 3cbe 3a73 5dbf
00000330: a5b4 363e 89e4 323f b420 e2be f44e 4bbe
00000340: 8a0b bebf 8718 3ebe b4a9 66bf 59a6 243f
00000350: 3f78 b0bf 22a2 713f 4eec bf3e 5d65 183f
00000360: 4e5d a5bf 5d95 d13d 367f 8abf 8aa3 52bf
00000370: 3708 68bf 8078 31be c0d0 8d3e 704b 83be
00000380: 4154 11bf 2cce 503f b839 bf3e 74d7 09bf
00000390: 8190 afbf 4bf2 5bbd 2da5 133f 1f68 533f
000003a0: 092f 003f dc81 99bf a1b6 05bf 6e03 a4bd
000003b0: c847 f2be 44df d8be e2fd 383e 14aa dabe
000003c0: 929d 993e 1f77 a2bf be61 bebf fa79 ac3e
000003d0: 8927 653f 11b0 583f 2d88 30be 11de 82bf
000003e0: d0dd afbf 7ab1 7c3c 740a 8cbf 6acf 093f
000003f0: c79b bcbd 99f0 33bf 57e8 6bbc 40ab 0b3f
-0.6440935 0.7813007 0.5152255 -1.7017651 -1.2174667 0.7949257 -1.3207479 -0.31518406
-1.6373237 -1.9322295 -1.4924285 0.5380096 -1.0021949 0.42024928 1.1108881 0.73325264
-1.3439654 -0.31952062 1.3893048 -1.6354752 -1.1035725 0.5644082 1.0491643 0.20951977
-0.52756536 0.73082453 -2.1934092 -0.4715698 -0.7806939 -1.9436755 0.29990804 0.24442977
0.7125993 -1.4856336 0.33284432 1.083314 -0.75376856 -0.6892944 -2.1949208 -1.4878721
1.4246659 -0.43557867 -2.7963533 1.4025725 0.81580997 0.7943179 0.59145594 -1.9413278
-0.287589 0.23287962 -0.44577208 0.7115001 0.13657182 -1.6032939 -1.1202748 0.20543554
-0.89139414 -0.018808737 -1.5967294 -1.021901 -1.5535996 0.605718 -0.44588307 0.55351603
0.8023605 0.8911249 -1.7965754 -0.03698068 0.8821561 -1.6716994 -1.4438025 -0.16794382
0.7193563 0.15200448 -0.7699643 0.41624242 -1.2229869 -1.2710828 -0.8091266 -1.0555516
0.04453903 0.42911786 0.7335948 -1.2508265 0.2341378 0.7810676 -0.40631965 -0.6148516
-1.2578837 -1.4736642 1.1034228 -0.6550357 -1.8048167 0.8727784 0.7858422 0.8108697
0.2980071 -1.8936797 -0.4432196 -0.025806293 -0.421546 0.3819161 0.19269614 -1.793444
-1.138992 0.38631907 -1.3080595 -0.46505183 -1.9308335 -1.3847774 -1.4330112 0.86034393
-0.8241274 0.62480956 1.0966235 0.861093 -1.9777911 0.2688395 0.76504123 -1.7439886
-1.7090698 0.07125448 0.8877357 0.31115428 -0.4820948 0.45211536 -1.4669833 -0.80206245
-0.8118442 -1.1181399 0.32478467 0.4389077 0.72374815 -0.99947625 0.030938921 0.5811552
-0.3320462 -0.37171993 -1.3803562 -1.2896059 0.9135807 -0.1910268 -1.4129838 0.62297785
0.81591403 0.5802175 0.4105536 -1.7910907 -0.33895198 -0.2811415 -0.5686987 0.6228875
-0.039151866 -1.2787875 0.03259863 0.40017527 -0.42290977 -0.17468582 -1.0385404 -0.21811868
-1.3514076 0.69738936 -0.69726145 0.52276313 0.7593157 0.6307689 -0.9635792 0.046634637
-1.0133563 -1.1724292 -1.3399051 -0.24559659 0.35194978 0.27047876 -0.1787703 0.6272197
0.06992364 -0.67385983 -1.122574 -0.29824194 0.18201499 0.8589662 0.41289583 -1.214205
-0.62766147 -0.05151183 -0.39421448 -0.3305292 -0.1862685 -0.34804428 0.17137271 -0.6214813
-1.2137733 0.23880287 0.4509419 0.5095518 -0.04681265 -0.7866439 -0.21080387 -0.13804248
-1.164095 0.19121422 -0.18378387 -0.86503947 0.17842348 0.69879967 -0.44165576 -0.19854337
-1.4847271 -0.18564044 -0.90102696 0.64316326 -1.3786696 0.9438802 0.37484974 0.5952967
-1.2919099 0.10233567 -1.0820072 -0.8228079 -0.90637535 -0.17331123 0.27698326 -0.25643492
-0.56769186 0.81564593 0.37348723 -0.5384438 -1.3715974 -0.053697865 0.57673913 0.8258075
0.5007177 -1.1992755 -0.52231795 -0.08008467 -0.4732039 -0.42357838 0.18065599 -0.42707884
0.3000303 -1.2692603 -1.4873579 0.3368681 0.8951345 0.84643656 -0.17239447 -1.0224019
-1.3739567 0.015423173 -1.094069 0.53832114 -0.092094 -0.70289 -0.014398656 0.5455818

fc_out.bias f4 [10]
00000000: d130 363f 4e8c f33e 0602 993e 98b5 9a3e
00000010: 2dfb de3c d2f7 cf3d 16fb a33e f89c 303e
00000020: e003 0f3f fef5 7e3e
0.7116824 0.4756798 0.29884356 0.3021667 0.02721938 0.1015469 0.320275 0.17247379
0.5586529 0.24898526
