models/demo_B1_MINAMIDAITO_314.pt (torch_old, 25001 bytes, 9 tensors)

fc1.weight f4 [50, 4]
-0.9483667 -0.047534544 -0.92304444 0.47705105 0.41591585 -0.19997959 -1.0546972 0.6254505
-0.015438974 -0.012545643 -0.8589317 0.96987784 -1.0935137 -0.19158612 -0.29859388 0.069773816
-0.40498224 -0.6204503 -0.7685659 1.0704517 0.593857 -0.6563372 -0.5220866 -1.2219537
0.034772135 -0.27100128 -0.94346136 -0.29535127 -0.5889125 0.40580353 0.3493926 0.6978673
-0.38907352 1.2408391 -1.4782515 -0.7555682 0.8690096 -0.64467007 -0.17673977 1.3009073
0.37392858 1.4111521 0.7247144 -0.20790312 0.29399416 -0.25565204 0.35758808 -0.64945287
-0.9318583 -0.92346215 -0.008337454 -0.91237617 0.78786844 0.17106156 0.9600118 -1.0705781
-0.9161036 -1.1707461 0.68457913 -0.44534338 0.9140014 -0.079537064 1.2753342 -1.1220366
-0.9680766 -0.38691637 -0.31176272 -0.2983743 -0.66005343 1.3516103 -0.18190737 -0.36464357
0.6543663 0.20314954 -0.12331681 0.80079937 -0.11656884 0.29802394 -1.0615581 -0.21584655
-1.1365304 0.8173376 0.63623154 -0.5565887 1.229232 0.6767311 -0.76601815 0.80866784
-0.40687165 -0.39597017 0.81811917 1.0991324 1.0448372 0.6947254 0.81799823 0.7725916
0.1894707 0.18437134 -1.2795087 -0.8830612 0.09624265 -0.10622245 -0.5255028 0.20714058
0.91777116 0.35627598 0.29602683 0.9342149 1.0600275 -0.81372994 0.07584785 -0.76330817
-0.38952398 0.46936676 -0.31180412 1.07626 -0.010582465 -0.48353174 -1.1184452 -0.032157563
0.9660997 -1.2944484 -0.11438679 0.50278264 0.23693323 -0.20520364 0.16186814 -0.6716846
0.0046644798 -1.2076792 -0.964827 -0.5031438 -0.84095085 1.199051 0.13112803 -0.6432911
0.3648754 1.0196155 0.22991362 -0.4798927 -0.33088765 -0.07244887 -0.8795556 1.0354275
-0.57514656 -0.26943025 -1.0081173 -1.0122902 -1.165388 -0.9729342 0.7273637 1.3142403
0.3514473 -0.27013427 0.7650826 1.2106981 0.57514066 0.47600707 -1.1691917 -0.5868224
-0.8107215 -1.0616343 0.0425207 0.7988986 0.14959073 0.40578878 -0.1527009 -1.096427
0.23316218 -1.3563179 -0.20122641 -0.2435043 -1.042353 -0.72390026 0.5503408 1.1024879
0.079619266 -1.260471 0.10774805 0.3399262 0.14946203 -0.6237654 -0.7431291 -0.06549986
-0.57126623 -0.34194157 -0.94378185 0.4362327 -1.3156984 -1.3051561 0.47601715 -0.5849491
0.25350755 1.3700703 1.0515571 -1.0638678 0.2703589 0.2093054 -1.0407655 -1.1666979
00000000: 29c8 72bf 95b3 42bd a44c 6cbf 0940 f43e
00000010: ecf2 d43e 73c7 4cbe 5100 87bf 861d 203f
00000020: c0f3 7cbc 3e8c 4dbc f3e2 5bbf ea49 783f
00000030: 42f8 8bbf 272f 44be 4ce1 98be 93e5 8e3d
00000040: d559 cfbe d5d5 1ebf bcc0 44bf 9004 893f
00000050: 0307 183f b705 28bf 78a7 05bf fb68 9cbf
00000060: 3a6d 0e3d aec0 8abe af86 71bf 4838 97be
00000070: f8c2 16bf 7bc5 cf3e 96e3 b23e 6ea7 323f
00000080: a534 c7be d1d3 9e3f 5837 bdbf eb6c 41bf
00000090: 6a77 5e3f 1909 25bf 45fb 34be 2184 a63f
000000a0: 9173 bf3e a2a0 b43f e286 393f 8ee4 54be
000000b0: 6786 963e d3e4 82be c915 b73e 8b42 26bf
000000c0: 448e 6ebf 0468 6cbf d199 08bc 7c91 69bf
000000d0: bfb1 493f c32a 2f3e 55c3 753f b408 89bf
000000e0: c485 6abf 02db 95bf 9440 2f3f 0c04 e4be
000000f0: fffb 693f 54e4 a2bd 273e a33f e59e 8fbf
00000100: ded3 77bf e719 c6be 5d9f 9fbe 84c4 98be
00000110: 43f9 28bf 9101 ad3f ed45 3abe 90b2 babe
00000120: 8d84 273f 6f06 503e 868d fcbd 3001 4d3f
00000130: a5bb eebd 9896 983e 23e1 87bf e106 5dbe
00000140: d479 91bf 093d 513f 12e0 223f 997c 0ebf
00000150: 7957 9d3f 403e 2d3f c419 44bf db04 4f3f
00000160: 7b51 d0be 9abc cabe 4270 513f 5fb0 8c3f
00000170: 3abd 853f 86d9 313f 5568 513f 90c8 453f
00000180: 9b04 423e d7cb 3c3e f1c6 a3bf 4c10 62bf
00000190: de1a c53d 288b d9bd 5a87 06bf a91c 543e
000001a0: 0df3 6a3f ce69 b63e d490 973e b528 6f3f
000001b0: fbae 873f 9b50 50bf 1e56 9b3d 2a68 43bf
000001c0: b06f c7be d750 f03e caa4 9fbe e3c2 893f
000001d0: 1362 2dbc 7991 f7be 3629 8fbf a6b7 03bd
000001e0: 4f52 773f 7cb0 a5bf 9f43 eabd 5db6 003f
000001f0: a09e 723e e720 52be c3c0 253e 86f3 2bbf
00000200: 7ed8 983b 3b95 9abf e7fe 76bf 08ce 00bf
00000210: 8e48 57bf 817a 993f 6d46 063e baae 24bf
00000220: f3d0 ba3e c382 823f 7a6e 6b3e 7fb4 f5be
00000230: 1b6a a9be 1360 94bd 8e2a 61bf e388 843f
00000240: ce3c 13bf c3f2 89be fd09 81bf ba92 81bf
00000250: 6f2b 95bf 3712 79bf 8234 3a3f 0739 a83f
00000260: e7f0 b33e 0a4f 8abe 74dc 433f 28f8 9a3f
00000270: 6b3c 133f 33b7 f33e 13a8 95bf fe39 16bf
00000280: 728b 4fbf a2e3 87bf 2f2a 2e3d 9e84 4c3f
00000290: 502e 193e 8cc3 cf3e a05d 1cbe b857 8cbf
000002a0: 11c2 6e3e d39b adbf 4c0e 4ebe 3159 79be
000002b0: d36b 85bf 8751 39bf 22e3 0c3f 531e 8d3f
000002c0: 6d0f a33d 1d57 a1bf 02ab dc3d cf0a ae3e
000002d0: 930c 193e 17af 1fbf b53d 3ebf ca24 86bd
000002e0: 813e 12bf f712 afbe b09b 71bf e459 df3e
000002f0: ce68 a8bf 5b0f a7bf 85b8 f33e 39bf 15bf
00000300: becb 813e 775e af3f 6c99 863f d22c 88bf
00000310: 7b6c 8a3e 2854 563e ce37 85bf 5b56 95bf

fc1.bias f4 [50]
0.2712336 -0.45892793 0.18417576 -0.106388666 0.70858806 -0.34824535 -0.44389233 0.28772476
-0.28688124 0.76661295 0.9412843 1.1797715 -0.032867644 -0.639094 -0.35794392 -0.3809429
-0.5357303 -0.036369096 -0.66488236 -0.16804796 -0.111442596 -0.19106185 -0.03899359 -0.857169
-0.14449728 1.0514435 0.2913968 -0.7344025 0.6242587 -0.38326645 0.10462619 -0.07366508
-0.19693853 0.23239116 -0.19745293 -0.2671771 -0.0017154886 -0.26257476 0.17466159 -0.6165578
1.2416829 -0.07697958 -0.526954 0.52749 0.415744 0.3365832 0.67694086 -0.010823153
0.57357055 0.57778597
00000000: 21df 8a3e 9af8 eabe 9298 3c3e 4de2 d9bd
00000010: 0766 353f 374d b2be db45 e3be a950 933e
00000020: 19e2 92be bf40 443f 02f8 703f c102 973f
00000030: 39a0 06bd aa9b 23bf 6d44 b7be f30a c3be
00000040: 9f25 09bf c3f7 14bd bb35 2abf c414 2cbe
00000050: 043c e4bd b8a5 43be beb7 1fbd 6d6f 5bbf
00000060: 18f7 13be b395 863f f631 953e cd01 3cbf
00000070: 6bcf 1f3f 803b c4be 4246 d63d b8dd 96bd
00000080: 41aa 49be f3f7 6d3e 1a31 4abe 70cb 88be
00000090: 3fda e0ba 3370 86be 7dda 323e bbd6 1dbf
000000a0: 77ef 9e3f 78a7 9dbd 75e6 06bf 9609 073f
000000b0: 66dc d43e a254 ac3e ff4b 2d3f 9853 31bc
000000c0: 85d5 123f c8e9 133f

adv.weight f4 [50, 50]
-0.52550495 -0.13082103 0.22650817 0.030941451 -0.18164262 0.2037781 0.10894797 -0.39030623
0.20858228 0.15123643 0.21597122 0.6042497 0.31825957 0.06622188 0.41422328 -0.058287986
-0.23597927 -0.13389426 -0.056232296 -0.15532264 -0.04114663 0.10948774 -0.06460875 0.043483343
-0.9494981 0.35328317 -0.008602371 0.093898825 -0.30955023 0.19838904 -0.26030442 -0.1909677
0.089416645 0.066159196 -0.1581044 -0.26204938 -0.1004344 -0.41134953 0.32322085 -0.101060934
0.20742624 -0.29262474 -0.0780339 -0.14379576 -0.020535149 -0.2620729 -0.007343485 0.6109415
0.23558822 0.0780643 0.16631456 0.19837932 0.33744147 -0.05688241 -0.1900055 -0.33542785
0.08101285 0.077553414 0.18468536 0.022512276 -0.39052057 -0.5869928 -0.42256808 -0.12705064
-0.2153143 -0.24758464 0.13885161 -0.17633638 0.21689124 0.14565769 0.024162062 0.107365444
0.43891683 0.2577139 -0.013344072 -0.2970402 -0.11124726 -0.10431318 -0.09622066 0.091271214
-0.058016412 0.07039579 0.18871889 -0.18543452 -0.1698431 0.12269063 0.1105138 -0.03973722
0.10323907 0.19531737 0.06981139 -0.13563254 -0.24679258 0.099974096 0.3108573 -0.20521727
0.015525401 -0.07872724 0.2584606 -0.018041177 0.009752464 0.102780186 0.29306695 -0.19363429
-0.1512687 0.03223614 -0.41137302 0.063785 -0.010240784 0.00049452623 0.04571857 0.5181808
-0.2675469 -0.11876182 0.07255507 0.26198834 0.040618956 0.21776493 -0.24702908 -0.24416842
-0.047146715 0.14547534 -0.017055133 -0.27794042 -0.035874013 0.3792663 0.22249983 0.019415535
-0.1146266 -0.10613494 0.051523797 -0.03678298 -0.5779772 -0.0951655 0.15031023 -0.40693462
-0.198375 0.076028556 -0.34750336 0.2923199 -0.42341042 -0.00063979626 -0.00791302 -0.2752356
0.0061471937 0.052440267 0.007821881 0.17162165 0.5221936 0.88557696 0.08057156 0.11040088
-0.040548008 -0.08888122 -0.3182576 0.26906642 -0.40610102 -0.40273935 -0.26269618 0.1322868
0.20385067 -0.56445867 -0.10451153 -0.229013 -0.3170218 0.025789581 0.2575767 -0.22635607
0.17150992 -0.14571555 -0.5063376 0.39899734 -0.8163069 -0.2726533 0.27547675 -0.11826304
-0.12902212 -0.25385267 0.18010585 -0.46306804 -0.24189723 -0.2014218 -0.36223334 -0.28603962
0.048882548 -0.3154649 0.02018673 -0.34941432 0.15486236 -0.16340984 -0.6709478 0.15327534
0.035421863 -0.26942772 -0.5784416 0.16621277 -0.17173243 -0.033615407 -0.55721724 -0.51219845
-0.27428862 0.18766059 -0.20639952 0.24441054 -0.31195146 0.2669775 -0.2319033 0.26793706
-0.09077579 -0.25845587 0.2556696 -0.28604922 0.05087765 -0.27066037 0.085396715 -0.13695852
-0.054276183 0.22195159 0.08666794 -0.33351797 0.09782018 -0.2749304 0.09262876 -0.24518353
0.046914637 0.123641215 0.23608519 -0.22054726 -0.10088223 -0.068504825 -0.32265216 -0.0078988075
0.1822387 -0.3902509 -0.2234013 -0.10123151 -0.23608914 -0.04786039 -0.26494285 0.14144945
0.16757521 0.24178034 0.01235503 -0.33520913 0.13772452 0.028381854 -0.34851143 0.26930597
0.09662758 -0.08529028 -0.058389645 -0.19576928 0.039326515 0.028832328 0.25873655 0.019759687
00000000: 7e87 06bf f3f5 05be c2f1 673e ed78 fd3c
00000010: 8600 3abe 35ab 503e 1d20 df3d 38d6 c7be
00000020: 9896 553e b9dd 1a3e 8f27 5d3e 1cb0 1a3f
00000030: ebf2 a23e 569f 873d 1315 d43e 62bf 6ebd
00000040: 8da4 71be 941b 09be d653 66bd e60c 1fbe
00000050: 5e89 28bd 1c3b e03d 9851 84bd 971b 323d
00000060: 4f12 73bf 88e1 b43e f6f0 0cbc 074e c03d
00000070: 5e7d 9ebe 7f26 4b3e 9f46 85be 098d 43be
00000080: 1320 b73d 797e 873d 1fe6 21be 562b 86be
00000090: 8db0 cdbd 689c d2be 347d a53e 09f9 cebd
000000a0: 8b67 543e e9d2 95be 3dd0 9fbd 323f 13be
000000b0: 5439 a8bc 6b2e 86be 9ea1 f0bb aa66 1c3f
000000c0: 0a3e 713e 2de0 9f3d 5d4e 2a3e f323 4b3e
000000d0: 21c5 ac3e 88fd 68bd cd90 42be 33bd abbe
000000e0: 11ea a53d 53d4 9e3d 291e 3d3e aa6b b83c
000000f0: 50f2 c7be 2945 16bf d85a d8be 9019 02be
00000100: 5a7b 5cbe d486 7dbe 1e2f 0e3e 8691 34be
00000110: bd18 5e3e 4a27 153e 84ef c53c 6ae2 db3d
00000120: b5b9 e03e 14f3 833e 18a1 5abc a715 98be
00000130: 9ad5 e3bd 26a2 d5bd 560f c5bd 67ec ba3d
00000140: 9ea2 6dbd ab2b 903d 863f 413e 8ce2 3dbe
00000150: 59eb 2dbe 3a45 fb3d 0f55 e23d 7fc3 22bd
00000160: 016f d33d 4701 483e 46f9 8e3d 42e3 0abe
00000170: 32b7 7cbe 38bf cc3d b028 9f3e 7a24 52be
00000180: 405e 7e3c bf3b a1bd f354 843e 17cb 93bc
00000190: ccc8 1f3c 6b7e d23d df0c 963e 1148 46be
000001a0: 2fe6 1abe 0b0a 043d 7c9f d2be b6a1 823d
000001b0: f6c8 27bc 18a3 013a 6543 3b3d 7fa7 043f
000001c0: e8fb 88be 6639 f3bd c197 943d 5623 863e
000001d0: 1060 263d c5fd 5e3e 31f5 7cbe 4907 7abe
000001e0: ea1c 41bd 7df7 143e 35b7 8bbc 354e 8ebe
000001f0: a1f0 12bd 312f c23e ffd6 633e 540d 9f3c
00000200: 5ac1 eabd 475d d9bd 9e0a 533d c0a9 16bd
00000210: 50f6 13bf 21e6 c2bd edea 193e bc59 d0be
00000220: d122 4bbe dcb4 9b3d f6eb b1be f4aa 953e
00000230: 40c9 d8be 00b8 27ba 9da5 01bc aeeb 8cbe
00000240: 666e c93b 9bcb 563d 5927 003c 96bd 2f3e
00000250: 7bae 053f 2cb5 623f b402 a53d db19 e23d
00000260: ab15 26bd 5b07 b6bd a9f2 a2be 13c3 893e
00000270: 79ec cfbe da33 cebe 1d80 86be 3176 073e
00000280: 3bbe 503e 5d80 10bf 240a d6bd 6282 6abe
00000290: ae50 a2be ac44 d33c 18e1 833e e3c9 67be
000002a0: 4ca0 2f3e 7536 15be 579f 01bf 6149 cc3e
000002b0: 7df9 50bf 3799 8bbe 4a0b 8d3e e533 f2bd
000002c0: 601e 04be faf8 81be ab6d 383e 4117 edbe
000002d0: e8b3 77be 8441 4ebe a676 b9be c973 92be
000002e0: 1139 483d 9e84 a1be a45e a53c 6fe6 b2be
000002f0: 3d94 1e3e e954 27be 3cc3 2bbf 36f4 1c3e
00000300: 8416 113d 6ef2 89be c014 14bf ae33 2a3e
00000310: a0da 2fbe 4fb0 09bd caa5 0ebf 701f 03bf
00000320: 8f6f 8cbe 192a 403e 655a 53be c246 7a3e
00000330: 1ab8 9fbe 46b1 883e 0f78 6dbe 0c2f 893e
00000340: a8e8 b9bd 5454 84be 20e7 823e 0b75 92be
00000350: 1565 503d ff93 8abe 79e4 ae3d db3e 0cbe
00000360: b450 5ebd 4747 633e f67e b13d dec2 aabe
00000370: f255 c83d adc3 8cbe 26b4 bd3d 6411 7bbe
00000380: 9029 403d 9b37 fd3d 51c0 713e 24d7 61be
00000390: 589b cebd 424c 8cbd aa32 a5be 006a 01bc
000003a0: c89c 3a3e f7ce c7be 4fc3 64be 7752 cfbd
000003b0: 5ac1 71be 4209 44bd 97a6 87be 20d8 103e
000003c0: d698 2b3e 4495 773e c06c 4a3c 88a0 abbe
000003d0: a807 0d3e 1081 e83c 1770 b2be 79e2 893e
000003e0: aee4 c53d acac aebd fb29 6fbd be77 48be
000003f0: d714 213d c631 ec3c 1e79 843e 11df a13c

adv.bias f4 [50]
0.45403093 -0.39223403 0.40617958 0.16563967 -0.16238591 0.367684 -0.22674745 0.26272634
-0.1786669 0.17690164 -0.054301664 -0.0691577 -0.115360595 -0.23060264 0.02080687 0.19221991
-0.3593668 0.031390652 -0.21058846 0.048778728 -0.06604277 0.050279107 -0.17416047 -0.1523529
-0.021495037 0.06358591 -0.26865304 -0.19335835 0.22148228 0.19734585 0.12607838 0.039322987
0.23547101 -0.1370163 -0.08593976 -0.031317845 0.035929862 0.12784651 -0.026010068 0.01812075
-0.23920715 -0.14129177 -0.19586676 -0.19594085 -0.15623704 0.08233383 0.2124901 0.27754164
-0.25861466 0.0820691
00000000: be76 e83e e6d2 c8be c5f6 cf3e 729d 293e
00000010: 7e48 26be 1441 bc3e 7c30 68be 1184 863e
00000020: 75f4 36be b425 353e 6c6b 5ebd 8da2 8dbd
00000030: 2d42 ecbd 1923 6cbe 2b73 aa3c 4cd5 443e
00000040: edfe b7be 7c93 003d 80a4 57be 34cc 473d
00000050: 6f41 87bd 77f1 4d3d 1f57 32be 6602 1cbe
00000060: 5c16 b0bc 5439 823d e48c 89be bbff 45be
00000070: 40cc 623e 0815 4a3e b11a 013e 2411 213d
00000080: 501f 713e 004e 0cbe 2f01 b0bd 2447 00bd
00000090: 312b 133d 32ea 023e 1113 d5bc f871 943c
000000a0: b8f2 74be caae 10be 4c91 48be b8a4 48be
000000b0: 9afc 1fbe a49e a83d 0197 593e f019 8e3e
000000c0: 2469 84be d813 a83d

adv_out.weight f4 [10, 50]
0.42307794 0.10160796 -0.121301286 -0.058140963 -0.20386577 -0.2035176 -0.7835858 0.036231235
-0.67884755 -0.37649783 0.075584285 -0.50851893 -0.41257748 0.37572995 -0.19901182 0.30193207
0.10108248 0.4732052 -0.1862917 0.5692012 0.07903969 0.4744274 -0.36043978 -0.052070133
0.10495248 0.25284198 0.46862558 -0.15713975 -0.9936397 -0.2842166 0.08208995 0.31663242
0.2436712 -0.20786604 0.29765788 0.770473 -0.46121663 0.0649266 0.30459124 0.06378201
-0.0037853378 0.086058 0.2141756 -0.7634195 0.1594986 -0.32293692 -0.44021437 -0.11599657
0.32355854 0.21719788 0.43389994 0.21056736 -0.10519879 -0.29500213 0.21822254 -0.08719844
-0.61794865 -0.037766345 -0.5072851 -0.31874648 0.08895008 -0.10205133 -0.56864196 0.33727235
-0.053798884 0.27837864 0.12694527 0.48101264 0.0012279856 0.38376454 -0.08073619 0.28366145
-0.2905608 0.16150118 0.07425231 -0.13189965 -0.1081083 -0.03388881 -0.49020872 -0.16996214
-0.33639702 -0.077932894 0.26905105 -0.1972683 0.20975098 0.46598813 -0.3488262 0.04454628
0.36335626 -0.049351484 -0.039292037 0.26059625 0.29810202 -0.123181574 -0.05229511 -0.09466519
-0.40126798 -0.23233044 0.25264782 0.099560276 0.6152696 0.20614342 0.01484911 -0.036988012
0.10017532 -0.46763545 -0.543477 -0.19763657 -0.7338443 -0.27796587 0.17714861 -0.4613298
-0.2829934 -0.041398596 0.012747929 0.2558332 0.2728005 0.43314868 -0.23446882 0.41780567
0.1877605 0.20849991 0.044017013 0.07898854 -0.17881842 -0.12312608 0.15178995 0.12953974
-0.6847707 0.0946996 -0.08115332 -0.3497474 0.026584571 0.16336215 0.050520163 0.46891308
-0.21957637 -0.12491081 0.22076462 -0.24413303 0.15283619 0.054657537 0.17371263 -0.38342097
0.03499473 -0.13363916 -0.06831178 -0.2474899 0.46019107 0.39091256 0.3393502 0.15563165
0.062058985 -0.09978662 -0.2194637 0.029657634 -0.09312254 -0.17548491 -0.31248474 -0.18510164
-0.076951645 -0.08741313 -0.318393 0.028280966 0.17529248 0.044190686 0.26174545 0.55340594
-0.2980551 0.05334196 0.11675842 0.114698865 0.04890055 0.24036501 -0.15622883 -0.31410652
0.08186011 -0.058983218 -0.1642397 -0.066179864 -0.17449023 0.023079906 0.06093023 0.14555953
-0.05960068 0.33835834 -0.06567625 -0.082549974 0.35724556 -0.19048998 0.014905747 -0.18067399
-0.002415576 -0.07003859 0.1486685 0.28154036 -0.114245415 0.030631203 0.25871718 0.24935843
0.40994674 0.038309943 0.1017981 -0.119176246 -0.32191843 0.13909508 -0.16799977 -0.30144697
0.12646912 -0.17991918 0.06801148 -0.2381998 -0.080147624 0.18913798 -0.035377562 0.15343088
0.07479878 0.42313746 -0.17178683 0.2684572 0.3092476 0.16061236 -0.085818686 -0.03872472
-0.39619702 -0.11856869 0.23081659 -0.28030044 -0.05675891 0.2680956 -0.06335265 -0.21080786
0.15059683 0.13307647 -0.12634145 0.3440727 -0.036405172 0.13016467 0.34111091 0.13148409
-0.12779365 -0.31987864 -0.0922066 -0.042083565 0.18522234 0.20210135 0.096695535 -0.23591956
0.07634354 0.07555811 0.11177526 -0.00991637 0.325044 -0.24366744 -0.14505437 0.2176478
00000000: ac9d d83e d617 d03d cf6c f8bd 3825 6ebd
00000010: 30c2 50be eb66 50be 1499 48bf 3467 143d
00000020: f4c8 2dbf 53c4 c0be efcb 9a3d 4c2e 02bf
00000030: 5b3d d3be ad5f c03e c1c9 4bbe d796 9a3e
00000040: 5504 cf3d f447 f23e 40c3 3ebe 2bb7 113f
00000050: 90df a13d 26e8 f23e 908b b8be 7e47 55bd
00000060: 53f1 d63d 8174 813e b1ef ef3e 3ee9 20be
00000070: 2c5f 7ebf d784 91be c71e a83d a51d a23e
00000080: f184 793e d6da 54be 9d66 983e b83d 453f
00000090: 9624 ecbe 3df8 843d 62f3 9b3e 24a0 823d
000000a0: 6e13 78bb 2d3f b03d d950 5b3e 766f 43bf
000000b0: 9a53 233e fd57 a5be c763 e1be 9c8f edbd
000000c0: 77a9 a53e 1f69 5e3e 2228 de3e f89e 573e
000000d0: 7772 d7bd 850a 97be bb75 5f3e 1995 b2bd
000000e0: e231 1ebf e2b0 1abd 70dd 01bf bd32 a3be
000000f0: 762b b63d 4a00 d1bd 8592 11bf f6ae ac3e
00000100: 385c 5cbd a587 8e3e f1fd 013e 4a47 f63e
00000110: 5cf4 a03a c97c c43e 0459 a5bd 133c 913e
00000120: 63c4 94be 9160 253e 9811 983d b410 07be
00000130: e267 ddbd fece 0abd a3fc fabe 8e0a 2ebe
00000140: 3b3c acbe 489b 9fbd 0fc1 893e b400 4abe
00000150: f6c8 563e ff95 ee3e 5999 b2be 2976 363d
00000160: d509 ba3e c824 4abd b0f0 20bd df6c 853e
00000170: d4a0 983e 9f46 fcbd 6633 56bd d3df c1bd
00000180: ff72 cdbe 08e8 6dbe 0e5b 813e 42e6 cb3d
00000190: 4f82 1d3f 4317 533e ae49 733c be80 17bd
000001a0: b828 cd3d ea6d efbe 4f21 0bbf 3e61 4abe
000001b0: 38dd 3bbf 8b51 8ebe 7266 353e 6b33 ecbe
000001c0: 83e4 90be 9391 29bd b1dc 503c 92fc 823e
000001d0: 82ac 8b3e aac5 dd3e 9818 70be a0ea d53e
000001e0: 4a44 403e 0081 553e 2f4b 343d bec4 a13d
000001f0: 2d1c 37be 8729 fcbd d36e 1b3e 11a6 043e
00000200: 224d 2fbf ddf1 c13d b633 a6bd 1712 b3be
00000210: e3c7 d93c 6848 273e 3bee 4e3d 6015 f03e
00000220: a1d8 60be 3dd1 ffbd 1f10 623e 02fe 79be
00000230: 1781 1c3e 95e0 5f3d b9e1 313e c14f c4be
00000240: a256 0f3d b4d8 08be 0ce7 8bbd fe6d 7dbe
00000250: 2a9e eb3e b125 c83e 4fbf ad3e e75d 1f3e
00000260: 9031 7e3d ed5c ccbd 18bb 60be 91f4 f23c
00000270: 08b7 bebd 51b2 33be 00fe 9fbe 498b 3dbe
00000280: d398 9dbd a805 b3bd 6804 a3be 7cad e73c
00000290: df7f 333e 4b01 353d 8003 863e 03ac 0d3f
000002a0: ae9a 98be 197d 5a3d 0a1f ef3d 3de7 ea3d
000002b0: f14b 483d 3f22 763e 73fa 1fbe 92d2 a0be
000002c0: 46a6 a73d 6398 71bd 742e 28be 4f89 87bd
000002d0: 91ad 32be 1212 bd3c fa91 793d 8f0d 153e
000002e0: d81f 74bd 4e3d ad3e 4581 86bd f60f a9bd
000002f0: e4e8 b63e ce0f 43be 3c37 743c 9a02 39be
00000300: a44e 1ebb 6470 8fbd 8e3c 183e 0f26 903e
00000310: 80f9 e9bd 4aee fa3c 9476 843e d157 7f3e
00000320: 8ae4 d13e e3ea 1c3d 867b d03d ad12 f4bd
00000330: 7ed2 a4be f16e 0e3e 2208 2cbe 4257 9abe
00000340: 1f81 013e bc3c 38be 9a49 8b3d a6ea 73be
00000350: 7024 a4bd 63ad 413e 10e8 10bd fc1c 1d3e
00000360: 1a30 993d 79a5 d83e e3e8 2fbe 3973 893e
00000370: b455 9e3e 9177 243e b5c1 afbd d09d 1ebd
00000380: 56da cabe 24d4 f2bd 2f5b 6c3e 8a83 8fbe
00000390: 087c 68bd d443 893e 09bf 81bd 04de 57be
000003a0: 0e36 1a3e 3345 083e a75f 01be 4c2a b03e
000003b0: 971d 15bd e349 053e 17a6 ae3e c4a3 063e
000003c0: 57dc 02be 22c7 a3be d0d6 bcbd d15f 2cbd
000003d0: edaa 3d3e a8f3 4e3e 4f08 c63d e694 71be
000003e0: 005a 9c3d 36be 9a3d 6dea e43d 4578 22bc
000003f0: 2b6c a63e f583 79be 2289 14be 11df 5e3e

adv_out.bias f4 [10]
-0.017376343 -0.27088708 -0.080499284 -0.118978016 -0.04639644 -0.065672204 0.07522927 0.030464757
0.20169644 0.2285131
00000000: d558 8ebc b6b1 8abe cfdc a4bd bfaa f3bd
00000010: 320a 3ebd 267f 86bd ce11 9a3d 3a91 f93c
00000020: 8389 4e3e 57ff 693e

val.weight f4 [50, 50]
-0.077003814 -0.21865289 0.06866107 -0.1025856 0.117286436 -0.29560664 -0.9740564 -0.16690092
0.16004108 0.030430438 -0.06505418 0.27584076 -0.20150109 0.03298044 0.16470703 -0.10010358
-0.3399817 -0.15946232 -0.39942965 0.15816858 -0.76094955 -0.0961027 -0.527365 -0.1373221
0.23484504 0.2881537 0.2474021 -0.4312558 0.23153776 -0.27618083 0.026239576 -0.2547786
0.2486117 0.0651479 0.31206056 -0.20175087 0.20941806 -0.49435735 -0.42334867 0.011896805
0.119699106 0.3117227 -0.26382458 -0.2868355 -0.23423778 -0.091871955 0.111702465 -0.17423877
-0.15092063 0.418902 0.3265429 0.20053616 0.12395252 -0.017693646 -0.049881306 -0.5810919
0.3834309 0.11936105 -0.09265556 -0.25194955 -0.17666407 0.20139809 0.69616354 -0.45960224
0.43935615 -0.27068698 -0.032101158 0.2385551 -0.15788125 0.22874267 0.17874186 -0.32954526
-0.30113307 -0.13523254 0.569181 0.32612705 -0.023326602 -0.4677006 -0.11207371 0.15654954
-0.0116194645 -0.037068088 0.23437263 -0.08995683 -0.05946583 0.21496086 0.41977406 0.15586464
-0.20018739 -0.5134511 0.049946684 -0.31794283 0.15810734 -0.18993722 0.40240654 0.3406708
0.41473076 0.3692656 -0.47460514 0.53952247 -0.20788907 -0.15806887 -0.045379795 -0.37241238
0.27511397 0.4790277 -0.28107917 0.20512241 0.15188509 -0.32839516 0.25112912 0.48505214
0.256931 0.45394823 0.28756005 -0.12099385 -0.30780256 -0.07602 0.24964303 -0.17512344
0.27984914 0.30164194 -0.07780564 0.21291003 -0.02040091 0.11990276 -0.25943977 -0.083847746
-0.18688749 -0.1324582 0.26026848 -0.0071974695 -0.49957183 -0.30552325 -0.08375423 -0.26638266
0.30897772 -0.2606035 0.11201836 0.40310857 -0.03561272 -0.22918272 -0.33084202 -0.3978996
-0.5056049 0.10110621 0.054529373 -0.28265715 0.07911365 0.5265449 0.10116942 -0.24460211
-0.27142322 0.0795173 -0.05942828 0.19392979 -0.058301166 0.3034096 -0.05623105 0.31413838
0.16179872 0.36586133 -0.7862731 -0.019966383 0.1664345 0.056424186 -0.1871838 0.31302363
0.003441572 -0.18067665 -0.31872052 0.13431236 -0.06912013 -0.0650298 -0.4293416 0.41262656
0.3468509 0.089029536 0.24768983 0.1403971 0.20082892 -0.19603308 0.36613196 0.30130303
0.18768059 -0.30012205 -0.25319052 -0.28183034 0.010440876 0.09227673 0.14000928 0.28374314
0.0858347 0.24058527 0.1825166 -0.30846232 0.31085974 -0.3466791 0.3067764 0.7350015
-0.022586258 0.16655499 -0.13399515 -0.05504681 -0.116786316 -0.26675272 0.25919884 -0.032331336
0.06988255 -0.14490037 -0.05582545 -0.18898778 -0.076743454 -0.19655831 -0.07630575 -0.19575904
-0.26559064 0.11774282 -0.28722438 0.21953823 0.12326077 -0.015265655 -0.30098054 -0.13018212
0.3440928 -0.15139501 -0.20423561 -0.15740223 0.263788 0.07934136 -0.21220842 -0.019990206
-0.28481433 -0.15942976 -0.110567294 0.11090461 0.21840025 -0.02829547 0.18515283 -0.05232407
-0.024436738 0.07159001 -0.2796232 -0.31281713 -0.12899618 0.084576845 -0.29973498 -0.07863918
-0.11389911 -0.21006681 0.059394505 0.11000937 0.04283064 0.0059005655 0.12117889 0.008726004
00000000: 2db4 9dbd 8be6 5fbe 2d9e 8c3d 6618 d2bd
00000010: df33 f03d c159 97be c35b 79bf 13e8 2abe
00000020: cfe1 233e 4149 f93c 203b 85bd 003b 8d3e
00000030: 4d56 4ebe 7f16 073d f6a8 283e 1b03 cdbd
00000040: 1512 aebe 174a 23be 0b82 ccbe f2f6 213e
00000050: 97cd 42bf 7ed1 c4bd 6501 07bf 2a9e 0cbe
00000060: 387b 703e e288 933e fa56 7d3e 8fcd dcbe
00000070: 3c18 6d3e 9367 8dbe 61f4 d63c 5772 82be
00000080: 1194 7e3e 436c 853d 67c6 9f3e c897 4ebe
00000090: b071 563e 681c fdbe 28c1 d8be d1ea 423c
000000a0: ce24 f53d 1e9a 9f3e 0414 87be 1adc 92be
000000b0: 07dc 6fbe 5d27 bcbd 43c4 e43d a66b 32be
000000c0: f08a 1abe 537a d63e a230 a73e 5a59 4d3e
000000d0: d2da fd3d 44f2 90bc 5750 4cbd 70c2 14bf
000000e0: 0e51 c43e 9173 f43d 33c2 bdbd 88ff 80be
000000f0: 6de7 34be 4d3b 4e3e c637 323f fc50 ebbe
00000100: 4af3 e03e 7c97 8abe 817c 03bd ca47 743e
00000110: 9fab 21be 853b 6a3e 1b08 373e 28ba a8be
00000120: 1d2e 9abe 667a 0abe d9b5 113f 20fa a63e
00000130: 6e17 bfbc 7476 efbe e786 e5bd 864e 203e
00000140: 915f 3ebc b5d4 17bd 61ff 6f3e 493b b8bd
00000150: 7192 73bd b31e 5c3e a0ec d63e fb9a 1f3e
00000160: ecfd 4cbe 8871 03bf e594 4c3d 67c9 a2be
00000170: e4e6 213e e77e 42be 3b08 ce3e 676c ae3e
00000180: 9757 d43e 6110 bd3e 72ff f2be 251e 0a3f
00000190: dfe0 54be cedc 21be 2ae0 39bd d6ac bebe
000001a0: bddb 8c3e 1e43 f53e 9ce9 8fbe 9c0b 523e
000001b0: c487 1b3e 6923 a8be ff93 803e c158 f83e
000001c0: 768c 833e e76b e83e 123b 933e a0cb f7bd
000001d0: 4c98 9dbe 60b0 9bbd 6ca2 7f3e 8f53 33be
000001e0: 6348 8f3e d070 9a3e 9058 9fbd 1605 5a3e
000001f0: cf1f a7bc 948f f53d 4ad5 84be 5eb8 abbd
00000200: 6f5f 3fbe 1fa3 07be e941 853e c0d8 ebbb
00000210: e1c7 ffbe 8b6d 9cbe 5687 abbd 4f63 88be
00000220: 5432 9e3e d26d 85be e269 e53d 3f64 ce3e
00000230: a5de 11bd e0ae 6abe 2064 a9be 7fb9 cbbe
00000240: 536f 01bf c610 cf3d 315a 5f3d 70b8 90be
00000250: 5606 a23d a6cb 063f ea31 cf3d fa78 7abe
00000260: fcf7 8abe f7d9 a23d 116b 73bd 8895 463e
00000270: 34cd 6ebd 8158 9b3e 8852 66bd bfd6 a03e
00000280: 90ae 253e 2d52 bb3e 3249 49bf 8a90 a3bc
00000290: ce6d 2a3e 0c1d 673d 1cad 3fbe a244 a03e
000002a0: ff8b 613b 4d03 39be 562f a3be 2e89 093e
000002b0: db8e 8dbd 582e 85bd aad2 dbbe ca43 d33e
000002c0: 7196 b13e 1e55 b63d 67a2 7d3e 42c4 0f3e
000002d0: 19a6 4d3e e5bc 48be a675 bb3e 6444 9a3e
000002e0: 572f 403e 99a9 99be 30a2 81be 114c 90be
000002f0: 3510 2b3c 95fb bc3d 985e 0f3e c846 913e
00000300: 1aca af3d fc5b 763e a2e5 3a3e c6ee 9dbe
00000310: 0229 9f3e ec7f b1be cc11 9d3e 0f29 3c3f
00000320: d106 b9bc 648d 2a3e 0636 09be c478 61bd
00000330: aa2d efbd d093 88be b6b5 843e dd6d 04bd
00000340: 951e 8f3d c360 14be 3aa9 64bd 0386 41be
00000350: ac2b 9dbd 9546 49be 3046 9cbd 0f75 48be
00000360: 7ffb 87be 2623 f13d 130f 93be a1ce 603e
00000370: 2570 fc3d cc1c 7abc 1f1a 9abe 764e 05be
00000380: ee2c b03e 4b07 1bbe 2423 51be 0d2e 21be
00000390: 390f 873e b97d a23d 2a4d 59be 80c2 a3bc
000003a0: 2fd3 91be 8e41 23be 1b71 e2bd f521 e33d
000003b0: 51a4 5f3e e7cb e7bc b498 3d3e c451 56bd
000003c0: 8e2f c8bc c89d 923d c62a 8fbe 9129 a0be
000003d0: 9317 04be a036 ad3d dd76 99be 940d a1bd
000003e0: f043 e9bd c11b 57be a747 733d 984c e13d
000003f0: 2e6f 2f3d 8859 c13b a32c f83d 83f7 0e3c

val.bias f4 [50]
0.20328708 0.12891862 0.15643993 0.1791968 -0.12096854 -0.3227841 0.20733131 0.22499897
0.11553539 -0.055985905 -0.085987486 0.052095193 -0.51179796 0.5304408 0.25386283 0.2519063
0.1801598 -0.28490224 -0.44047278 -0.20081888 -0.11665573 0.2698612 -0.3517562 0.3982165
0.10006519 -0.23682079 0.07401626 -0.43307182 -0.23346265 0.19489387 0.5465414 -0.1301024
0.14485648 0.34260333 0.32482225 0.20556615 0.35438848 0.45702055 -0.5131138 -0.5993872
-0.24673264 -0.043367635 0.28887084 0.08032387 0.27881542 -0.17862666 0.15725665 0.3921962
-0.24507986 0.33340976
00000000: 7d2a 503e 3e03 043e ca31 203e 5e7f 373e
00000010: 5bbe f7bd f543 a5be a94e 543e 2166 663e
00000020: d29d ec3d 7a51 65bd 351a b0bd c561 553d
00000030: 3105 03bf f8ca 073f 4ffa 813e ddf9 803e
00000040: d07b 383e b5de 91be a685 e1be 77a3 4dbe
00000050: 33e9 eebd 3f2b 8a3e 6319 b4be 08e3 cb3e
00000060: faee cc3d 2681 72be d695 973d 97bb ddbe
00000070: d510 6fbe 4292 473e 23ea 0b3f 9039 05be
00000080: 4255 143e b469 af3e 1a4f a63e ef7f 523e
00000090: 6872 b53e 99fe e93e 6d5b 03bf 7171 19bf
000000a0: 7ba7 7cbe 43a2 31bd e1e6 933e d780 a43d
000000b0: e5c0 8e3e e8e9 36be e307 213e f1cd c83e
000000c0: 37f6 7abe afb4 aa3e

val_out.weight f4 [1, 50]
-1.0571731 -0.34159425 0.9163186 0.31280974 0.05513886 -0.15924484 0.6258666 0.51210433
-0.24580634 -0.1919249 -1.5789577 -1.3957824 -0.8262267 0.33999652 1.5045421 0.2576306
-0.4678907 -0.6606644 -0.77339745 -0.37493458 -0.5867965 0.24111538 -0.69837785 0.43182948
-0.9531191 -0.3186177 -0.27091134 -1.5256237 -0.4820731 0.096816964 0.49952 -0.2523691
0.34032375 0.452206 0.22615989 -0.75419354 0.27711064 0.35808477 -1.5992806 -0.8857243
-0.9158779 0.21438617 0.2699828 0.09467493 0.33049333 -0.8061489 0.28217772 0.2524747
-0.18088534 0.13081472
00000000: 7351 87bf 71e5 aebe db93 6a3f 9928 a03e
00000010: 49d9 613d 1411 23be cb38 203f 4519 033f
00000020: a8b4 7bbe f687 44be 491b cabf ffa8 b2bf
00000030: 9883 53bf 0614 ae3e d694 c03f 28e8 833e
00000040: 5f8f efbe 4d21 29bf 60fd 45bf 6df7 bfbe
00000050: 4c38 16bf f3e6 763e e4c8 32bf c118 dd3e
00000060: 9dff 73bf dc21 a3be e4b4 8abe a347 c3bf
00000070: 49d2 f6be f947 c63d 16c1 ff3e 8636 81be
00000080: ea3e ae3e 8b87 e73e 7596 673e d412 41bf
00000090: 72e1 8d3e e356 b73e 3ab5 ccbf d4be 62bf
000000a0: f976 6abf 0c88 5b3e 303b 8a3e eee4 c13d
000000b0: 6c36 a93e c65f 4ebf 9979 903e 5d44 813e
000000c0: 023a 39be 4bf4 053e
