models/demo_C03c_TOKYO_314.pt (torch_old, 4191 bytes, 5 tensors)

fc1.weight f4 [50, 4]
-0.7977291 -0.19454598 -1.0321885 0.26984218 0.25885072 -1.0868076 -0.85057414 0.83054644
-0.0046564136 0.5780165 -0.7699501 1.2635845 -1.1838282 -1.5004365 -0.49463752 0.101518944
-0.4017351 -0.89316237 -0.7496006 1.2219822 1.6765466 -0.31946847 0.28110647 -1.3199472
-0.18398473 -1.2420197 -1.0726591 -0.48776615 -0.66544306 1.7349038 0.72756326 0.65649897
-0.31270495 2.057688 -0.77925235 -0.5663073 0.78286064 -1.9948136 0.035882473 1.2331928
0.21637286 2.6951292 -0.5708623 -0.20051348 -0.6621968 -0.5664825 1.2478056 -0.66240925
-1.1372368 -1.2710156 0.2848631 -0.7301005 1.6748406 0.99214035 0.9275579 -0.53407365
-0.5915461 -1.6201576 0.31200182 0.4729959 0.48988414 0.37200293 2.0281825 -0.5451796
-0.8042414 -0.4164534 -0.33311278 -0.46017975 -1.3973337 -0.54317737 -0.45847273 0.24806449
1.6524625 0.41449347 -0.006025694 0.63843775 -1.0903018 -1.14102 -0.8701384 -0.19373034
-0.7659995 1.3601849 0.9430818 -0.91066486 1.23405 0.075121656 -0.44406667 1.1625764
-0.44672287 -0.6627331 1.0154284 1.1802158 1.515385 1.1268691 0.30296326 0.6948347
0.40803817 1.5926479 -1.1833361 -0.8979811 0.5718565 -0.2036455 -0.96378475 0.11089453
0.8396777 -0.12652194 0.038096655 1.2820052 1.4122238 -0.9841878 0.5115259 -0.111599326
-0.49251315 0.48907718 -0.20045035 1.0148022 -0.414694 -0.351449 -1.013088 0.2823608
0.8771267 -2.2302697 0.39825815 -0.04402218 0.19367896 -0.17007457 0.042653438 -0.7175414
-0.4965609 -1.8316009 -0.7480737 -0.31203038 -0.7264677 1.8301414 0.7997277 -0.30267856
1.1455226 1.9729366 0.028968476 -0.56816566 -0.5068469 -0.0098067485 -0.7250608 1.1851785
-0.7980457 -0.08546927 -1.1066973 -1.0776771 -1.0304155 -1.450227 1.036218 1.4421738
0.089609124 -0.6618224 0.93417835 1.3863416 1.3085843 0.75500596 -0.88861537 -0.20926349
-1.5447868 -0.92007565 -0.25877526 0.7437642 0.14959073 0.40578878 -0.1527009 -1.096427
0.8865806 -0.82486516 0.5705452 -0.515029 -1.7090944 -0.6470854 -0.04805308 0.87620986
-0.2935232 -2.285541 0.43676138 -0.16812621 0.13139069 -0.9544854 -0.84174114 0.14765187
-0.68819004 -0.37457615 -0.6427135 0.7559834 -1.2643201 -1.8237858 0.8123043 0.06299345
-0.5692278 2.010359 1.3087388 -0.37981135 0.8447881 0.860832 -0.8589542 -0.9710795
00000000: f937 4cbf 1037 47be c11e 84bf c128 8a3e
00000010: 1588 843e 831c 8bbf 3abf 59bf b19e 543f
00000020: d494 98bb e4f8 133f 731b 45bf 23bd a13f
00000030: af87 97bf 4e0e c0bf 2141 fdbe 2ae9 cf3d
00000040: 39b0 cdbe 4aa6 64bf d3e5 3fbf ea69 9c3f
00000050: 1499 d63f 5f91 a3be 30ed 8f3e 08f4 a8bf
00000060: 7e66 3cbe 80fa 9ebf e54c 89bf 7cbc f9be
00000070: 7a5a 2abf 5411 de3f 9641 3a3f 5110 283f
00000080: dd1a a0be 29b1 0340 157d 47bf 84f9 10bf
00000090: 8e69 483f 0d56 ffbf 80f9 123d 43d9 9d3f
000000a0: d990 5d3e ff7c 2c40 0824 12bf 6853 4dbe
000000b0: bb85 29bf ff04 11bf 18b8 9f3f a793 29bf
000000c0: fa90 91bf a4b0 a2bf 94d9 913e dee7 3abf
000000d0: 2d61 d63f e9fc 7d3f 6f74 6d3f 0db9 08bf
000000e0: 916f 17bf 5361 cfbf b4be 9f3e 852c f23e
000000f0: 18d2 fa3e 2b77 be3e becd 0140 e490 0bbf
00000100: c4e2 4dbf 6139 d5be c28d aabe ae9c ebbe
00000110: d5db b2bf ac0d 0bbf f0bc eabe 9e04 7e3e
00000120: e483 d33f 7d38 d43e 2f73 c5bb a870 233f
00000130: 028f 8bbf f20c 92bf 64c1 5ebf 3f61 46be
00000140: 8b18 44bf 8a1a ae3f cf6d 713f 5521 69bf
00000150: 5af5 9d3f 62d9 993d b55c e3be 4ecf 943f
00000160: dcb8 e4be e0a8 29bf 8ff9 813f 5011 973f
00000170: 23f8 c13f 3f3d 903f 001e 9b3e b0e0 313f
00000180: 61ea d03e e3db cb3f 8f77 97bf 17e2 65bf
00000190: 3065 123f 7288 50be 99ba 76bf ac1c e33d
000001a0: 1ef5 563f f88e 01be 3d0b 1c3d bf18 a43f
000001b0: c0c3 b43f bbf3 7bbf 5df3 023f 308e e4bd
000001c0: af2a fcbe 5368 fa3e db42 4dbe 0ae5 813f
000001d0: c652 d4be 20f1 b3be deac 81bf 9891 903e
000001e0: 608b 603f bdbc 0ec0 7ee8 cb3e 9a50 34bd
000001f0: c753 463e 0728 2ebe 5fb5 2e3d cbb0 37bf
00000200: 3b3d febe e671 eabf c281 3fbf 72c2 9fbe
00000210: caf9 39bf 1342 ea3f f4ba 4c3f aff8 9abe
00000220: 7ca0 923f 3089 fc3f 4c4f ed3c 4e73 11bf
00000230: b8c0 01bf 7cac 20bc 969d 39bf eeb3 973f
00000240: b94c 4cbf 830a afbd 42a8 8dbf 53f1 89bf
00000250: a8e4 83bf 0aa1 b9bf cba2 843f 2799 b83f
00000260: fd84 b73d 316d 29bf 5026 6f3f a473 b13f
00000270: b17f a73f 1248 413f 4c7c 63bf 2b49 56be
00000280: 93bb c5bf 148a 6bbf 317e 84be 5567 3e3f
00000290: 502e 193e 8cc3 cf3e a05d 1cbe b857 8cbf
000002a0: f2f6 623f 5d2a 53bf 400f 123f f1d8 03bf
000002b0: 9bc3 dabf 64a7 25bf 4ed3 44bd 4a4f 603f
000002c0: ac48 96be 4e46 12c0 309f df3e 4729 2cbe
000002d0: 488b 063e 2859 74bf 597c 57bf 0d32 173e
000002e0: 392d 30bf 72c8 bfbe df88 24bf 2188 413f
000002f0: 3ed5 a1bf d071 e9bf 2df3 4f3f b602 813d
00000300: eab8 11bf b9a9 0040 c184 a73f a276 c2be
00000310: 0844 583f 7c5f 5c3f 6ce4 5bbf ab98 78bf

fc1.bias f4 [50]
0.0920097 -0.1880248 0.1802673 -0.13019519 0.5578289 -0.21773525 -0.56137305 0.32782558
0.013520901 0.6165867 0.47796407 0.62982625 0.2003795 0.52247906 0.530277 0.7419283
-0.6400315 0.6820586 -0.26273572 -0.08236587 -0.44353127 0.44392788 -0.24326201 -0.31747785
-0.26750153 0.38477015 0.6050435 0.59955794 0.11877101 0.1511696 -0.5641528 -0.119553864
-0.102992475 0.5603392 -0.0059055644 -0.24005368 -0.00948982 -0.0150215505 0.032435868 0.13614473
0.6187661 -0.07697958 -0.50024843 0.09600224 -0.3477869 0.5513319 0.75017625 0.66814303
0.98198986 0.6544995
00000000: 956f bc3d 9389 40be fe97 383e e351 05be
00000010: e0cd 0e3f fdf5 5ebe 25b6 0fbf c1d8 a73e
00000020: c586 5d3c a0d8 1d3f b5b7 f43e 4b3c 213f
00000030: 4930 4d3e 30c1 053f 3cc0 073f 03ef 3d3f
00000040: 1bd9 23bf 649b 2e3f 4c85 86be 70af a8bd
00000050: 8816 e3be 844a e33e ad19 79be 758c a2be
00000060: f6f5 88be 9800 c53e 21e4 1a3f a17c 193f
00000070: 373e f33d 34cc 1a3e 516c 10bf a8d8 f4bd
00000080: b8ed d2bd 6472 0f3f 7783 c1bb a2d0 75be
00000090: 317b 1bbc f31c 76bc 79db 043d 8669 0b3e
000000a0: 7567 1e3f 78a7 9dbd 4810 00bf d39c c43d
000000b0: 2011 b2be 1624 0d3f 8d0b 403f 6c0b 2b3f
000000c0: b063 7b3f 478d 273f

adv_out.weight f4 [10, 50]
0.21924603 0.29059058 0.36706132 0.7274648 0.07194102 -1.296818 2.4762866 0.8670151
1.5351576 -0.27264127 -0.68012416 -0.24144873 -0.8301985 -0.7727831 0.9100008 -0.16379954
-0.30015627 -0.31165507 -0.17251949 -0.4232613 -0.50043446 0.46273378 0.37211886 -0.00077205966
1.1041336 0.15675679 0.035858918 -0.5798589 0.08221468 0.21560669 0.3780544 -0.27683067
-0.42793617 -0.5494644 -0.042754382 0.2871886 -0.58291686 0.45917094 -0.0985748 0.004433699
-0.1673514 0.16930899 -0.15024799 -0.11711291 0.06446941 0.3578961 0.55157286 -0.35837865
-0.6085767 0.37949947 0.48548725 0.43438607 0.11675001 -0.0117868055 -0.14183304 -0.6289238
1.1474116 1.051469 0.28323853 0.25486904 -0.123138174 0.29481748 0.19933277 -0.09055712
0.3379846 0.1467842 0.07173026 0.17375273 -0.17171538 -1.0638611 0.27223134 -0.127318
0.36725357 0.046533197 0.8143129 -0.12560856 0.3286512 -0.5414504 0.37463492 0.30252543
0.04200485 0.07646021 0.4717714 0.4218365 -0.34303933 0.3991673 -0.017095761 0.23298034
0.39207506 -0.12188156 -0.21262181 -0.016333997 -0.39300635 -0.047172274 0.48795673 0.45593598
0.22155464 -0.360139 -0.024201626 -0.24370478 0.17382063 0.14489374 0.2789776 -0.1369544
-0.17093065 -0.119651824 0.26271588 0.46750328 0.65577304 -0.32068032 -0.23888873 -0.22408195
-0.5104532 -0.5315872 0.6197798 -0.028417334 -0.3791096 0.23945835 -0.63116217 -0.805778
-0.05344677 0.42164513 0.21795572 0.21476057 1.3886008 -0.17797735 0.119746044 -0.4358196
0.0026468053 -0.25256735 0.39505154 0.008441366 0.62836784 -0.74486244 -0.48527253 0.34100217
-0.50588363 0.52486265 0.47621486 -0.26618505 -0.50632226 0.24833366 -0.7031939 -0.101042315
0.2857849 0.2575034 0.3299397 0.36866453 0.32012668 -0.0036417746 0.43759158 0.5432283
0.4844957 -0.09567787 0.2640868 -0.42557532 0.36388138 -0.10435966 0.22104162 0.02699615
0.1562616 0.10772708 -0.6136259 -0.14174433 0.40377 -0.109874256 0.35694307 -0.3760542
-0.26744726 -0.36631387 0.248044 0.018643575 0.20067842 0.123695925 0.5869708 0.4881513
0.47603533 -0.10114792 -0.005764666 0.1892769 -0.017941102 0.2895818 -0.1751273 0.21747625
-0.06478851 0.19046818 -0.10542608 -0.16628946 0.3057013 0.022261228 -0.12509932 -0.2973339
0.25201774 0.40652156 -0.004247542 0.09386667 0.27415115 0.32583508 -0.032622688 -0.3623398
0.2050584 -0.2195954 0.10562864 0.09642712 0.16567168 -0.2751168 -0.60385746 0.46027377
0.23259723 -0.24698266 0.6299256 0.27905527 -0.5346963 0.06749878 0.15039097 0.04740735
-0.09876789 -0.31694075 -0.03953102 0.030319003 0.8163943 -0.098050766 0.5176365 -0.34453246
-0.018863121 0.21148486 0.52503186 -0.097393446 0.14884901 0.2953437 0.37582836 -0.06351805
-0.2718485 0.36034277 -0.483495 0.28603637 0.00012939885 0.10200113 0.35641935 -0.06511455
-0.2587173 0.15460029 -0.09744102 0.1883883 0.061348896 0.20098336 0.21715924 0.11059327
-0.3678154 -0.4673491 0.053347114 0.37458324 0.14186478 -0.17613459 -0.13478686 -0.79923445
00000000: 0882 603e 4ac8 943e 76ef bb3e 223b 3a3f
00000010: d055 933d 22fe a5bf 7b7b 1e40 b4f4 5d3f
00000020: 0b80 c43f a397 8bbe 9e1c 2ebf 563e 77be
00000030: e487 54bf 1dd5 45bf d0f5 683f 11bb 27be
00000040: 15ae 99be 4191 9fbe f3a8 30be b5b5 d8be
00000050: 791c 00bf 71eb ec3e 5d86 be3e 0c64 4aba
00000060: 4054 8d3f da84 203e cde0 123d a271 14bf
00000070: 2c60 a83d 00c8 5c3e 5990 c13e c0bc 8dbe
00000080: 731a dbbe b3a9 0cbf 381f 2fbd 620a 933e
00000090: 0a3a 15bf 7418 eb3e 96e1 c9bd 9048 913b
000000a0: 2a5e 2bbe 565f 2d3e 9cda 19be e5d8 efbd
000000b0: 8a08 843d 283e b73e e133 0d3f 687d b7be
000000c0: afcb 1bbf c14d c23e c991 f83e da67 de3e
000000d0: a11a ef3d 721d 41bc ae3c 11be 2601 21bf
000000e0: 62de 923f 8996 863f a404 913e 327e 823e
000000f0: de2f fcbd 51f2 963e e41d 4c3e 0376 b9bd
00000100: 510c ad3e 994e 163e 51e7 923d 3cec 313e
00000110: 28d6 2fbe 9a2c 88bf e861 8b3e a65f 02be
00000120: a908 bc3e 9899 3e3d cf76 503f 889f 00be
00000130: f844 a83e 7e9c 0abf 26d0 bf3e 9de4 9a3e
00000140: 470d 2c3d 2c97 9c3d 058c f13e f4fa d73e
00000150: daa2 afbe a85f cc3e 690c 8cbc 6692 6e3e
00000160: 10be c83e 0a9d f9bd 88b9 59be e0ce 85bc
00000170: 2138 c9be b737 41bd 77d5 f93e 7170 e93e
00000180: 38df 623e 2464 b8be 7d42 c6bc bf8d 79be
00000190: 09fe 313e 065f 143e 27d6 8e3e c63d 0cbe
000001a0: 7208 2fbe 040c f5bd b282 863e 975c ef3e
000001b0: bee0 273f 3630 a4be 3f9f 74be bd75 65be
000001c0: 10ad 02bf 1916 08bf e4a9 1e3f 78cb e8bc
000001d0: a71a c2be 9234 753e d893 21bf 7847 4ebf
000001e0: 00eb 5abd dfe1 d73e c92f 5f3e 32ea 5b3e
000001f0: acbd b13f b23f 36be 6a3d f53d bf23 dfbe
00000200: 0676 2d3b 8250 81be 3244 ca3e a84d 0a3c
00000210: b7dc 203f 4eaf 3ebf a475 f8be d697 ae3e
00000220: 9781 01bf 665d 063f 6fd2 f33e 6849 88be
00000230: 569e 01bf 2e4b 7e3e 8404 34bf 46ef cebd
00000240: 6652 923e 7cd7 833e dbed a83e 99c1 bc3e
00000250: a5e7 a33e d7aa 6ebb 010c e03e 0311 0b3f
00000260: d20f f83e c2f2 c3bd 6336 873e 02e5 d9be
00000270: a94e ba3e 84ba d5bd bc58 623e 0827 dd3c
00000280: 0a03 203e 04a0 dc3d 9616 1dbf 6d25 11be
00000290: f1ba ce3e c105 e1bd 3ec1 b63e 2d8a c0be
000002a0: d9ee 88be 7e8d bbbe 3fff 7d3e 69ba 983c
000002b0: a57e 4d3e 4a54 fd3d b843 163f f8ee f93e
000002c0: e7ba f33e a426 cfbd 86e5 bcbb ced1 413e
000002d0: 38f9 92bc 1144 943e 9254 33be 18b2 5e3e
000002e0: d7af 84bd 170a 433e a1e9 d7bd c947 2abe
000002f0: e184 9c3e 2e5d b63c 091a 00be 263c 98be
00000300: 7808 813e 9823 d03e f72e 8bbb 2b3d c03d
00000310: 8a5d 8c3e dbd3 a63e 5e9f 05bd 9a84 b9be
00000320: d4fa 513e 9edd 60be d453 d83d 957b c53d
00000330: d6a5 293e 1cdc 8cbe 6796 1abf 01a9 eb3e
00000340: f82d 6e3e 06e9 7cbe ce42 213f 55e0 8e3e
00000350: dbe1 08bf cd3c 8a3d 1700 1a3e 362e 423d
00000360: d246 cabd 0f46 a2be 47eb 21bd 8f5f f83c
00000370: 38ff 503f d7ce c8bd d383 043f 8f66 b0be
00000380: d586 9abc 7d8f 583e 7d68 063f 3776 c7bd
00000390: e06b 183e 4a37 973e 936c c03e c015 82bd
000003a0: ba2f 8bbe d97e b83e a88c f7be 5c73 923e
000003b0: 3daf 0739 f8e5 d03d 997c b63e c75a 85bd
000003c0: 9876 84be 8a4f 1e3e 288f c7bd dde8 403e
000003d0: fb48 7b3d 95ce 4d3e fe5e 5e3e b97e e23d
000003e0: 4d52 bcbe 6248 efbe 8182 5a3d 60c9 bf3e
000003f0: 0045 113e a05c 34be 9105 0abe a19a 4cbf

adv_out.bias f4 [10]
0.32561874 0.11390244 -0.008909416 0.22155908 0.014802468 0.033536755 0.052775897 -0.030027462
0.10130622 -0.050451856
00000000: 80b7 a63e af45 e93d cdf8 11bc 62e0 623e
00000010: 0d86 723c d65d 093d 8a2b 583d 27fc f5bc
00000020: a379 cf3d 9ba6 4ebd

val_out.weight f4 [1, 50]
0.38044494 0.30217987 0.19952613 0.025625765 0.38265246 -2.2074945 0.46230328 0.41839266
0.818064 -0.4699332 -1.1044477 -1.3832666 -0.7899076 -1.1117802 0.7557568 0.2148614
-0.5780233 -1.003674 -1.0344931 -1.4872874 1.5538491 0.73102695 0.749973 -0.5772756
2.1663399 -0.52963173 0.6156893 -0.72792345 0.22194318 -0.14779642 0.609321 0.03623617
-0.9189981 -0.088729255 -1.7341367 0.516416 -0.7525731 0.6895395 0.6908066 -0.63993686
-1.4446148 -0.31774127 -1.2301638 -1.102897 -1.701393 0.59255755 0.5176043 -0.7759059
-1.3587798 -0.86353576
00000000: aec9 c23e 52b7 9a3e 9450 4c3e 20ed d13c
00000010: 06eb c33e 9747 0dc0 04b3 ec3e 9037 d63e
00000020: a46c 513f 169b f0be 8b5e 8dbf e10e b1bf
00000030: 6237 4abf d04e 8ebf 4779 413f a004 5c3e
00000040: 56f9 13bf 6478 80bf 456a 84bf 6f5f bebf
00000050: 87e4 c63f 9524 3b3f 3bfe 3f3f 55c8 13bf
00000060: 50a5 0a40 f295 07bf d09d 1d3f 3159 3abf
00000070: 1345 633e f257 17be 76fc 1b3f 616c 143d
00000080: 7643 6bbf afb7 b5bd 31f8 ddbf d733 043f
00000090: a1a8 40bf a985 303f b4d8 303f e7d2 23bf
000000a0: 23e9 b8bf fcae a2be 0276 9dbf bb2b 8dbf
000000b0: 3fc7 d9bf dab1 173f b781 043f c5a1 46bf
000000c0: 7fec adbf ae10 5dbf
