models/demo_D0_TOKYO_00_32_59_314.pt (torch_old, 3768 bytes, 4 tensors)

fc1.weight f4 [50, 4]
-7.3236957 1.5101745 2.950246 8.477567 0.14770576 0.43200654 -0.09430601 0.16652991
2.544795 4.2761874 -3.126274 1.5468107 -7.4711213 -6.537572 1.4536054 -4.887102
-1.2334863 -1.4252691 0.06840127 1.2956307 7.246896 6.534442 0.7118979 6.08498
-0.23753737 -0.13819821 -0.5704703 0.054378636 -0.20972037 0.85862255 0.24373172 0.15691607
1.5862331 6.217546 -0.5972472 0.5463997 1.9662101 5.4982667 -2.9674714 -3.5699496
0.74379945 4.065013 -3.7631555 0.14795992 -2.957079 -2.3494809 -4.7138953 -0.48442596
-0.9832232 -1.2911036 0.63600254 -0.43966478 -3.4307485 6.5683255 -3.3654768 -0.6924093
-0.106349215 -0.52134734 -0.0024880634 0.21382247 2.114038 2.5221782 -0.31755367 -4.395878
-7.8981223 -7.8984637 0.47543758 -6.4754233 0.94685405 1.924575 -1.4024733 -0.021407872
0.5926335 0.35996005 -0.22604133 0.6038814 -0.5191289 0.31152213 0.14270467 0.010464208
0.8807206 1.6231588 0.49454212 0.04477144 1.4837528 2.3589041 -3.993202 0.9341853
-0.59356046 -0.20751439 -0.0032435036 0.6664608 -3.9920678 2.2434645 -4.6017847 -0.48551378
0.0053549344 0.030222675 -0.5726522 -0.44515228 -0.41872945 -0.11907656 0.050127234 0.32969496
0.97818315 -2.325844 -1.6709472 -2.1938958 5.5145817 3.8001745 1.0812602 -2.6175156
-1.6447684 3.8468199 -5.084032 -0.6884343 -0.32649058 -0.31056523 -0.42726043 0.0077155246
-3.1443849 -2.6720214 -0.53963786 4.2843494 0.70136064 -1.4695114 1.1952825 -0.09581201
0.77965814 -0.30866542 0.076466046 -0.3467588 0.29048327 1.1565694 0.60960186 -0.1578514
0.22538085 0.4878944 0.32256237 0.021151282 -0.122395866 -0.013169697 -0.1815381 1.0748202
-0.49372625 -0.62835175 -0.04456457 0.034412887 0.63120395 -0.12230892 0.20608884 -0.035973255
-3.9522333 1.3107787 -0.6485036 -0.36276996 1.8799359 0.46101183 -0.0074917558 0.29296458
-1.67484 3.336281 -3.9714785 -2.3989184 -0.017190712 -0.31294572 0.17925425 -0.4117582
0.6409266 -1.073159 -0.05683276 -0.17616409 -0.33606294 -1.5911406 -1.7512923 1.840348
-1.987301 8.5307255 -2.8044512 1.0024129 -0.24210317 -0.0012392545 -0.17182572 0.19186282
-0.85310274 -1.8122936 -1.7471316 3.159736 -5.159233 -4.882396 -0.35780793 -2.8317168
-1.1010411 11.206855 -2.388404 -2.167578 0.076372765 0.04534658 -0.33816555 0.034451246
00000000: b75b eac0 664d c13f d5d0 3c40 1da4 0741
00000010: 2e40 173e f62f dd3e 8223 c1bd d186 2a3e
00000020: ecdd 2240 87d6 8840 e014 48c0 e5fd c53f
00000030: 6d13 efc0 ca33 d1c0 be0f ba3f 2463 9cc0
00000040: e1e2 9dbf 386f b6bf f715 8c3d 3ad7 a53f
00000050: 92e6 e740 261a d140 f13e 363f 28b8 c240
00000060: ff3c 73be d583 0dbe 570a 12bf 22bc 5e3d
00000070: f0c0 56be b0ce 5b3f cf94 793e 9bae 203e
00000080: b009 cb3f 23f6 c640 31e5 18bf dae0 0b3f
00000090: c6ac fb3f cdf1 af40 0deb 3dc0 0e7a 64c0
000000a0: a469 3e3f 9614 8240 8ad7 70c0 ce82 173e
000000b0: c840 3dc0 e55d 16c0 3bd8 96c0 ae06 f8be
000000c0: 84b4 7bbf e242 a5bf 10d1 223f be1b e1be
000000d0: 6291 5bc0 b92f d240 f963 57c0 bc41 31bf
000000e0: 9ecd d9bd 0577 05bf c70e 23bb 47f4 5a3e
000000f0: 664c 0740 5e6b 2140 6596 a2be 08ab 8cc0
00000100: 6bbd fcc0 37c0 fcc0 8e6c f33e ab36 cfc0
00000110: 0765 723f 7958 f63f 3f84 b3bf 905f afbc
00000120: d4b6 173f af4c b83e 6177 67be f997 1a3f
00000130: a2e5 04bf d47f 9f3e 2c21 123e 1272 2b3c
00000140: e876 613f abc3 cf3f a034 fd3e 4262 373d
00000150: 9deb bd3f 49f8 1640 9f90 7fc0 c526 6f3f
00000160: 94f3 17bf a77e 54be f690 54bb 2d9d 2a3f
00000170: 0a7e 7fc0 ec94 0f40 d241 93c0 4395 f8be
00000180: 7278 af3b 8b95 f73c 5699 12bf 00eb e3be
00000190: b563 d6be 69de f3bd 3752 4d3d c7cd a83e
000001a0: 366a 7a3f a1da 14c0 99e1 d5bf ca68 0cc0
000001b0: 7477 b040 0f36 7340 bc66 8a3f 6085 27c0
000001c0: c587 d2bf 4c32 7640 64b0 a2c0 3b3d 30bf
000001d0: c629 a7be 6802 9fbe e1c1 dabe 83d2 fc3b
000001e0: 9a3d 49c0 6602 2bc0 b525 0abf 6419 8940
000001f0: 5f8c 333f f318 bcbf 04ff 983f 1639 c4bd
00000200: ad97 473f 6509 9ebe 3b9a 9c3d 5f8a b1be
00000210: 39ba 943e 770a 943f de0e 1c3f cca3 21be
00000220: 3dca 663e 4bcd f93e e526 a53e 7445 ad3c
00000230: afaa fabd b6c5 57bc 20e5 39be b593 893f
00000240: b0c9 fcbe a9db 20bf 5789 36bd 87f4 0c3d
00000250: 9596 213f 197d fabd f408 533e b158 13bd
00000260: 64f1 7cc0 99c7 a73f 5504 26bf fcbc b9be
00000270: bda1 f03f be09 ec3e 677d f5bb 74ff 953e
00000280: 2861 d6bf a185 5540 b42c 7ec0 e187 19c0
00000290: 89d3 8cbc 6c3a a0be 6d8e 373e f9d1 d2be
000002a0: c413 243f 465d 89bf 78c9 68bd 5c64 34be
000002b0: 7110 acbe 7faa cbbf 592a e0bf 8690 eb3f
000002c0: e15f febf da7d 0841 217c 33c0 114f 803f
000002d0: e5e9 77be 7b6e a2ba 15f3 2fbe b077 443e
000002e0: f164 5abf 3df9 e7bf 02a2 dfbf 1d39 4a40
000002f0: 7018 a5c0 973c 9cc0 9a32 b7be d93a 35c0
00000300: eaee 8cbf 474f 3341 9cdb 18c0 99b9 0ac0
00000310: 5369 9c3d 56bd 393d 0924 adbe c01c 0d3d

fc1.bias f4 [50]
0.6073791 -0.7813838 -3.2451699 -3.6316795 -2.6040916 -2.4219244 -0.6853316 -1.5657436
-3.4172347 -0.71518034 -1.6806711 -3.6900284 -1.9996719 -3.6054764 -1.079103 0.36191112
-1.6680857 -3.3808968 -1.3578577 -1.146776 -1.76324 -1.3850036 -1.3091186 0.12760736
-0.84004015 -0.8172076 -5.1945243 -0.333852 -5.3486524 -0.9001389 -1.8540004 -0.58823496
-1.4527115 -1.5663723 -0.7322097 -1.2838591 -1.0111434 -0.95503056 -3.9787061 -2.3404706
-0.67293984 -0.59606117 -2.0504296 -3.846454 -2.8009977 -0.53600115 -1.9105773 -5.185222
-4.926324 -0.3622228
00000000: 327d 1b3f c508 48bf ddb0 4fc0 706d 68c0
00000010: 70a9 26c0 cf00 1bc0 e471 2fbf 496a c8bf
00000020: f9b3 5ac0 0f16 37bf 3b20 d7bf 6d29 6cc0
00000030: 40f5 ffbf 20c0 66c0 0c20 8abf 6a4c b93e
00000040: d583 d5bf 9d60 58c0 48ce adbf 8ec9 92bf
00000050: d9b1 e1bf cc47 b1bf 3391 a7bf 81ab 023e
00000060: df0c 57bf 8434 51bf 8b39 a6c0 a6ee aabe
00000070: 2928 abc0 816f 66bf e34f edbf 9196 16bf
00000080: 73f2 b9bf e37e c8bf 1872 3bbf 7f55 a4bf
00000090: 266d 81bf e27c 74bf 1fa3 7ec0 45ca 15c0
000000a0: c945 2cbf 7797 18bf 3d3a 03c0 4d2c 76c0
000000b0: 8c43 33c0 5f37 09bf cc8d f4bf 57ed a5c0
000000c0: 72a4 9dc0 4475 b9be

fc_out.weight f4 [10, 50]
-1.0458535 0.29422826 0.02351412 3.5366116 -2.6896389 -1.7009776 -0.11447875 -1.2880138
2.1684694 -3.088091 5.300031 -0.858579 0.13869745 2.8752198 0.6700486 3.2311661
-3.2310994 4.859193 0.2122225 -0.4828819 0.27228948 -4.7479095 0.4899286 -1.7546588
0.05497301 0.6241645 2.5902293 -2.6946995 -1.7022611 -0.31069937 -3.164805 -0.27475414
-0.9956527 0.044038378 -0.06085114 0.10682393 -0.24033824 0.24654151 0.67098874 0.64964473
4.1504393 -0.13773625 1.1366271 -0.8735474 -3.2934728 -0.3632928 2.5979235 -2.5957522
0.1601828 0.21333253 -5.9669805 0.33279356 2.224423 -1.6455073 -2.030776 -4.592156
0.22809525 0.19625628 0.60810655 -2.4741905 -4.3696632 -8.248786 -0.77156985 4.336645
1.9472336 2.6686513 -2.0782325 3.7169435 -0.24666376 -0.08409451 -1.5492501 2.6678627
0.35066333 -0.9818542 0.0366963 -0.56891024 -8.096495 -1.9281687 -5.162349 -0.00072209985
-3.476309 -0.37806818 0.019059574 0.68299216 0.20600353 -0.20441346 0.356494 -0.83275074
4.0025244 -0.057023324 2.31259 -0.23633806 -0.011325166 -2.4620702 -2.046434 0.014714036
-0.30724198 -1.2075807 -1.1492954 0.04978289 -4.968825 0.3465746 -0.42522883 -2.2148175
-0.5587218 -1.6845703 -0.31280094 0.22332245 -3.5470421 -1.6657972 0.21759734 0.8059074
3.9257863 1.9152274 0.59937394 2.593297 -2.742661 3.4818861 -0.50235367 -0.76314557
-0.50213826 -1.3924273 0.36716715 -1.2919583 -0.25996262 0.1919925 -4.8563075 -2.930805
-5.707404 0.36596453 -2.4738111 -0.13743488 -0.09920849 0.5253758 -0.06499118 -0.12564762
-0.3582784 -0.40060994 4.746813 0.3463522 1.9151311 0.0023672674 1.0352211 1.5335405
-1.3245945 0.59411997 1.3472904 -2.0246987 -3.3215637 -0.11539805 -1.3692074 0.5932955
2.912367 -1.5609266 -1.193796 -1.7700738 0.0036712764 0.001454137 2.5144007 -0.3086625
2.066834 -1.6147151 1.4483476 0.48273903 1.414615 2.1796608 -3.3681924 1.8553293
-0.24406296 -0.018822312 -0.1905839 -0.6950718 0.92142636 -2.8080332 0.060433164 0.5138147
-1.0694116 -2.1983023 6.339433 0.18853039 0.33419862 2.4520183 0.026469592 -0.26301396
0.076396294 0.19432658 -0.13091968 0.40631998 8.354499 -0.35680988 -1.2371204 -0.5150642
0.38423717 -1.4777647 -7.2466626 -0.120705664 -1.8424573 -0.46348205 -1.8967209 -0.013882562
-0.52981687 0.29122293 0.62884766 -0.0011085926 -0.8158615 -1.7582146 -0.16518953 -0.49476597
-6.524933 -0.7310296 1.5811282 -7.398052 -0.41546652 3.2532766 0.70288354 2.385018
-3.0273385 1.7188429 -0.67433137 0.2238295 0.23152146 -2.3479168 0.89548784 -0.30102643
-0.23669074 0.4222266 -4.8436694 -3.0552933 -6.5502644 0.11265815 -0.2685414 0.62360996
-0.11102522 -0.22230011 -0.05580494 -0.05234735 -0.029400924 0.086367734 1.0793386 -2.0479293
0.022900442 0.01456414 1.2111416 4.72253 0.9456813 0.12369688 1.5115485 -1.2641815
-0.32537642 -0.015037139 -0.18383193 -0.22449489 0.8073979 -0.64394414 0.5073291 -1.7869272
00000000: 87de 85bf 16a5 963e afa0 c03c d857 6240
00000010: 0b23 2cc0 a2b9 d9bf d673 eabd a3dd a4bf
00000020: 34c8 0a40 48a3 45c0 db99 a940 d5cb 5bbf
00000030: b406 0e3e 9a03 3840 4e88 2b3f 6dcb 4e40
00000040: 55ca 4ec0 827e 9b40 db50 593e 4c3c f7be
00000050: 8769 8b3e e0ee 97c0 ecd7 fa3e a998 e0bf
00000060: 612b 613d 3fc9 1f3f 51c6 2540 f575 2cc0
00000070: b1e3 d9bf fd13 9fbe 2a8c 4ac0 93ac 8cbe
00000080: 18e3 7ebf 9661 343d 0c3f 79bd 81c6 da3d
00000090: 3a1b 76be 6175 7c3e ebc5 2b3f 1e4f 263f
000000a0: 66d0 8440 bb0a 0dbe ff7c 913f cda0 5fbf
000000b0: 42c8 52c0 8401 babe 6144 2640 ce20 26c0
000000c0: f606 243e d873 5a3e 81f1 bec0 eb63 aa3e
000000d0: f25c 0e40 fc9f d2bf 3cf8 01c0 f1f2 92c0
000000e0: cd91 693e 68f7 483e dfac 1b3f 2359 1ec0
000000f0: 48d4 8bc0 07fb 03c1 9a85 45bf ccc5 8a40
00000100: f33e f93f 2fcb 2a40 c301 05c0 67e2 6d40
00000110: 6d95 7cbe be39 acbd d44d c6bf 43be 2a40
00000120: 258a b33e cc5a 7bbf dc4e 163d 1aa4 11bf
00000130: 3e8b 01c1 3bce f6bf f731 a5c0 4d4b 3dba
00000140: d97b 5ec0 2792 c1be d322 9c3c 93d8 2e3f
00000150: 97f2 523e c351 51be 6286 b63e 272f 55bf
00000160: ae14 8040 4a91 69bd 7901 1440 9b02 72be
00000170: 308d 39bc 8f92 1dc0 c6f8 02c0 2413 713c
00000180: d24e 9dbe 0192 9abf 1d1c 93bf 25e9 4b3d
00000190: 9d00 9fc0 3a72 b13e 98b7 d9be 92bf 0dc0
000001a0: 6408 0fbf 00a0 d7bf 7227 a0be a4ae 643e
000001b0: bd02 63c0 d838 d5bf d6d1 5e3e f34f 4e3f
000001c0: 1540 7b40 2c26 f53f 9270 193f 94f8 2540
000001d0: c287 2fc0 39d7 5e40 409a 00bf 825d 43bf
000001e0: 228c 00bf 0f3b b2bf 55fd bb3e e45e a5bf
000001f0: d219 85be af99 443e df66 9bc0 4f92 3bc0
00000200: 0ea3 b6c0 b45f bb3e ec52 1ec0 bbbb 0cbe
00000210: d22d cbbd 077f 063f 191a 85bd c5a9 00be
00000220: 4470 b7be bf1c cdbe e4e5 9740 1355 b13e
00000230: 0423 f53f 2824 1b3b 2082 843f 0e4b c43f
00000240: 508c a9bf 3f18 183f 0374 ac3f aa94 01c0
00000250: 8094 54c0 d055 ecbd 3042 afbf 37e2 173f
00000260: 3964 3a40 71cc c7bf 4fce 98bf c791 e2bf
00000270: cc99 703b be98 be3a f1eb 2040 0309 9ebe
00000280: 0247 0440 fcae cebf 7463 b93f 9229 f73e
00000290: 1b12 b53f 907f 0b40 7790 57c0 6e7b ed3f
000002a0: a4eb 79be 4031 9abc 6d28 43be 3af0 31bf
000002b0: 99e2 6b3f d1b6 33c0 c488 773d 5c89 033f
000002c0: 7be2 88bf fcb0 0cc0 a3dc ca40 1c0e 413e
000002d0: 151c ab3e deed 1c40 c2d6 d83c c4a9 86be
000002e0: a975 9c3d 8cfd 463e cf0f 06be 2c09 d03e
000002f0: 07ac 0541 c9af b6be f659 9ebf 3fdb 03bf
00000300: bcba c43e 6527 bdbf a9e4 e7c0 8834 f7bd
00000310: a4d5 ebbf 854d edbe c0c7 f2bf af73 63bc
00000320: 14a2 07bf 2c1b 953e 29fc 203f 324e 91ba
00000330: 4ddc 50bf 2d0d e1bf 7227 29be f751 fdbe
00000340: 40cc d0c0 c224 3bbf 6962 ca3f d8bc ecc0
00000350: 07b8 d4be af35 5040 2df0 333f 23a4 1840
00000360: eabf 41c0 0b03 dc3f fba0 2cbf 8f33 653e
00000370: f613 6d3e 4544 16c0 b13e 653f 2320 9abe
00000380: 0f5f 72be 162e d83e 57ff 9ac0 ed89 43c0
00000390: c49b d1c0 51b9 e63d 427e 89be e7a4 1f3f
000003a0: 3161 e3bd a4a2 63be b993 64bd 2d6a 56bd
000003b0: 35da f0bc 91e1 b03d c427 8a3f 4611 03c0
000003c0: b599 bb3c 6e9e 6e3c b006 9b3f f71e 9740
000003d0: 2b18 723f ca54 fd3d 6c7a c13f b3d0 a1bf
000003e0: bd97 a6be 555e 76bc 703e 3cbe fde1 65be
000003f0: a1b1 4e3f 86d9 24bf 52e0 013f 08ba e4bf

fc_out.bias f4 [10]
5.142644 4.3954268 6.3125215 5.416056 5.590273 4.1629705 1.5836116 -0.18054262
-0.7194628 -2.5950892
00000000: 8a90 a440 56a7 8c40 2d00 ca40 5550 ad40
00000010: 84e3 b240 0e37 8540 c9b3 ca3f 2ae0 38be
00000020: b72e 38bf f115 26c0
