models/demo_A0TOKYO_15_33_42_314.pt (torch_old, 3768 bytes, 4 tensors)

fc1.weight f4 [50, 4]
0	0xbfb1b55c	-1.3883471
1	0x3f3dfbbe	0.74212253
2	0xbfa4782e	-1.2849176
3	0x3f89a3be	1.0753095
4	0x3fb75015	1.4321314
5	0xbfa7beff	-1.3105162
6	0xbfb613b8	-1.4224768
7	0xbf27aa21	-0.6549397
8	0xbe892282	-0.2678414
9	0x3f25f71f	0.648302
10	0xbf4cf33e	-0.8005866
11	0x3fe7fc75	1.8123919
12	0xc0248564	-2.5706415
13	0x3fa2bf3d	1.2714611
14	0xbfa8d41c	-1.3189731
15	0xbfa085b5	-1.2540804
16	0xbe46a221	-0.19397785
17	0xbf3eef1e	-0.74583614
18	0x3c4cf256	0.012508949
19	0x40921396	4.564891
20	0x3e47bed8	0.19506395
21	0xbe85cbd0	-0.2613206
22	0xbfb62921	-1.4231302
23	0xc006feea	-2.1093087
24	0xbefdfa2b	-0.49604926
25	0x3cc8a7fb	0.024494162
26	0xbfde8c66	-1.7386596
27	0xbf815cda	-1.0106461
28	0xbfaa8af6	-1.3323658
29	0x3f6416a6	0.8909706
30	0xbf21a83f	-0.6314735
31	0xbf654f60	-0.8957424
32	0xbf98633f	-1.1905288
33	0x3f93a33f	1.1534194
34	0xc0004fc9	-2.0048697
35	0xbf9664c7	-1.1749505
36	0x3f4b40b4	0.79395604
37	0xbf1b23cb	-0.6060149
38	0x3fa29059	1.2700301
39	0x405d63fc	3.4592276
40	0xbf3bb946	-0.7332958
41	0x3ffddc67	1.9832886
42	0xbebb93c8	-0.36636186
43	0xbfdb9d8f	-1.7157458
44	0xbe4ba4bb	-0.19887058
45	0xbe83ad5e	-0.25718206
46	0xbe118643	-0.14211373
47	0xbfd5ad06	-1.6693428
48	0x3c2f562a	0.010701695
49	0xbf9fa5b1	-1.247244
50	0x3f165866	0.58728635
51	0xbfa40eef	-1.2817057
52	0x3f758b7e	0.95915973
53	0x3d7fb8be	0.062432043
54	0x401fd308	2.4972553
55	0xbf78d3c0	-0.97198105
56	0xbf91eb9e	-1.140003
57	0xbf85d1bd	-1.0454632
58	0xbef90aa1	-0.48640922
59	0xbfed5808	-1.854249
60	0x3f2578f5	0.6463769
61	0x3dc14b58	0.09438199
62	0x3fb86dfc	1.4408565
63	0xbf91ecd1	-1.1400396
64	0xbfd1f50f	-1.6402911
65	0x3f544901	0.82923895
66	0xbf639abe	-0.8890799
67	0xbf0eae00	-0.5573425
68	0xbfbaae3b	-1.4584421
69	0x3f9931cb	1.1968321
70	0xbfa02632	-1.2511656
71	0xbfd58276	-1.6680439
72	0x3fd65901	1.6745912
73	0xbf81f2ac	-1.0152183
74	0x3ec4b0c1	0.38416103
75	0x40482689	3.127352
76	0xbf732427	-0.9497704
77	0x3f12659b	0.5718629
78	0xbff34b9f	-1.9007453
79	0xbf10e0d1	-0.5659304
80	0xbfaccf9a	-1.3500855
81	0x3f7bfa89	0.9842916
82	0xbf673f58	-0.9033103
83	0xbfe7a3b8	-1.8096838
84	0x3f0d68c1	0.55237967
85	0x3f815b6c	1.0106025
86	0xbfe95545	-1.8229147
87	0x3eb2ff50	0.34960413
88	0xbd0fb863	-0.035087954
89	0xbf44dffa	-0.7690426
90	0xbd23e88b	-0.040016692
91	0x3fffb374	1.997664
92	0x40224ab1	2.5358088
93	0xbf539dcf	-0.8266267
94	0x3eb720f4	0.3576733
95	0xbcdc01f7	-0.026856406
96	0x3e42cee0	0.19024229
97	0x3e2943bc	0.16529745
98	0xbf8537ac	-1.0407615
99	0xbf8e6f84	-1.1127782
100	0xbd81ea35	-0.063434996
101	0xbe379128	-0.17926466
102	0xbfe6f639	-1.8043891
103	0xbf05b863	-0.52234477
104	0x4015a67b	2.3382862
105	0xbf8af199	-1.085498
106	0x3cd7e392	0.026353631
107	0x3f94e672	1.1632826
108	0x40001ec1	2.001877
109	0xbfddb929	-1.7322131
110	0x3fac102e	1.3442438
111	0xbf2a2460	-0.66461754
112	0xc0144133	-2.3164794
113	0x40160eec	2.3446608
114	0xbf97b361	-1.1851617
115	0x3ee84afb	0.45369706
116	0xbf97bc75	-1.1854388
117	0x3f0abc1c	0.5419328
118	0xc00370b8	-2.0537548
119	0xbedb2751	-0.42803434
120	0x3e08ad05	0.13347252
121	0xbe1c0f7f	-0.15240286
122	0xbfac4a62	-1.34602
123	0xbf5f7dbb	-0.87301224
124	0x3f810cb1	1.0081998
125	0xbf70e0ad	-0.9409283
126	0xbcc5fbcf	-0.024167923
127	0xbf9b90a7	-1.2153519
128	0x3e7b544e	0.24543878
129	0xbf9dc4c0	-1.2325668
130	0xbe3b3e67	-0.18285523
131	0xbf93cfb1	-1.1547757
132	0xbf6321b7	-0.8872332
133	0x3fac4563	1.3458675
134	0xbefd1ebb	-0.49437508
135	0xbfcb90ec	-1.5903602
136	0x3f70bd85	0.94039184
137	0x3f37d712	0.71812546
138	0x3f363f38	0.71190214
139	0xbf11a8be	-0.56898105
140	0xbf747405	-0.9548953
141	0x3f2a4de9	0.6652513
142	0xbfc10622	-1.5079997
143	0xbead9e8d	-0.33910027
144	0xbf1ab6d3	-0.6043522
145	0x3bc585f5	0.006027932
146	0xbf7939e5	-0.97353965
147	0xbf813b0f	-1.0096148
148	0xbe1f4b4b	-0.15556066
149	0xc002c84a	-2.0434747
150	0x3fbfe059	1.499034
151	0x40364de3	2.8485038
152	0x3f72a213	0.94778556
153	0xbf81ffbe	-1.0156171
154	0x3fb1b678	1.388381
155	0x3f5902d8	0.84769964
156	0x3ee543a4	0.44778168
157	0x3ee7cb22	0.45272166
158	0xbf4d1f92	-0.801263
159	0xbfd06adc	-1.6282611
160	0xbfed38d2	-1.8532965
161	0xbecae8ff	-0.39630887
162	0xbecaa4a3	-0.39578733
163	0x3f01c82e	0.50696075
164	0xbfcc90d6	-1.59817
165	0x400661a1	2.0997088
166	0x3da02a16	0.07820527
167	0xbf8b44a0	-1.0880318
168	0x3fcb8b20	1.5901833
169	0xc0178fdb	-2.3681552
170	0xbe7eb5a6	-0.24873981
171	0xbf6d4739	-0.926868
172	0xbf980788	-1.1877298
173	0xbec936f1	-0.3929973
174	0x3d18c648	0.03729847
175	0xbe64b182	-0.22333339
176	0xbf514dd0	-0.8175936
177	0xbf079d8b	-0.52974766
178	0xbf8b7d85	-1.089768
179	0xbeb00aec	-0.34383333
180	0x3f7b0a82	0.9806291
181	0xbf9e1f32	-1.235327
182	0xbf5206a4	-0.8204138
183	0xbe9930a5	-0.29919925
184	0xbfbaf4f9	-1.460601
185	0x3f22a13c	0.63527274
186	0xbf82e909	-1.0227367
187	0x3f98826d	1.1914803
188	0xc009f011	-2.1552775
189	0x3e7ae0f5	0.24499877
190	0x3fc327f9	1.5246574
191	0xbf711e87	-0.94187206
192	0xbf0ea3ef	-0.5571889
193	0x3feb31b6	1.8374546
194	0x3f5c10aa	0.8596293
195	0xbfa20ed2	-1.2660773
196	0xbec246ad	-0.37944546
197	0x3f15d42c	0.58526874
198	0xbfd36387	-1.6514748
199	0xbfd6fd56	-1.6796062

fc1.bias f4 [50]
0	0x3f6e24fe	0.93025196
1	0x3fa1c0af	1.2636927
2	0x3fa90179	1.3203574
3	0xbccc1b49	-0.024915354
4	0x3f8f0dc4	1.1176076
5	0x3e957e8a	0.29198104
6	0x3ef2eae5	0.47444835
7	0x3f4a07a3	0.789179
8	0xbf537b50	-0.82610035
9	0x3f3b5eda	0.73191607
10	0x3f4f2944	0.8092234
11	0x3f9a9c84	1.2079015
12	0x3f640ad9	0.8907905
13	0x3e7266a0	0.23671961
14	0x3e6af256	0.22944006
15	0x3f9bb675	1.2165056
16	0x3f0409fa	0.51577723
17	0x3f61da34	0.88223577
18	0xbcdee444	-0.027208455
19	0x3edfeff6	0.43737763
20	0x3f506f74	0.81420064
21	0x3f7a23c4	0.97710824
22	0x3f7b2dc6	0.9811672
23	0x3e8d6d54	0.27622473
24	0xbeea8730	-0.45806265
25	0x3f32d178	0.69850874
26	0x3f67b706	0.90513647
27	0x3cc724de	0.024309572
28	0x3ec47318	0.3836906
29	0x3ee77856	0.45208997
30	0x3f9019d3	1.1257881
31	0x3f58bb5d	0.84660894
32	0x3ee633c4	0.4496137
33	0x3f2454f6	0.6419214
34	0x3f53eca1	0.8278294
35	0xbf9aba4d	-1.2088104
36	0x3f33810e	0.70118797
37	0x3da1504b	0.07876643
38	0x3f807978	1.0037069
39	0xbfab00a8	-1.3359575
40	0x3f699d5b	0.9125573
41	0x3f11afae	0.5690869
42	0xbf488003	-0.7832033
43	0x3e8a5c2e	0.27023453
44	0x3f0bb0d4	0.54566693
45	0x3fc5712e	1.5425165
46	0x3fba4599	1.455249
47	0x3ec48e5e	0.38389868
48	0x3f38b678	0.72153425
49	0x3faa3283	1.3296665

fc_out.weight f4 [10, 50]
0	0x3f545011	0.8293467
1	0x3f59c49d	0.85065633
2	0x3f650723	0.89464015
3	0xbe54ae57	-0.2076963
4	0xc0017d47	-2.0232713
5	0xbe4f8397	-0.20265041
6	0xbe9e8943	-0.30964097
7	0xbe852050	-0.26001215
8	0xbeb5b825	-0.35492054
9	0xbfc0da4d	-1.506662
10	0xbf1c4aea	-0.6105181
11	0xbdbe123b	-0.09280821
12	0x3f19057a	0.5977398
13	0x3f854adc	1.041347
14	0xbde711e0	-0.11282706
15	0x3f3049e7	0.68862766
16	0x3ee15a6f	0.44014308
17	0xbeb1dbb8	-0.34737945
18	0x3d9b8e75	0.07595531
19	0xbe8e9b2f	-0.2785277
20	0xbdf40dbc	-0.11916682
21	0x3e937c3b	0.28805718
22	0xbfc27d6d	-1.5194527
23	0x400e04f5	2.2190526
24	0xbeb56e11	-0.35435537
25	0xbdb08798	-0.086196125
26	0xc0027171	-2.038174
27	0xbff2b96e	-1.8962839
28	0xbe881e7d	-0.2658576
29	0xbec0fd14	-0.37693083
30	0x3e6f4e5b	0.23369734
31	0x3f15f00c	0.5856941
32	0xbe064d0a	-0.13115326
33	0xbf09a03c	-0.53760123
34	0x3fc0ec2b	1.5072073
35	0xbfdb0095	-1.7109553
36	0xbef712f7	-0.48256657
37	0xbe100cbf	-0.14067362
38	0xbfdb6151	-1.7139074
39	0xbfaf684c	-1.3703704
40	0x3ec959fa	0.3932646
41	0x3fa7eb6b	1.3118719
42	0x3d9be55d	0.07612107
43	0xbef7703c	-0.48327816
44	0x3e6508a6	0.2236658
45	0x3f6eb915	0.9325116
46	0x3edaf64e	0.4276604
47	0xbf30a0b4	-0.68995214
48	0x3f0d241e	0.55133235
49	0x3dff26b8	0.12458557
50	0x3f5069f2	0.8141166
51	0x3f960a20	1.172184
52	0x3ecf65bd	0.40507308
53	0xbe196682	-0.1498051
54	0xbfaada02	-1.3347781
55	0xbf274184	-0.65334344
56	0xbe43780a	-0.1908876
57	0xbe6afc4f	-0.2294781
58	0xbf097d54	-0.5370686
59	0xbf760794	-0.96105313
60	0xbe9f59d7	-0.3112323
61	0xbe931706	-0.28728503
62	0x3f95ffc9	1.1718684
63	0x3f357c53	0.7089283
64	0xbe90dbbb	-0.2829264
65	0xbda2fe4e	-0.07958661
66	0xbecf18fa	-0.40448743
67	0xbdef2460	-0.1167686
68	0xbf462b32	-0.7740966
69	0xbefc3f43	-0.49267015
70	0xbe442fb0	-0.19158816
71	0xbef81947	-0.48456785
72	0xbe96d7f1	-0.29461625
73	0x3e8bc080	0.27295303
74	0xbf3e55eb	-0.7434985
75	0xbee836a6	-0.45354193
76	0xbf783821	-0.96960646
77	0xbfafea54	-1.3743386
78	0xbed898a8	-0.42303967
79	0xbe4851cf	-0.19562458
80	0xbe5e7fcf	-0.21728443
81	0x3f9d6538	1.2296515
82	0x3f8807cd	1.0627381
83	0xbe1e58c7	-0.15463553
84	0x3f82be94	1.021441
85	0x3e543536	0.20723423
86	0x3d826bf1	0.063682444
87	0xbf25b703	-0.6473238
88	0xbf829bf0	-1.0203838
89	0xbffb3f62	-1.9628718
90	0x3e711c05	0.23545845
91	0x3f54b6c4	0.8309138
92	0xbfacb861	-1.3493768
93	0xbe5a78c9	-0.21335138
94	0x3e10917d	0.14118
95	0x3f9bfa57	1.2185773
96	0x3e2aa9b7	0.16666304
97	0x3f06e4c1	0.526928
98	0x3e097c62	0.13426355
99	0xbea0629c	-0.31325233
100	0x3f1aa828	0.60412836
101	0x3f53beb3	0.8271286
102	0x3f22f000	0.6364746
103	0xbe2b2d0e	-0.16716406
104	0xbf7a82c3	-0.97855777
105	0xbe55d40a	-0.20881668
106	0xbeb01570	-0.34391356
107	0xbf19a07e	-0.60010517
108	0xbec98561	-0.39359573
109	0xbf859c3b	-1.0438303
110	0xbec85d7f	-0.39133832
111	0x3e35ac17	0.17741428
112	0x3f2e0f80	0.679924
113	0x3f902986	1.1262672
114	0xbd88f86d	-0.066880085
115	0x3f84d0c6	1.0376213
116	0xbebc384f	-0.3676171
117	0xbe063bdb	-0.1310877
118	0xbf542ac3	-0.8287775
119	0xbe252cac	-0.16130322
120	0xbed64210	-0.41847277
121	0x3debd91e	0.11516021
122	0xbf0597ac	-0.5218456
123	0x3f117bb5	0.56829387
124	0xbf170f61	-0.5900784
125	0xbd99a8a3	-0.07502868
126	0xbf60fa55	-0.87881976
127	0xbfa3671a	-1.2765839
128	0xbefdac25	-0.49545398
129	0xbe35f019	-0.17767371
130	0x3edad68d	0.42741814
131	0x3f55ad1b	0.83467263
132	0x3f3ff4d3	0.7498295
133	0xbe353fa5	-0.1770006
134	0x3e954576	0.29154557
135	0xbf2ee513	-0.6831829
136	0x3d5b561f	0.05354893
137	0xbf168c90	-0.5880823
138	0xbf8ae6cc	-1.0851684
139	0xbff08a00	-1.8792114
140	0xbd824e86	-0.063626334
141	0x3f018a5f	0.5060176
142	0xbf25734f	-0.6462907
143	0xbf83bb4d	-1.0291535
144	0x3f142252	0.5786487
145	0x3f58994a	0.846089
146	0x3efb262f	0.4905257
147	0xbea76180	-0.32691574
148	0xbf7e76b4	-0.99399877
149	0xbeb87398	-0.3602569
150	0x3f27bd09	0.6552282
151	0x3fd7975b	1.6843065
152	0x3f0fcee4	0.56175065
153	0xbf01a909	-0.5064855
154	0xbf482aa7	-0.7819008
155	0xbf225aca	-0.63419783
156	0xbda42f11	-0.0801679
157	0x3e52405e	0.20532367
158	0xbee081d3	-0.43849048
159	0xbf806a25	-1.0032393
160	0xbe9d6667	-0.3074219
161	0xbebde5a7	-0.37089273
162	0x3f4bafff	0.79565424
163	0x3dfb685a	0.12275763
164	0xbea32853	-0.31866702
165	0x3edf924a	0.43666297
166	0x3f04f74f	0.5193986
167	0x3e06cf8d	0.13165112
168	0xbf8c3c44	-1.0955892
169	0xbd15fc70	-0.036617696
170	0xbe950369	-0.29104164
171	0xbefe4509	-0.49662045
172	0x3f0a05e6	0.5391525
173	0xbf290fb9	-0.66039616
174	0xbe28e9c0	-0.16495419
175	0xbddef90c	-0.10887346
176	0x3e77b052	0.24188355
177	0xbf3e4ad8	-0.7433295
178	0xbf7afa6f	-0.9803838
179	0xbe167b30	-0.1469543
180	0xbeda1e39	-0.42601183
181	0x3fe6d9fd	1.8035275
182	0x3f1d3632	0.6141082
183	0xbe076150	-0.13220716
184	0x3ecb544a	0.39712745
185	0xbf48139a	-0.7815491
186	0x3db55f30	0.08856046
187	0xbfe4d91e	-1.7878759
188	0xbe218856	-0.15774664
189	0xbfa4821b	-1.2852205
190	0xbf0ae522	-0.5425588
191	0x3def2335	0.11676637
192	0xbfc845c3	-1.564629
193	0xbf1ab631	-0.6043425
194	0xbf2a3d9a	-0.66500247
195	0x3f8d04c3	1.1017078
196	0x3e8fb31b	0.28066334
197	0x3f566cbe	0.8375968
198	0xbe99e84b	-0.30060038
199	0xbf1558e3	-0.58338755
200	0x3f3702c6	0.71488607
201	0x3f470c1b	0.77752846
202	0xbe6ff0a4	-0.23431641
203	0xbf4299ee	-0.7601613
204	0xbe3e317a	-0.18573561
205	0xbc8a0a94	-0.016850747
206	0x3cf9dc46	0.030500542
207	0xbf314ff7	-0.6926264
208	0xbf56db73	-0.839286
209	0xbf230b26	-0.63688886
210	0xbf22a43e	-0.63531864
211	0x3ef92a30	0.48665
212	0x3f17fde9	0.5937181
213	0x3f47486f	0.778449
214	0xbf55cba9	-0.83513886
215	0x3f336989	0.7008291
216	0xbe91476e	-0.2837481
217	0xbf66875a	-0.9005028
218	0xbf448a4a	-0.7677351
219	0x3ef452d8	0.47719455
220	0xbf3576b1	-0.70884234
221	0xbf194df7	-0.5988459
222	0x3f0b6d8a	0.5446402
223	0xbeb40449	-0.3515952
224	0xbef55314	-0.47914946
225	0x3dfa0afb	0.122091256
226	0x3e28ffd3	0.16503839
227	0xbf32419b	-0.69631356
228	0xbf979c62	-1.1844599
229	0x3e8390b1	0.25696328
230	0x3e953ba2	0.2914706
231	0x3f5b9423	0.85772914
232	0x3ed7abad	0.42123166
233	0xbf49ac4e	-0.7877854
234	0x3f3a2c4a	0.7272383
235	0xbf25edff	-0.6481628
236	0x3eaf79ac	0.34272516
237	0xbf7cb70d	-0.98716813
238	0xbe874d10	-0.26425982
239	0xbf5d6ed6	-0.8649725
240	0xbeb9adbd	-0.36265364
241	0xbf59da71	-0.8509894
242	0xbf88a418	-1.0675077
243	0xbf047788	-0.5174489
244	0x3e7ecf6f	0.24883817
245	0x3f3bf253	0.7341663
246	0x3ddd9340	0.10819101
247	0x3eb315e8	0.3497765
248	0xbf33c7c4	-0.70226693
249	0x3d4c173e	0.049826853
250	0x3f1eee72	0.6208259
251	0x3ea9d2e6	0.33168715
252	0x3eb19306	0.34682482
253	0xbf041832	-0.5159942
254	0xbf84be95	-1.0370661
255	0xbb99a380	-0.00468868

fc_out.bias f4 [10]
0	0x3eaa56ca	0.3326934
1	0xbd8759f3	-0.06608953
2	0xbe384929	-0.17996658
3	0xbe051c89	-0.12999167
4	0xbe4d2360	-0.20033026
5	0x3c7bfd60	0.0153802335
6	0x3e62cde7	0.22148858
7	0xbe405e0d	-0.18785878
8	0xbe593b75	-0.21214087
9	0xbea0a728	-0.3137753
