models/demo_A0TOKYO_17_52_36_314.pt (torch_old, 3768 bytes, 4 tensors)

fc1.weight f4 [50, 4]
000000 a5 b7 a9 bf 2a 3d 25 3f 1b 3c 75 bf 54 83 0e 3f
       -1.3259169 0.64546454 -0.9579484 0.5566914
000010 d1 0a 2d 3f 77 76 08 bf aa f4 91 bf 10 53 4a 3f
       0.6759463 -0.53305763 -1.140279 0.79032993
000020 5a 7f d2 be 15 e4 4f 3f d6 89 80 bf 67 ba 39 3f
       -0.41112787 0.812074 -1.0042064 0.7255005
000030 37 30 00 c0 1c 5d 4c 3f b5 fe bb bf 6d 75 fa bf
       -2.0029428 0.79829574 -1.4687105 -1.9567086
000040 e0 3a ee bd 8e e2 50 bf 97 2b 9d be e9 b6 6a 40
       -0.11632323 -0.81595695 -0.3069732 3.667414
000050 52 18 68 3f c1 45 75 bf 20 fe de bf 08 15 15 c0
       0.9066211 -0.9580956 -1.7421303 -2.3294086
000060 ac 76 69 3f 49 5d a5 bf 6d 73 62 bf 16 c9 32 bf
       0.91196704 -1.2919093 -0.88457376 -0.6983808
000070 e1 c3 89 bf 49 d1 2c 3f 1b d4 96 bf 61 40 f3 bf
       -1.0762902 0.67506844 -1.178348 -1.9004022
000080 47 4a e8 be a2 eb 05 3f 75 82 e8 bf be fa cd bf
       -0.4536917 0.5231267 -1.8164812 -1.6092145
000090 a6 06 b4 3e 6b c9 2b be 2d c6 73 3e 56 7a 71 40
       0.35161322 -0.16776054 0.23806067 3.7730918
0000a0 69 3d 33 bf 7b df 01 40 dd a7 6c 3e d3 f2 a8 bf
       -0.7001558 2.0292652 0.2311091 -1.3199104
0000b0 24 d5 9b 3e 27 3c 31 bf fb 7c cd be d8 98 f3 bf
       0.3043605 -0.6923241 -0.40134415 -1.9031019
0000c0 dd 90 8d be 41 1d 80 bf 68 92 da 3d aa 66 69 bf
       -0.27649584 -1.0008928 0.10672456 -0.9117228
0000d0 56 5f 83 3f 97 2d 53 3d c3 f3 b9 3f f9 95 e2 bf
       1.0263469 0.05155715 1.4527515 -1.7702018
0000e0 10 a0 b9 bd 1c dc fd bf 72 74 16 3f 5a 8b 7d bf
       -0.090637326 -1.9832797 0.5877143 -0.9904076
0000f0 c7 91 26 3f 7b 80 a0 3d c2 93 bb 3f 76 e3 e5 bf
       0.6506619 0.07837006 1.4654467 -1.796004
000100 85 f4 b2 bf b3 c0 11 3f 91 fd 30 bf 3e bc a7 bf
       -1.3980871 0.5693466 -0.6913691 -1.3104322
000110 6b f6 56 c0 e4 e2 4b 40 01 ce 18 be 29 a6 f7 be
       -3.3587902 3.1857233 -0.14922334 -0.48368958
000120 24 2f 33 40 fe d1 08 c0 75 33 e2 3d 94 ac 8a 3e
       2.7997522 -2.137817 0.11044971 0.27084792
000130 10 59 ef bd 2f b1 3f be 47 f3 07 c0 2b 45 8e bf
       -0.11686909 -0.18719934 -2.1242235 -1.1114858
000140 72 29 cd be 3d 40 1d 3e 13 17 12 bf a5 16 18 c0
       -0.40070683 0.15356536 -0.5706646 -2.376382
000150 1d 85 8a 3f df 68 10 3f a2 52 15 c0 8d 15 1d 3e
       1.0821873 0.5641002 -2.3331685 0.15340252
000160 b2 6e 70 bf 50 22 08 3e 12 4a bb 3f be 51 94 3f
       -0.9391891 0.13294339 1.463198 1.1587446
000170 35 3b 72 3f 87 10 44 3f cf fa 21 3f 1b bb 0a bf
       0.9462159 0.7658772 0.6327333 -0.5419175
000180 92 8c 05 3f 96 a0 56 be 63 9e ea bf 53 bf 0f c0
       0.5216762 -0.20959696 -1.8329586 -2.2460525
000190 53 66 ce 3e a7 08 19 bf d4 e2 d4 bf a3 25 57 bf
       0.40312442 -0.5977883 -1.6631722 -0.84041804
0001a0 aa 67 40 40 94 de e0 bf 06 9c b3 bd 09 52 88 3e
       3.0063272 -1.7567925 -0.087699935 0.26625088
0001b0 f5 e8 fe 3f 77 e8 db bf 4a 59 db 3f f4 39 02 bf
       1.9914843 -1.7180318 1.7136624 -0.5086968
0001c0 d1 7f c0 bf 8a 99 cf 3f a2 3a 55 bf 70 dd 76 bf
       -1.5039006 1.6218731 -0.8329259 -0.96431637
0001d0 43 f5 d4 3e b5 9e 75 bf aa 3d 25 c0 ec 1a 26 bf
       0.4159337 -0.9594529 -2.5818887 -0.6488483
0001e0 13 81 92 3f cc a4 8c bf 04 63 02 bf 36 2d 1d bf
       1.144564 -1.0987792 -0.50932336 -0.6139711
0001f0 ca 09 86 3f 6d 0a 86 bf ca 2c cd 3d 2a c0 ab bf
       1.0471737 -1.0471932 0.100183085 -1.3418019
000200 b5 72 95 3f 96 b5 0c c0 eb dc 0c be 64 f7 55 bf
       1.1675631 -2.1985831 -0.13756149 -0.83580613
000210 fa c0 18 bf 12 79 8c 3f 3e 7b 16 bf 91 5a eb bf
       -0.5966946 1.0974448 -0.587818 -1.8387014
000220 47 a0 fd be 13 cd 0b 40 8c 0c 27 3f 2f b6 47 3f
       -0.49536344 2.1843917 0.6525352 0.78012365
000230 a9 b3 1c 3f 25 d2 51 bf 57 8d c1 bf f1 79 d0 3e
       0.6121164 -0.8196128 -1.5121258 0.40718034
000240 77 44 98 be 28 9d 80 be 3d 5f d2 bf b6 95 e7 bf
       -0.29739735 -0.251199 -1.6435314 -1.8092563
000250 55 89 77 bf 97 f9 9c bf c2 94 92 3e 96 f4 75 40
       -0.9669393 -1.2263669 0.28629118 3.8430533
000260 8a 2f 23 3f e2 de 34 bf 40 f7 97 3f c7 28 cc 3f
       0.63744414 -0.7065259 1.187233 1.5949944
000270 f8 0c 9b 3d bd 4f 55 3f af 75 df bf 28 4e ce bf
       0.07570833 0.83324796 -1.7457789 -1.6117601
000280 3f b1 ec be 71 8b d1 bf 4a f8 81 be 48 99 20 3e
       -0.46228978 -1.6370679 -0.25384742 0.15683472
000290 19 45 ad 3e 26 30 20 3e 49 08 4a 3f 89 0a 6b c0
       0.3384178 0.15643367 0.7891889 -3.672518
0002a0 38 04 f2 3f 9c 87 2a c0 97 1b 11 3f b6 c9 2c bf
       1.8907537 -2.664527 0.56682724 -0.67495286
0002b0 76 96 0c c0 fb 84 22 3f a5 55 db 3c 16 98 9f bd
       -2.1966834 0.6348416 0.026774237 -0.0779268
0002c0 77 0f 7f 3f 49 6c 0f c0 1b 7b 9c be 8c 62 64 bf
       0.9963297 -2.2409842 -0.30562672 -0.8921287
0002d0 01 95 30 3f 0a cf 6b bf 68 c3 43 bf 44 40 76 be
       0.6897736 -0.9211279 -0.7647004 -0.24047953
0002e0 03 d6 aa bf 19 75 04 3f b6 ea a3 bf 96 81 6c 3f
       -1.3346561 0.51741177 -1.2806003 0.9238523
0002f0 2d e7 74 bf bb 98 57 bf ac e0 5d 3f 5b 8b 94 bf
       -0.95665246 -0.84217423 0.8667095 -1.1605028
000300 db 8b 32 3f d7 b6 0e 3f e3 d4 86 3f a8 71 49 c0
       0.6974465 0.5574774 1.0533718 -3.147562
000310 08 cf fa 3e 24 25 73 be 3a 12 f1 bf 73 71 d6 bf
       0.48986077 -0.23744637 -1.8833687 -1.6753372

fc1.bias f4 [50]
000000 31 2e e8 3e b8 1b 26 be 11 ac ac 3c 4d b0 11 3f
       0.4534774 -0.16221511 0.021078141 0.5690964
000010 14 ae 9d 3f 2f 88 87 3f 0b b5 d2 3e b2 a2 b0 3e
       1.231875 1.0588435 0.4115375 0.34499127
000020 47 19 aa bf b5 ff 69 3f ad 07 43 b9 0d 54 76 3f
       -1.3288964 0.914058 -0.00018599509 0.96222
000030 ae 7f 07 3f fc 32 3a 3f 4b 72 7e 3f c3 cf 52 3f
       0.529292 0.72734046 0.9939315 0.8234827
000040 69 1f 9d 3e e9 b2 8c be 48 f9 52 3f db 66 2f 3f
       0.30688027 -0.27480248 0.82411623 0.6851632
000050 a2 e6 2a bf b5 e5 d3 3e 2b 3c 9c 3d 50 0d 3d 3f
       -0.6675817 0.4138619 0.07628664 0.7384844
000060 e5 ac 09 3f e1 a3 bb 3f 8a bd 9a 3f 4a 26 5d bd
       0.5377944 1.4659387 1.2089093 -0.053991593
000070 a7 5f 5f 3f 7f a8 90 3e 03 ef 81 3f 99 a3 14 3f
       0.8725533 0.28253552 1.0151066 0.5806213
000080 e8 59 89 bf cb 0a 84 3d 03 9e 98 3e f3 1f 11 3f
       -1.0730562 0.06447371 0.29808053 0.56689376
000090 b4 a1 c1 3e b6 95 90 3f 44 8a 03 40 26 59 9c bf
       0.37818682 1.1295688 2.055314 -1.2214706
0000a0 e9 5d ab 3f d9 cc 92 bf ea 7d a3 bf b1 3b 45 3f
       1.3388034 -1.1468765 -1.2772801 0.77044207
0000b0 de 24 9b 3f 99 e9 04 3f 34 6a f2 3e c0 33 59 3f
       1.2120626 0.5191894 0.47346652 0.8484459
0000c0 af 16 54 bf 38 fb eb 3f
       -0.8284711 1.8436041

fc_out.weight f4 [10, 50]
000000 b8 d9 93 3f e2 17 97 bf dd a4 36 3c eb 41 bb bd
       1.1550817 -1.1804163 0.011147705 -0.09143432
000010 c0 fc 24 c0 3d 3e c2 be 29 3f a6 3f d8 7c e1 3d
       -2.5779266 -0.3793811 1.2988025 0.1101014
000020 8d e3 41 bf de b9 40 be 4e 95 9e be 1c 10 df be
       -0.7573784 -0.18820903 -0.30973285 -0.43566978
000030 cb e9 7f bd 4b 1c a2 be ae 91 1e 40 c3 cf 47 3f
       -0.06247882 -0.3166221 2.4776416 0.78051394
000040 55 d5 c4 3e 54 ee 85 3f 63 d8 ef 3f df 66 c5 be
       0.3844401 1.0463357 1.8737911 -0.38555047
000050 08 44 36 3e 89 a3 0c 3e ac df d6 be e0 3b 83 bd
       0.1779939 0.13734259 -0.41967523 -0.064079046
000060 34 93 c1 be f5 ce b5 be 88 8f 24 c0 95 5f b6 bf
       -0.3780762 -0.35509458 -2.5712605 -1.4247919
000070 28 1d e8 be 3f 19 06 bf 5d 25 a8 3e f7 9a 13 3e
       -0.45334744 -0.5238227 0.32841006 0.14414583
000080 db ab 9a bf 7d 46 c5 be a5 fc 0f 40 cf 0e 96 3f
       -1.2083696 -0.3853034 2.2497952 1.1723269
000090 5d f5 18 bf 54 d7 69 bf b4 31 36 c0 7e a1 84 be
       -0.59749395 -0.9134419 -2.8467836 -0.2590446
0000a0 39 ad ea 3f ed a7 8e be 7d ae 19 c0 55 1b b0 be
       1.8334113 -0.27862492 -2.401275 -0.34395853
0000b0 f6 92 d2 3e c9 6f eb 3d b6 6e 8d 3f 12 74 a9 be
       0.41127747 0.11495931 1.1049411 -0.33096367
0000c0 c5 97 f8 3c 0a dd 9d bd 16 38 3f 3f be ef ed 3e
       0.030345807 -0.077081755 0.74694955 0.4647197
0000d0 f4 79 79 3f 0b 11 0e bf 9c 7c a6 bf cc cb 73 bf
       0.9745171 -0.55494756 -1.3006778 -0.95232844
0000e0 9a d5 3d 3f ad 50 41 3e e0 44 a5 bf f0 32 c4 be
       0.74154055 0.18878432 -1.2911644 -0.38320112
0000f0 bc 6d ca be f7 fd 97 bf 5d 6e 85 3f 16 16 c9 bf
       -0.39536846 -1.1874379 1.0424305 -1.5709865
000100 9c fe 6d 3f 60 69 bf bd 32 65 ae be 89 5f 81 3f
       0.9296663 -0.093462706 -0.3406158 1.010728
000110 0b ce bb be 23 4c 21 bf 56 7f 86 be 7e 7d f6 be
       -0.36680636 -0.630068 -0.26269025 -0.48142618
000120 73 da ad bf 8f 0b ad be bf 99 1d bf 12 6e 37 bf
       -1.358229 -0.3379788 -0.6156272 -0.7165233
000130 32 e7 79 bf 2c cb f6 be a4 0e ec be b0 e3 64 be
       -0.976184 -0.48201883 -0.4610492 -0.22352481
000140 16 79 f8 3e ac de 90 3f cd 66 1f 3f bb ed a0 be
       0.4852988 1.1317954 0.62266237 -0.31431374
000150 1e 0e 20 3f 4b 4b af 3f 28 9a 35 be 91 85 ce bf
       0.6252154 1.3694853 -0.17734587 -1.6134511
000160 67 77 86 bf 9e c1 f5 bf 6b 56 96 3f 0d 26 8b bf
       -1.0505189 -1.9199712 1.1745123 -1.0870987
000170 03 40 a8 bf 7c d6 21 bf e0 f5 a7 3f 76 26 43 3f
       -1.3144535 -0.632179 1.312191 0.7623056
000180 6f b2 12 3f 5c ca f3 3f ad 05 4c bf c0 bc 2b bf
       0.5730352 1.904613 -0.7969616 -0.67084885
000190 6b 59 d6 3e 45 9a bf be 3e 8b 81 3f 97 b2 df be
       0.41865095 -0.37422386 1.0120618 -0.4369094
0001a0 34 f4 89 bf 66 11 50 bf df f3 28 3f 9c c0 9f bd
       -1.077765 -0.8127655 0.6599712 -0.07800409
0001b0 c3 d0 82 bf b4 12 19 bf f9 e0 c7 3e 41 76 53 bf
       -1.0219959 -0.59794164 0.39038828 -0.82602316
0001c0 5b 5a ca 3e 05 30 29 be e6 cf b3 3f 91 2d 85 3f
       0.3952206 -0.16522224 1.404782 1.0404531
0001d0 1c df 2e bd 9d bc 46 3f 33 0a 18 bf 39 04 7d be
       -0.042693242 0.7763155 -0.5939056 -0.24708642
0001e0 73 5f 02 3e 63 20 5d be 79 33 47 bf 82 63 7d 3f
       0.12731723 -0.21594386 -0.77812916 0.9897996
0001f0 75 66 68 be 38 4a 11 bf 70 d5 3d bf f6 95 9b bf
       -0.22695334 -0.56753874 -0.74153805 -1.215514
000200 1f 5e dd be 11 1f 1f bf 7a 76 9c 3f 3e 7f 8f 3f
       -0.4323587 -0.6215678 1.2223656 1.1210706
000210 0d 96 26 bf fb ef c7 3e 80 25 9f 3f cd 34 b3 3f
       -0.6507271 0.39050278 1.2433319 1.4000489
000220 bd e4 85 bd df c6 af bf 9d b1 8f bf 0b 80 8f bf
       -0.06537769 -1.3732566 -1.1226078 -1.1210951
000230 a3 7c ab 3f 78 e8 4e bf 96 f4 9e bf ab 4b 1d bf
       1.3397411 -0.8082347 -1.2418392 -0.61443585
000240 ab c0 d5 3f 37 17 0e 3f 87 dc 2c 3f a6 0c a4 be
       1.6699423 0.55504173 0.67524 -0.320409
000250 d2 c6 a2 bf 67 3f 3e bf de 01 98 3e 85 e3 50 3e
       -1.2716925 -0.74315494 0.29688925 0.20399292
000260 89 7e 4a 3d 89 8c 0b bf ec b6 39 bf 0c b9 fe be
       0.04943708 -0.54511315 -0.7254474 -0.49750555
000270 43 28 03 3f 14 6e 5d be 9e 69 fc bf cd cd c0 bf
       0.5123331 -0.21624023 -1.9719732 -1.5062805
000280 31 7a 10 3d 9d 16 c6 be 6b c5 b5 3e 1a 63 0c 3f
       0.03527278 -0.38689128 0.3550218 0.54838717
000290 bd 3e 7a 3f 60 12 87 3f 3f ea b6 3e b7 9d 6c bd
       0.9775198 1.0552483 0.3572559 -0.057767596
0002a0 63 57 59 bf 7e 26 f7 be d6 cd 45 bf b2 27 2d bf
       -0.84898967 -0.48271555 -0.77267206 -0.67638695
0002b0 66 9e 1c bf be bb 10 be 36 60 fb 3d 36 9a 95 bd
       -0.61179197 -0.14134118 0.1227421 -0.07304804
0002c0 c6 5c 65 3d 6e 8d aa bf 62 4c ca be a4 2e ea be
       0.05599668 -1.3324411 -0.395114 -0.4573871
0002d0 b6 cb 65 be d6 eb 97 3f b3 f9 6e bf 66 85 bd be
       -0.22440991 1.1868846 -0.9334976 -0.37015837
0002e0 48 76 a9 3f 5d 5d 98 3f c7 d6 ad be bc b9 be bf
       1.3239222 1.1903492 -0.33952925 -1.4900432
0002f0 d9 1f 84 be 67 c0 a5 bf 50 c2 f3 3e 0f 83 1c c0
       -0.25805548 -1.2949342 0.47609186 -2.4454992
000300 65 83 8c bf ba e4 b9 3d 5f 59 17 3f 93 74 ae be
       -1.0977598 0.09076829 0.59120744 -0.34073314
000310 80 7c 43 3f b0 28 c5 3e 8e b0 bb bf c8 ce c6 be
       0.76361847 0.38507605 -1.4663255 -0.38829637
000320 bf 7e e8 3e f7 46 7d be 39 f2 31 3f 2c 26 b2 be
       0.454092 -0.24734102 0.6951023 -0.34794748
000330 7a d5 bb bd 54 e7 a2 be 35 8b 29 3e 93 49 6b be
       -0.09171577 -0.31817114 0.1655701 -0.22977285
000340 78 f3 b4 bf 36 52 54 bf 2c c8 1a 3f 03 51 83 3e
       -1.4136801 -0.82937944 0.6046169 0.25647745
000350 2d 84 ab 3d 95 c3 0d 3f 4e f0 f9 be 97 cd bc bc
       0.0837482 0.5537656 -0.4881615 -0.023047252
000360 15 fc d5 be 30 2f e5 3d a4 d1 19 bf a7 be 86 3e
       -0.41793886 0.11190641 -0.6008551 0.2631733
000370 c2 cc 91 be dc 2f e3 be 4c 06 33 be 0d 5c a2 bd
       -0.2847653 -0.4437245 -0.17482871 -0.079277135
000380 67 5c e2 be b6 a1 3f 3e af 8b fd 3e 70 dd 81 bf
       -0.44211122 0.18714032 0.49520633 -1.0145702
000390 6e ad d0 be bf b7 a0 be e0 e9 3c 3f d4 7e ec 3e
       -0.40757316 -0.31390187 0.73794365 0.46190512
0003a0 32 dd 80 bf 4e e0 5c be 30 dc 92 3f 69 e0 ec bd
       -1.0067503 -0.2156994 1.1473446 -0.1156624
0003b0 44 d4 c8 3d c9 ca 3d bf 4e 43 3c be 05 c5 25 bf
       0.098061115 -0.7413755 -0.1838505 -0.6475375
0003c0 e2 05 84 3e cc 09 ce bf 17 e8 be bf 12 c4 91 be
       0.25785738 -1.609674 -1.4914578 -0.28469902
0003d0 7b 06 5b 3f 52 b2 17 3f f1 d7 67 3f 3f 6e 83 3e
       0.85556763 0.5925647 0.90563875 0.2567005
0003e0 a5 bb 2c bf e1 0d 97 bd 87 96 39 3e c2 f2 44 3e
       -0.6747382 -0.07375694 0.18123828 0.1923323
0003f0 fb 2a 45 3f 6c 22 59 bf e5 c2 39 bf 68 ac 00 3f
       0.7701871 -0.8481815 -0.7256301 0.5026307

fc_out.bias f4 [10]
000000 a1 88 60 3d 09 a3 f7 be 61 ed f5 be b4 00 bf 3d
       0.0548178 -0.48366573 -0.48032668 0.09326306
000010 83 a2 7a 3d 54 80 9d 3e 05 83 c7 3c 60 b6 a1 bc
       0.06119014 0.3076197 0.024354467 -0.019740283
000020 83 a2 07 3e b7 1b f3 be
       0.13245587 -0.47482082
