models/demo_A0TOKYO_18_09_16_314.pt (torch_old, 3768 bytes, 4 tensors)

fc1.weight f4 [50, 4]
000000 49 48 1e c0 83 ef df 3f e5 a7 d7 bf c7 44 20 c0
       -2.473162 1.7494968 -1.6848112 -2.5041978
000010 2f 54 8c bf 57 37 a4 3f 2e 89 da be 9e 2d 66 bf
       -1.0963191 1.2829388 -0.42682785 -0.89913356
000020 6a 6f 0e 40 2c 31 e6 bf 58 46 1a 3f 0b 4a 65 40
       2.2255502 -1.7983756 0.60263586 3.5826442
000030 76 6d 2b c0 27 08 b3 3f 53 c4 7a bf 09 0e 56 bf
       -2.678556 1.3986863 -0.97955817 -0.83615166
000040 66 28 97 3f cc f0 06 c0 9a d8 8a 3f 00 44 6b 3f
       1.1809204 -2.108447 1.0847352 0.91900635
000050 0c b8 a4 3f 40 df a2 bf 9a c6 fd bf d3 36 03 bf
       1.2868667 -1.272438 -1.9826233 -0.5125553
000060 37 a8 f0 3e 2f fb 56 bf 25 89 06 c0 9b 0f 27 3e
       0.47003338 -0.83977026 -2.1021206 0.16314547
000070 9e 4a e4 bf 18 88 c9 3f 24 30 a8 3e 0a b0 4e be
       -1.7835271 1.5744658 0.32849228 -0.20184341
000080 85 4d 1c c0 58 09 17 40 cd 78 98 bf f1 5a c3 bf
       -2.4422314 2.3599453 -1.1911865 -1.5262128
000090 48 46 3b 40 ce 11 2f c0 b2 e6 bb 3f 8d cb 53 3f
       2.9261646 -2.7354617 1.4679778 0.8273247
0000a0 db 65 b3 bf fb f6 33 40 59 4b 9f 3e 43 d9 34 bf
       -1.4015459 2.8119495 0.31112173 -0.70644015
0000b0 da a5 37 bf 39 44 c3 3e 0c ab a0 be 5f 61 95 bf
       -0.71737444 0.38137987 -0.31380498 -1.167034
0000c0 84 14 8a bf 78 0d 95 be a8 1c 26 3e 3d e3 91 bf
       -1.0787511 -0.29111838 0.16221869 -1.1397473
0000d0 d2 ed 9c 3e 6b c6 40 3f 0e 2e b8 3d eb f4 b8 bf
       0.30650192 0.7530276 0.08993159 -1.4449743
0000e0 ac 3b 54 3f b8 93 3d c0 c8 69 fd 3c cd 03 cc bf
       0.8290355 -2.962141 0.03093423 -1.593866
0000f0 b3 19 16 40 3b 9b d7 bf 0c be 32 3e 20 95 1c c0
       2.3453186 -1.6844248 0.1745531 -2.4466019
000100 ca 7e 47 c0 fe 86 0d 40 51 a6 84 bf e5 9b 02 bf
       -3.1171136 2.2113643 -1.0363256 -0.51019126
000110 a8 32 57 c0 d4 dc 47 40 e2 f1 b3 3e 24 01 a7 bf
       -3.3624668 3.1228533 0.3514548 -1.3047223
000120 14 67 43 40 8e fc 18 c0 8b da e9 3f 7f ab 1f 3f
       3.0531664 -2.3904147 1.8269819 0.6237106
000130 fe 91 98 bf 98 66 65 3f 1c 5f be bf c6 a4 19 bf
       -1.1919553 0.8960967 -1.4872775 -0.6001705
000140 22 d3 f2 bf 8f d0 e9 3f 2a 41 62 be 45 d9 d4 be
       -1.8970683 1.8266772 -0.2209517 -0.41572013
000150 23 09 01 40 6a 58 a6 be 7b 54 53 c0 21 67 b9 3f
       2.0161827 -0.3248933 -3.3020313 1.4484597
000160 0e b4 0e bf f3 6a 96 be 91 8f 43 40 5f bd 3c bf
       -0.5574349 -0.2937847 3.0556376 -0.7372646
000170 76 7d 27 40 06 59 68 bf 19 c0 e4 3f b0 23 3a bf
       2.6170325 -0.9076084 1.7871124 -0.72710705
000180 f7 b2 93 bf 79 ea b3 3f d2 08 a9 bf 69 0a f4 bf
       -1.1538991 1.405593 -1.3205817 -1.9065677
000190 22 82 85 3f 69 53 a2 bf c4 18 1b c0 43 9a 52 3f
       1.0430338 -1.2681705 -2.4233866 0.82266635
0001a0 dd 69 2e 40 cf 8d bc bf 3e fd be 3f df 58 28 be
       2.7252114 -1.4730777 1.4921033 -0.16440152
0001b0 c8 99 3d 40 c2 5c 2c c0 86 14 de 3f fc 69 81 bf
       2.962511 -2.6931615 1.7350013 -1.0110469
0001c0 22 11 16 c0 e1 e1 1a 40 d4 60 1a bf 9d 5a 8c 3f
       -2.3447957 2.4200366 -0.60304 1.0965153
0001d0 5e e9 2f 3f eb d8 9f bf 8f a9 1b c0 a1 70 51 3f
       0.68715465 -1.2488073 -2.432224 0.81812483
0001e0 b4 dd 21 40 8a 95 1f c0 7b 2d 26 c0 17 5b 7d bf
       2.5291567 -2.4935021 -2.596526 -0.9896712
0001f0 19 04 ee 3f 35 26 f2 bf 11 3a e5 be 09 48 03 c0
       1.8595 -1.891791 -0.44770864 -2.0512717
000200 e3 5a 62 3f 79 37 f3 bf 20 9c a2 bf 9b 75 ed be
       0.8841993 -1.9001304 -1.2703896 -0.46378788
000210 50 18 1a c0 fc 52 36 40 4c e5 86 3f 81 07 3e be
       -2.407734 2.848815 1.0538726 -0.1855755
000220 32 82 f3 3e 5f 7d 96 3f bb 19 d4 be c6 59 3c bf
       0.4756027 1.175701 -0.4142588 -0.73574483
000230 da dd 26 bf 62 48 1f 3f f6 7f 80 bf df a3 97 bf
       -0.6518227 0.6221982 -1.003905 -1.1846884
000240 37 7c 9d bf aa 8c 48 3f 3e 8f 43 bf b9 3e 05 c0
       -1.2303532 0.78339636 -0.76390445 -2.0819533
000250 f4 8e 82 bf 95 98 98 bf 12 f5 12 40 3c 6f cc 3f
       -1.0199876 -1.1921564 2.296208 1.5971446
000260 51 b4 21 40 d1 0b 26 c0 b3 d5 d2 3f 8d 17 ba bc
       2.5266306 -2.5944712 1.6471466 -0.022716308
000270 1d 5b 90 3f 51 a4 80 be 6c 87 cc bf b4 d5 a3 3d
       1.1277806 -0.25125363 -1.5978827 0.07999745
000280 25 29 fa bf 4d 46 02 bc ee 03 23 bf eb 01 f0 3f
       -1.9543806 -0.007951331 -0.6367787 1.8750585
000290 8d 81 c2 bf 76 4b 06 40 84 9f a9 be cc 4a 38 c0
       -1.5195786 2.0983558 -0.33129513 -2.8795652
0002a0 46 65 3f 40 dc d9 70 c0 19 7f 31 3f 5f 4d c4 3e
       2.9905562 -3.763297 0.6933456 0.3834028
0002b0 13 6a 1d c0 bf f8 83 3f 8c 5e 2f 3e d6 47 20 3f
       -2.4595993 1.0310286 0.1712591 0.6260961
0002c0 24 5c cb 3f 9f fa 35 c0 78 f0 b7 bf b1 e3 86 bf
       1.5887494 -2.8434217 -1.437026 -1.0538236
0002d0 7d ba 26 bf 46 88 9f 3e 5f 85 7b bf fa d7 c9 be
       -0.6512831 0.31158656 -0.98250383 -0.3942259
0002e0 e4 3d 9f bf df 6a 21 3f 57 2e 84 bf fa 82 51 bf
       -1.2440763 0.630537 -1.0326642 -0.8184048
0002f0 fb ba 08 c0 c7 15 7a 3e 3f dd 49 3f 0f d0 a9 bf
       -2.1364124 0.2442237 0.7885322 -1.326662
000300 e6 7a bf bf 50 6b 2d 40 15 70 63 3f 64 00 d1 bf
       -1.4959381 2.7096748 0.888429 -1.6328244
000310 9c 04 b8 bf f6 0d dc 3f b1 08 14 c0 9d e3 72 bf
       -1.4376407 1.719176 -2.3130305 -0.9487856

fc1.bias f4 [50]
000000 76 0b 44 3f 5d cb 0a c0 58 cd 95 3c 71 fd 18 40
       0.7657999 -2.1686623 0.018286392 2.3904688
000010 28 ca 45 3f 46 16 b5 3f a1 9d 02 3f df bf 09 c0
       0.7726159 1.4147422 0.5102177 -2.152336
000020 be 44 c3 3f a2 61 4c 3f 56 77 08 40 ab 98 11 40
       1.5255353 0.79836476 2.1322837 2.274943
000030 eb e1 f5 3f 95 92 fa 3f 46 cf 0d 40 de df 19 40
       1.920957 1.9575983 2.215776 2.4042888
000040 b6 ae c7 3f 67 dc 15 40 75 a1 a0 be c8 ad 23 40
       1.5600193 2.3415773 -0.31373182 2.5574818
000050 4f 64 33 c0 a2 f7 94 3f d6 f0 7f 3f 97 d1 56 3f
       -2.8029974 1.1638072 0.9997686 0.8391356
000060 e1 70 cc 3f d2 af e4 3f e7 b9 81 3f e3 1d 98 3e
       1.5971948 1.7866156 1.0134858 0.29710302
000070 ab 0f 25 40 de 41 54 3f 58 46 d5 3f ba 3c f2 3f
       2.5790813 0.82913005 1.6662092 1.8924782
000080 cc d2 c0 3e 7a e7 0c 40 89 7e 17 40 d3 8b ed bf
       0.37660825 2.2016282 2.367098 -1.8558296
000090 63 62 ab 3f 6b 4e 81 3f 19 ea 8c 3f fb 3f 0f bf
       1.33894 1.0102056 1.1008941 -0.55957
0000a0 ee f4 93 bf fb 68 a7 be d3 64 04 bf 6a c1 07 c0
       -1.1559122 -0.3269728 -0.51716346 -2.12118
0000b0 14 9d eb 3f df 5e 20 40 a9 e5 08 c0 61 3a 94 3f
       1.8407311 2.5057905 -2.1390173 1.1580316
0000c0 28 87 1d 40 94 1e 42 40
       2.4613743 3.0331163

fc_out.weight f4 [10, 50]
000000 67 9a b4 3e 1a 60 48 40 53 04 c9 3f 6b 7b 6c be
       0.3527405 3.1308656 1.5704445 -0.23093955
000010 94 4d d9 bf 3b 89 dc bf 45 fe f2 bf c5 f0 60 40
       -1.69768 -1.722938 -1.8983847 3.5146954
000020 3f 39 93 be 3d 76 01 c0 05 79 63 bf 90 23 80 bf
       -0.28754613 -2.0228417 -0.88856536 -1.0010853
000030 37 95 b0 bf 59 24 a0 bf ea 6e 41 40 9f 9b 18 40
       -1.3795537 -1.2511092 3.0223947 2.3844984
000040 2d fc b7 3e 65 66 38 bf b3 6a fe bf cd 58 85 bc
       0.35934582 -0.7203124 -1.9876312 -0.016277695
000050 c1 b5 80 40 b8 b3 40 40 e7 c7 f1 3f c1 8a 36 c0
       4.0221868 3.0109692 1.888913 -2.8522189
000060 4f db 16 bf e3 92 28 c0 db 87 45 c0 c2 67 34 c0
       -0.5892839 -2.6339653 -3.086417 -2.8188329
000070 97 e5 c2 be 6d 80 ad bf 42 ab 0f 40 e0 05 09 40
       -0.38065788 -1.3554817 2.2448277 2.1409836
000080 7b 53 f0 bf d7 31 8a bf b3 15 68 bf ad 84 c3 3f
       -1.8775476 -1.079646 -0.9065811 1.5274864
000090 39 3c 18 bf c0 2c f5 3f 55 21 49 c0 90 5c a0 bf
       -0.5946689 1.9154282 -3.1426594 -1.2528248
0000a0 9c 5e 98 40 fd 59 8d 3f 8b 6c 1c bf c5 86 7d 40
       4.761549 1.1043087 -0.61103123 3.9613507
0000b0 6a 7a 05 40 ac 4e 3a bf 6f da db 3f 22 d2 7e bf
       2.0855966 -0.72776294 1.7176036 -0.9953939
0000c0 0c ca 33 bf 02 45 bd bd 05 3e 33 3f 14 aa 82 40
       -0.70230174 -0.09241678 0.7001651 4.0832615
0000d0 3c d6 d1 3f 42 bc 36 bf 96 db a6 bf 19 9c c2 bf
       1.6393504 -0.7138101 -1.3035762 -1.5203887
0000e0 70 e2 98 bf f9 85 6f 40 c4 1b 34 be 59 85 a1 bf
       -1.1944103 3.742552 -0.17588717 -1.261882
0000f0 d7 b4 62 bf c7 08 60 bf 01 d8 d7 be bb cf a2 bf
       -0.8855719 -0.87513393 -0.42156985 -1.2719644
000100 79 62 16 40 05 5c 06 40 89 0c 21 bf 5a b9 27 bf
       2.3497603 2.0993664 -0.6290975 -0.655172
000110 f8 13 0c c0 67 0b 2c bf 63 d1 58 40 60 e5 6d 3f
       -2.1887188 -0.672049 3.38778 0.92928123
000120 cc 9e b4 3f 38 8b 74 bf 44 d1 9f bd 87 c8 4a c0
       1.4110961 -0.9552493 -0.07803586 -3.1684892
000130 b8 03 af bf ff d1 1b c0 d3 0a 26 bf 5e 20 0f c0
       -1.367301 -2.4346921 -0.64860266 -2.2363505
000140 e3 53 14 40 41 a3 15 40 31 d3 08 3f b7 2e 77 bf
       2.31762 2.3380892 0.5344725 -0.96555656
000150 59 45 59 bf e2 ad 2a 40 27 34 c2 3c 29 a0 5e 3d
       -0.8487144 2.666863 0.023706509 0.05435196
000160 b3 56 c9 bf 7b c5 d8 bf dd 28 3b 40 69 e0 85 3f
       -1.5729584 -1.6935266 2.924369 1.045911
000170 16 38 ec bf e6 52 5d 40 4c f0 13 40 65 76 55 bf
       -1.8454616 3.4581847 2.3115416 -0.8338378
000180 03 5b e5 3f fc 9e 3e 3d 21 52 27 bf e9 0d e3 be
       1.79184 0.046538338 -0.65359694 -0.4434655
000190 3b 7b 6f 3f 55 07 17 40 24 6e 22 3f c7 8b 28 bf
       0.9354741 2.3598225 0.6344931 -0.65838283
0001a0 a2 eb 3f bf 6c d1 96 bf 7d 99 9e bf 64 a0 26 40
       -0.7496892 -1.178266 -1.2390591 2.6035395
0001b0 0b 41 f5 be ae da b4 bf f3 8e 2b bf 08 4a 01 bf
       -0.47901186 -1.4129236 -0.67015 -0.5050359
0001c0 4e d9 24 bf 15 b0 23 bf 57 cb 04 40 01 d5 f1 3f
       -0.6439408 -0.63940555 2.0749109 1.8893129
0001d0 6a 60 d3 be f2 24 88 be 3e 70 cd bf 99 b7 41 bf
       -0.41284496 -0.26590687 -1.6049879 -0.7567077
0001e0 f2 bd 77 40 0c eb e5 3f 7e e8 4d bf 85 db c5 3e
       3.8709683 1.7962356 -0.8043288 0.38644043
0001f0 c1 3f df be 56 bd 1a c0 5c 1a ab bf 9b 14 c8 bf
       -0.43603328 -2.4178061 -1.3367419 -1.5631288
000200 ff bf 95 bf 9d 53 d9 bf c8 56 e4 3f 1c ca e4 3f
       -1.1699218 -1.6978642 1.7838984 1.7874179
000210 35 74 bc bf e7 a8 f1 be 6a 18 7e bf 16 06 6f 3f
       -1.4722964 -0.47199175 -0.99256 0.9336866
000220 00 48 08 bf e4 23 02 40 49 a7 a4 bf 9d b4 56 bf
       -0.53234863 2.0334406 -1.2863551 -0.83869344
000230 ff 85 03 40 73 2b 8a 3f fa ee 19 c0 16 97 56 40
       2.0550535 1.079451 -2.405211 3.3529716
000240 30 5c d8 3f 7b 97 13 bf 39 8d 71 3f 34 9d 2f bf
       1.6903133 -0.57653016 0.94356114 -0.6859925
000250 ec 64 26 bf 0f 51 89 bf e7 a1 fa 3d ac 01 81 40
       -0.64997745 -1.0727862 0.12237912 4.031454
000260 91 c3 26 bf 86 77 75 bf 72 6d 33 bf ea e5 cf bf
       -0.6514216 -0.95885503 -0.70088875 -1.6242039
000270 81 93 c5 bf fc b0 49 40 e9 50 2c bf 42 7c 61 bf
       -1.543564 3.1514273 -0.6731096 -0.8808023
000280 6f e5 99 be 34 cc 0b bf 63 0c 89 bf d6 61 03 bf
       -0.30057856 -0.54608464 -1.0706905 -0.5132116
000290 09 5f 0a 40 ed 78 b8 3f 08 6b 5d bf c9 2d 52 3e
       2.1620505 1.4411904 -0.8649144 0.20525278
0002a0 ed 09 19 c0 06 85 c4 be 96 b7 5b 40 fb 96 8f bf
       -2.3912308 -0.3838274 3.4330802 -1.121795
0002b0 d0 45 69 bf 30 a3 8e bf be 5a d2 bb 49 fb 33 bf
       -0.9112215 -1.1143551 -0.0064195087 -0.70305306
0002c0 3b 6d c2 bd 1e ed 9f bf e9 15 98 bf 58 31 04 bf
       -0.0949349 -1.2494237 -1.1881686 -0.5163779
0002d0 cf ea 40 3f 73 92 4b 40 9f 65 ad bc df 30 0e be
       0.7535829 3.1808136 -0.02116662 -0.1388583
0002e0 55 fc a2 bf 95 f7 6e 3f 6d 31 08 3e fc e3 c9 3f
       -1.2733256 0.9334653 0.13300104 1.57727
0002f0 97 16 8b be 9d 28 43 bf f7 7f 9c 3f cc ff cd be
       -0.27165672 -0.76233846 1.2226552 -0.4023422
000300 bd 9a 01 c0 55 dc 89 40 5d 2c 7e 3f 95 e5 52 bf
       -2.0250695 4.308146 0.99286443 -0.82381564
000310 b4 63 b1 3f ff 76 14 3f 1b 8c 06 be 59 dd fb be
       1.3858552 0.57994074 -0.13139383 -0.49192312
000320 f7 90 3a bf aa fd 11 40 e3 f1 b0 bf 4f 2a d3 be
       -0.7287745 2.2811074 -1.3823818 -0.41243216
000330 36 bb 05 bf 0c fb 9e bd 4b 09 7e bf 20 d8 87 40
       -0.52238786 -0.07762727 -0.9923293 4.2451324
000340 5a 5e 14 bf 12 b8 68 bf 2a 31 d8 bd 5b d0 9f bc
       -0.5795647 -0.9090587 -0.10556252 -0.019508531
000350 6b df 28 bf 8e b5 b0 3e 14 53 2b 3f 59 b2 f1 3e
       -0.6596591 0.34513515 0.6692364 0.4720638
000360 38 05 87 bf 06 19 3b bf 67 55 37 bf ca 9c 07 bd
       -1.0548468 -0.7308506 -0.7161469 -0.03310851
000370 be ed 99 40 4e d7 c1 bb 78 06 c6 be c9 1b b6 3e
       4.8102713 -0.005915559 -0.3867681 0.35568073
000380 1c e9 06 bf a0 6c 88 bf 1c 0f 06 3e 45 62 e5 be
       -0.52699447 -1.065815 0.13091701 -0.44801536
000390 95 87 99 bf a1 32 84 bf 22 e1 64 3f fa c0 1e 3f
       -1.1994501 -1.0327951 0.89406025 0.6201321
0003a0 60 d7 12 bf e1 39 f9 be ca 12 d6 bc 6d 82 df 3f
       -0.57359886 -0.4867697 -0.026132006 1.7461678
0003b0 49 80 a5 3e b1 01 00 3f cf fc 53 be 1c b2 ba be
       0.32324436 0.5000258 -0.20701908 -0.36464012
0003c0 96 6f 11 3e 20 a6 e2 3d f7 2a e7 bf 02 bb 97 40
       0.14202723 0.11066842 -1.8059987 4.741578
0003d0 64 9a 18 3f 2f e0 d5 be dd ba a4 3f 08 db 09 bf
       0.5961058 -0.417726 1.2869526 -0.5384984
0003e0 f1 cf 1b bf 5e 42 9e be 50 c7 8c bf 55 9c 52 40
       -0.6086417 -0.3091001 -1.0998325 3.2907917
0003f0 6c 98 98 bf d5 4c 9e be 1a cc c0 be 31 87 b3 3d
       -1.1921515 -0.30917993 -0.37655717 0.0876602

fc_out.bias f4 [10]
000000 0f 46 3d bf af 2c 8f bf 2b 3d 8c bf e0 5d 2d bf
       -0.73935026 -1.1185511 -1.0956167 -0.67721367
000010 0a ed 81 bf 4a 1e 48 bf f8 e3 8a be 09 81 b2 be
       -1.0150464 -0.7817122 -0.2712705 -0.3486407
000020 e6 ed e3 bd fd 5b a1 be
       -0.1112936 -0.31515494
