models/demo_B2_FUKUOKA_314.pt (torch_old, 88602 bytes, 9 tensors)

fc1.weight f4 [100, 4]
00000000: 5a01 44bf b6d3 483d 6ffe 17bf e5c6 d4be
00000010: 4b29 243e 36b6 59be 18aa 123e a5ae fabe
00000020: e7e6 d33e 0053 8fbe 9ffa 95be ff5f 5ebe
00000030: d1ce 273f 6b3b 7dbe 6465 883d fe32 8d3f
00000040: 63b3 6bbf 99e1 acbf 91d7 c73e 88eb 63bf
00000050: e092 47bf 9445 4fbf 2332 003d bbc5 96bf
00000060: 3202 25bf b1da ec3f 4f14 b23e d4ca 12bf
00000070: 4fcc 4ebf 6fbc a2bf a6bf c9be c1b0 483e
00000080: 362a 94bf 30ef 14bf 2559 903e 1586 b1bd
00000090: 7712 883f 9b70 563f 061d b0bf ce2e 90bd
000000a0: 72c9 813f 5281 2d3e 530e 6bbf 8fc3 663e
000000b0: bd43 393f 4122 cf3e 5536 4cbf b425 1a3f
000000c0: 83e4 85be b582 a43e cf9a 89bd 9936 bdbe
000000d0: 0996 163f 4b95 2e3f 4ccc bcbe f07e 6d3f
000000e0: 9ea7 40bf 8314 9fbe 0e5a 85bf 9648 b23e
000000f0: ea50 943f d30a 43be 1095 603f e867 35bf
00000100: 5dcd 593f d54e b0bf 4f16 78bf 00c0 533f
00000110: e9de 963d ed07 8b3f 89b5 55be 092c 283f
00000120: 104f 3ebf d632 88bf 9591 a83f ee64 153f
00000130: 1b63 723f b71a b93e b338 0a3f 2934 083d
00000140: 6116 37be 70fb 653e 50a6 7fbf acbe 193f
00000150: 5a8e be3e 2804 edbe d00a 313f 5495 7ebe
00000160: 1324 d43e a66f 46bf 132d 6d3f dc3b d43e
00000170: 2a10 0cbf 641f a83f cc3d b8bd fdb5 03bf
00000180: 7eb9 fd3d ea73 a93e 97bf 233e 9ab4 3dbf
00000190: c18e dabe 002e c3be ff66 583f 7509 373f
000001a0: 80f0 763f e885 c33e d4a4 fe3e ff81 713f
000001b0: ea55 6a3f d208 75bf 7b47 953f a098 243f
000001c0: c035 313f bf47 eb3e e6a4 573f ae74 20bf
000001d0: 0ecf 5c3f bc04 df3e 858a fe3e b483 553f
000001e0: 3df2 ef3e 4f73 3e3d 21ab 4e3f 11c6 083f
000001f0: 3fae 22be 1ae5 933e 3402 c3be f9bf 6cbf
00000200: 49df 73bf 2d6c abbf dc25 6abe 65fc 823e
00000210: 83ef d73b d843 a03f 2a87 a7bf c30f 6fbf
00000220: b389 863f 091f 80bf d74a df3e b7ba e2be
00000230: 1bf0 423f 09bd 61bf 3c8e 663f 6d5b af3f
00000240: b87c 043f efcf 273f f66b 46bd 1d68 07bf
00000250: 5619 bebd 0847 6e3f 61a6 973f 4244 b7be
00000260: 26ce b13e 9ca3 a33f 3f91 083f 6c86 063f
00000270: e2c3 45be a3b2 4f3e b28a 503f 63a3 073e
00000280: c58c 243f 500c 40bf 87c5 133f 0978 97bf
00000290: 4769 f03c 34ff 3ebd 7f8c 333f d90d 953f
000002a0: 78f3 263d 50db a03f 78d2 633f cd59 96bf
000002b0: 55be 60bf 93e4 0bbf cb47 ff3e e393 7b3e
000002c0: 443f 803f e0d4 80bf 9bf2 6dbf b25a 84be
000002d0: ee29 1ebf c038 a7bf 7661 023e bfb0 d5bd
000002e0: 46a5 18be f785 f2be 8a5f 41bd 3d52 b9bd
000002f0: ae34 80be bf65 29bf 30bf 363f d674 0c3f
00000300: 3a02 233e 57d4 8e3f 25a3 2e3e 26b9 64be
00000310: 39b2 023f 1608 ba3e b00d 31be afce 07bf
00000320: 61b9 f9be dfd1 b03f 5704 3fbf 2d56 fa3e
00000330: c892 1fbf a7cc 0cbf e323 68bf 93a4 a0be
00000340: 6274 3e3f 9c50 29bf 405f c7be 7e59 8cbf
00000350: ed31 55bf 3072 8fbf a81e cf3e 948d 983e
00000360: 9414 91bf ef1c 8cbf 6f4a 7fbf de18 bfbe
00000370: 10d5 0abf 94a3 2fbf c527 9f3d b4af 483e
00000380: 4e1b 6dbf 1fb3 23be d7cf fd3e 5e81 4f3e
00000390: d032 6bbe f4d5 973d 95f4 79bf 2222 223f
000003a0: ea15 23bf f1a6 123f baf9 09bf 6502 5bbf
000003b0: c00a 313d fc0f 74be 605b 2fbd ae02 95bf
000003c0: 88c7 35bf 5ba4 24bf 6c62 843d 292b 3b3f
000003d0: 5497 00be a4d3 19bf 0a5d 54bf efaa 343f
000003e0: 4fc4 d4bc a525 f7bd 210a 043b c47e 733f
000003f0: f845 38bf f79f 6abf 34f4 04bf 1b5f 773f
-0.7656456 0.04903003 -0.5937261 -0.41557994 0.16031377 -0.21260914 0.14322698 -0.48961368
0.41387102 -0.2799301 -0.2929277 -0.21716307 0.6554995 -0.24729697 0.06659964 1.1031187
-0.920706 -1.3506347 0.39031652 -0.8903127 -0.7795849 -0.8096554 0.031297814 -1.1779093
-0.64456475 1.8504239 0.3478112 -0.5734074 -0.807805 -1.2713755 -0.3940403 0.19598676
-1.1575382 -0.5817747 0.28193012 -0.08668152 1.0630635 0.8376557 -1.3758857 -0.07040177
1.0139601 0.16943863 -0.9181873 0.22535537 0.72368985 0.4045582 -0.79770404 0.6021378
-0.26150903 0.32130972 -0.067189805 -0.36955717 0.58822685 0.68196553 -0.36874616 0.92771816
-0.75255764 -0.31070337 -1.0418108 0.34821004 1.1587193 -0.19047098 0.8772745 -0.70861673
0.85078984 -1.3774058 -0.9690904 0.82714844 0.073667355 1.0861794 -0.20870031 0.6569219
-0.7433939 -1.0640514 1.3169428 0.5835713 0.9468247 0.36153194 0.53992766 0.03325287
-0.1787963 0.22459197 -0.9986315 0.6005657 0.3721798 -0.46292233 0.69157124 -0.24861652
0.41433772 -0.7751411 0.926469 0.4145192 -0.54712164 1.313458 -0.08996162 -0.5144957
0.123888955 0.33096248 0.15991054 -0.741037 -0.42687038 -0.38121033 0.8453216 0.71498805
0.96460724 0.381881 0.4973513 0.94338983 0.91537344 -0.95716584 1.1662439 0.6429539
0.6922264 0.45953175 0.8423599 -0.6267804 0.8625344 0.435583 0.49715057 0.8340409
0.468645 0.046496686 0.8072987 0.53427225 -0.15886782 0.28885728 -0.38087618 -0.9248043
-0.9526258 -1.3392388 -0.22866005 0.25583187 0.0065898313 1.2520704 -1.3088124 -0.93383425
1.0510772 -1.0009471 0.43611786 -0.44283077 0.7614762 -0.8817907 0.9006078 1.3699776
0.51752806 0.65551656 -0.048442803 -0.5289324 -0.09282176 0.93077135 1.184765 -0.35794264
0.3472759 1.2784305 0.5334663 0.5254886 -0.19313005 0.20282988 0.8146163 0.13245921
0.642773 -0.7501879 0.5772328 -1.1833507 0.029347075 -0.0466301 0.70136255 1.1644851
0.040759534 1.2566929 0.88993025 -1.1746155 -0.87790424 -0.5464565 0.4985946 0.24568133
1.0019307 -1.0064964 -0.9294831 -0.25850445 -0.6178273 -1.3064194 0.12732491 -0.10434102
-0.14906797 -0.47367832 -0.047210254 -0.09048889 -0.2504019 -0.6617088 0.7138548 0.5486578
0.15918818 1.1158551 0.17054422 -0.22336254 0.51053196 0.36334294 -0.17290378 -0.5304975
-0.48774245 1.3814048 -0.74616 0.48893872 -0.62333345 -0.54999775 -0.9067976 -0.3137556
0.74396336 -0.66138625 -0.38939857 -1.0964811 -0.83279306 -1.1206722 0.40453076 0.29795516
-1.1334405 -1.094633 -0.9972295 -0.3732366 -0.5423136 -0.68608975 0.07771257 0.19598275
-0.9261979 -0.15986298 0.49572632 0.20264193 -0.22968602 0.07413855 -0.9763883 0.6333333
-0.63705313 0.5728598 -0.5389668 -0.8555053 0.043223143 -0.23834223 -0.04281175 -1.1641443
-0.71007586 -0.64313287 0.06464085 0.7311273 -0.12557727 -0.6008856 -0.82954466 0.70573324
-0.025972513 -0.12067727 0.002014764 0.95115304 -0.71981764 -0.91650337 -0.51935124 0.96629494

fc1.bias f4 [100]
00000000: b9b2 a53e 564b 373f e050 823e 1c41 2ebd
00000010: dd49 cd3d 81bb 5c3e a589 9e3d b77a 45bd
00000020: 0f82 56bf d6b7 9cbd 3b39 b5be 157c c2be
00000030: 7218 47bd f56f b53e 8362 2dbe 31d9 b23e
00000040: 10b1 f93c 89d7 dabe 9cb7 a93e f437 5bbf
00000050: cb7e 91be ab26 0cbf a282 08bf 4610 a3be
00000060: b2a6 713e c7e6 203f 9830 2e3e 68a9 06bf
00000070: 4a23 09bf fcee b23e 75d5 ad3e f5c7 80be
00000080: 1273 0abf 525f 4ebd 2498 35bf a865 953e
00000090: b77e cfbe 2efc 9e3e 63ed 69be b388 8fbe
000000a0: 84ca fb3e d600 91bd b321 89bd 6435 c53e
000000b0: bb22 433f 55fb d8be bb8c f3bb 37ec 8c3e
000000c0: 5c9f 16bf 0a2a 00bf ccdd 30bd 56a1 59bc
000000d0: 4abb dcbe 08ff c0be dcee ddbe f361 25bf
000000e0: c997 3dbf e063 38bf 90bc 15be a861 663e
000000f0: dfc2 3e3f 3943 07bc 9442 f13e 7445 a7ba
00000100: 2527 643c e9c2 ee3e aa25 ca3e fda7 213d
00000110: d97f 05bd 0ea8 a63c f206 8abe ede6 e23e
00000120: ce9a 45bf 4ecd 1b3f 6199 5dbf f6c3 fa3e
00000130: 388e 2ebf 3938 c4be 1160 9dbe e495 22bd
00000140: 3b85 a7be 31f3 293f 706c 2e3e 1642 9bbd
00000150: 024f a6be a3cb 7fbe 8868 223f 1dfb d1be
00000160: a7f5 96be 17e5 7a3e 6b06 4c3e f381 67be
00000170: b758 f1bd b605 9bbe 43c6 84be 0283 dcbd
00000180: d516 3dbf 7e47 d23d 53a1 3c3f 696d 12bf
0.32362917 0.7159933 0.25452328 -0.042542562 0.10023854 0.21555902 0.07741097 -0.048212733
-0.83792204 -0.076522514 -0.35395226 -0.37985292 -0.048607297 0.3543698 -0.1693211 0.3493133
0.030479938 -0.42742565 0.33147895 -0.8563225 -0.28417048 -0.547465 -0.5332433 -0.31848353
0.23598745 0.6285214 0.17010725 -0.52602243 -0.5356947 0.34947956 0.33951917 -0.25152555
-0.54081833 -0.050383873 -0.70935273 0.2917912 -0.40526363 0.31051773 -0.22844462 -0.2803398
0.49177945 -0.070802376 -0.06695881 0.38517296 0.7622487 -0.4237925 -0.007432548 0.27523968
-0.58836913 -0.50064147 -0.043180272 -0.013283094 -0.4311164 -0.37694573 -0.43346298 -0.64602584
-0.7405973 -0.720274 -0.14622712 0.2249819 0.745161 -0.008255773 0.47121108 -0.0012761788
0.013925348 0.4663308 0.3948186 0.039466847 -0.03259263 0.020343807 -0.26958424 0.44316807
-0.7718934 0.60860145 -0.8656216 0.4897763 -0.6818576 -0.38324144 -0.30737355 -0.039693728
-0.32718834 0.66386706 0.17033553 -0.07580964 -0.32482153 -0.24980025 0.6344075 -0.41011897
-0.29484293 0.24501453 0.19924323 -0.22608165 -0.11784499 -0.30277795 -0.25932512 -0.10767175
-0.73862964 0.10267542 0.7368366 -0.57198197

adv.weight f4 [100, 100]
00000000: 1954 8c3d 6875 963d f21d 5abe de12 7dbd
00000010: 2e52 85be 1a12 e4be 892a 113e cec9 40bd
00000020: e99f 083d 9991 76bc 3837 25be 7521 723d
00000030: d6f2 043e 21d1 323e 3068 2f3e 4967 9cbd
00000040: 5dfb a1bd f20a 813e b8a7 9c3d 037d 343e
00000050: 117f c0bd ebbd 293e ef1c 3dbd bc68 eb3d
00000060: e590 1e3d 040c a83d c850 6d3d ae5b c4bc
00000070: 9b8d 43be b096 f3bd a046 18be aab9 633e
00000080: 7bff d2bd befe 8f3e 647e 643e b6af aebc
00000090: 35d8 a6bd 78d6 8d3e 42c8 6dbe ae09 913d
000000a0: bdb8 50bd b6e3 75be 41f3 f43d 437d edbd
000000b0: 423e d8bc 4606 263e a14f 88bd 9603 d6bd
000000c0: a9d1 423e 19ca 673e 2f16 42bd dfb6 f93d
000000d0: df23 553c 521b 5dbe dd1a 57be bd13 cbbc
000000e0: 5010 3ebe 2ef5 813d daa6 8d3e 9488 5ebe
000000f0: 8225 59be cc36 c53d f66f 02be 92b1 a13d
00000100: 8028 5bbe 500e 503e d865 013e a673 423c
00000110: 4fb9 083e 1ada 173d 5c58 5a3d 7050 513e
00000120: 2ae5 a1be ea1e 53be e6a0 43be d493 f23c
00000130: 789d bebe e15b 53bc 77cc 17be 3183 a43d
00000140: 90aa 47bc 265f 9fbc 5748 fabd 0f72 853d
00000150: 50ef 5d3c d55e 72bd a899 81be 2b53 693e
00000160: 6832 69be 0260 0fbe 072e 18be fab7 073e
00000170: c0a0 9bbd b118 923e 8865 853e 0bba bd3c
00000180: f948 113d 716d 393e 8aec 75be 85fd 16bd
00000190: 5ebd 5e3c a313 5abe 7b62 18be f68f 97be
000001a0: 9218 593e 36f6 bb3d e0d8 8fbd 2b76 493e
000001b0: a18f 10be 3f89 9c3d cf32 b1bd 149e 55be
000001c0: 1301 31bd 3d42 8abe e60c 3bbd 13ca e2bd
000001d0: c69e 663e b43a 5ebe 7137 08be 65fa b3be
000001e0: 9286 3abe 8a53 55be 6f1e 02bd 9e27 8f3d
000001f0: e38e dd3d 99c0 8f3d 10bb a3be 2883 66be
00000200: 0811 74be 8e98 933d 70fd 9fbe a16e d53d
00000210: 3b6c 2ebe 8773 e2bd 4048 3ebe 6afc 2e3e
00000220: 6d44 b7be bf55 bc3d 4117 86b9 6afa 373e
00000230: 8145 9abe e927 363e c581 6ebd 996e 153d
00000240: f2f9 aa3d e2d1 863e 874b ba3d 879d d43c
00000250: ce2b b6be 184f 3f3b 486a 313d 3e13 bfbe
00000260: de77 f5bd 459f 713d 0dc7 18be ca46 2dbe
00000270: e3f9 77bd fb1c 9cbe 1df7 5d3e 4823 b03c
00000280: ce17 03be e29b d9bd 04a2 6abe 1078 0b3c
00000290: 1121 eebd 8278 77be dba3 31be 9f04 78be
000002a0: f093 81be eaed d83d 699e 043d 6d9b 583d
000002b0: 720c a6be 0358 e73e 23fa 86be e794 823d
000002c0: 0754 eebd 2206 90bd 62b0 f4bd 6160 9e3c
000002d0: 9b1d 103e 0b5b c03d a7c1 0d3e ad50 46be
000002e0: 88d6 60bd 9f4b c93d 5434 aabc 906d cb3d
000002f0: 02c2 f83d d813 56be 17ee 40be 7476 47be
00000300: 588e b1bc 651b 613e 9304 563e 7553 97bc
00000310: b6cd b9be 970a 00bb afa5 9b3d c5ad 81be
00000320: e684 16be 503f f2bd 1c74 89be be1e 21be
00000330: dd2c 033f 9590 f63e 9d27 c23e be34 ca3c
00000340: 2375 2c3e 3faf d6be 5c7d 14bf 2b75 a0be
00000350: e00d 263f 1fbf d9be 6333 433d 2930 b8be
00000360: ce64 d83d 8e66 e5bd 931d b6bd 1d63 173e
00000370: 30f4 61be aef3 48be 8910 c03e 195b 983e
00000380: b2e7 fb3c 7930 03be 00f5 febe 29d5 58be
00000390: c805 153d 29a6 02bf 22d6 cd3d bea5 0e3e
000003a0: d168 d73c 51b1 c73e fd2a 0b3d fde4 84be
000003b0: ad72 443e aa8c a73d 8e68 86bd ff74 bfbc
000003c0: 42cf 92be 416a 47be 46e6 64bd cca6 01be
000003d0: 698b b5bd 8325 843e 36ab b4bc fce7 90be
000003e0: f4f1 63be f140 523e 6cad 14ba 47c3 0b3d
000003f0: 3e0b 04be a05b f63c 78f4 4ebd 1836 853d
0.06851978 0.07346612 -0.21300486 -0.06178557 -0.2603926 -0.4454506 0.14176382 -0.047067456
0.033355627 -0.015049362 -0.16134346 0.05911394 0.1298326 0.17462589 0.17129588 -0.076368876
-0.07909272 0.25203663 0.07649177 0.17625813 -0.09399236 0.16576354 -0.04617017 0.11494586
0.0387124 0.08205417 0.057938367 -0.023969498 -0.19096987 -0.11893976 -0.14870691 0.22238794
-0.10302635 0.2812404 0.22313839 -0.02132402 -0.08146707 0.2770269 -0.23220924 0.070819244
-0.05095743 -0.24012646 0.119604595 -0.115961574 -0.026396874 0.1621333 -0.06655813 -0.10449903
0.19025292 0.22635688 -0.047384437 0.12193083 0.013009041 -0.21592453 -0.21006341 -0.024789685
-0.1856091 0.063455924 0.2766636 -0.21731788 -0.21205714 0.09629592 -0.12738022 0.07895197
-0.21402168 0.2031796 0.12636507 0.011868393 0.1335194 0.037073232 0.053306922 0.2044084
-0.3162015 -0.20617262 -0.19104347 0.029611506 -0.37229514 -0.012900324 -0.14824091 0.08032835
-0.012186661 -0.01945455 -0.12220829 0.065158956 0.013545826 -0.05917247 -0.25312543 0.22785632
-0.22773135 -0.14001468 -0.14861308 0.13253775 -0.0759902 0.28534463 0.26054025 0.023160001
0.035469983 0.18108155 -0.24016014 -0.03686287 0.013594953 -0.21296553 -0.14881317 -0.2960202
0.21200779 0.091778204 -0.070237875 0.19673984 -0.1411729 0.07643365 -0.08652269 -0.20861083
-0.043213915 -0.2700366 -0.045666598 -0.11073699 0.22521505 -0.21702081 -0.13302399 -0.35151973
-0.18215397 -0.20832649 -0.031767305 0.06989978 0.10818269 0.07019157 -0.31978655 -0.2251097
-0.23834622 0.07206832 -0.31248045 0.104214914 -0.17033474 -0.11057191 -0.18582249 0.17088476
-0.35794392 0.09196042 -0.00025575797 0.17966619 -0.30131152 0.17788662 -0.058229227 0.036482427
0.083484545 0.26332003 0.09096437 0.025954021 -0.35580295 0.002919143 0.04331425 -0.37319368
-0.119857535 0.058989782 -0.14919682 -0.16921535 -0.060541045 -0.3049086 0.21676297 0.021501198
-0.1280205 -0.106254354 -0.22913367 0.008512512 -0.11627401 -0.24167064 -0.17347662 -0.24220513
-0.2530818 0.105922535 0.032377634 0.0528826 -0.3243137 0.45184335 -0.26362714 0.06376057
-0.11637121 -0.0703242 -0.11947705 0.019333066 0.14073794 0.09392365 0.13843404 -0.19366713
-0.054892093 0.09828877 -0.020776905 0.09933007 0.12146379 -0.20906007 -0.18840824 -0.1947878
-0.02167432 0.21983106 0.20900182 -0.018472413 -0.36289757 -0.0019537562 0.07599961 -0.25327888
-0.14699134 -0.11828482 -0.26846397 -0.15734383 0.5124033 0.48157182 0.37920848 0.024683353
0.16841559 -0.41930577 -0.58003783 -0.31339392 0.6486492 -0.42528626 0.047656428 -0.35974243
0.10566102 -0.112012014 -0.088923596 0.14783902 -0.22065806 -0.19624206 0.37512615 0.29757002
0.03075013 -0.1281146 -0.49796295 -0.21175064 0.036382467 -0.5103479 0.10050608 0.13930413
0.026295098 0.3900247 0.033976544 -0.25955954 0.1918437 0.081811264 -0.06562911 -0.023371218
-0.2867375 -0.19474126 -0.05588367 -0.12661284 -0.08864481 0.2580987 -0.022054296 -0.2830199
-0.22260267 0.20532586 -0.0005671594 0.034121778 -0.12894914 0.030072987 -0.050526112 0.06504458

adv.bias f4 [100]
00000000: fd7c a1bc 36a8 243d b9a3 99bd 451b f9bd
00000010: 6fdc 7bbe b58e 9e3d 3c55 e2bc 9505 00bc
00000020: 1c3a 2a3e c09f 9fbd 2dd8 b3bd 3eaf d9bb
00000030: c9ff f3bd 090b 5338 7d9b 623d 8b24 38be
00000040: 1df9 b5bd e36f 993d fee6 593c a071 a73d
00000050: 51db 7b3d 1f60 10bc 24c3 823b 4b30 aebd
00000060: 6376 3cbd 609b 973d 6044 fd3d 8dce b53c
00000070: 81b4 d0bc 22a1 3abe 9bac fc3d 6b5f 0d3b
00000080: f9eb cf3d 304f 11be 81e1 21be 9420 5aba
00000090: 15e0 03be 6e04 003d 815f 00bd 1cd4 3aba
000000a0: e4c4 90bd e10e 043e 5b8a 8bbd 52b4 783d
000000b0: 8723 043c eace 0c3d e19a ca3d 031f 363d
000000c0: 07e0 833e efaa 2fbd 67b0 dabd 9f3c 60be
000000d0: 6b2e bcbd 2a45 2fbc 279d c13b b5d5 e5bc
000000e0: fc7e 7a3d dab5 a8bc 92f1 cfbd 42ba 83bd
000000f0: 83e2 e6bd 3363 b03d b576 9fbd 38e6 a93d
00000100: 76b7 66be bbfc 9a3d f85d 8dbd 7cd4 8f3c
00000110: 8b3a 203d da2c 3ebd 7523 45be d491 e6bd
00000120: 7792 783d 98a9 1fbc 9348 05be b4f8 8ebd
00000130: b432 edbd d499 573d 2278 703d 9a13 f13d
00000140: b960 6fbd 79f6 bf3e 7e67 c53d f6e9 a53c
00000150: 7f51 633d a539 e83b 3a9d 92bd 4666 39bd
00000160: 2121 62bd d4cb d73d b0dc 6f3d 6496 ddbd
00000170: 2d19 eb3d e1a0 3a3c a393 003d 0aed cdbd
00000180: bb47 55bd 1293 083e 7cc3 dd3c 4efc 8cbd
-0.01971292 0.04019948 -0.07501931 -0.121634044 -0.24595807 0.07742063 -0.027628534 -0.007813831
0.1662373 -0.07794142 -0.08781467 -0.006643205 -0.119140215 5.0316597e-05 0.055324066 -0.1798269
-0.08885405 0.07492044 0.013299702 0.08175969 0.061488453 -0.00881198 0.0039905477 -0.08505305
-0.04601134 0.07402682 0.12366557 0.022193218 -0.025476696 -0.1822553 0.123376094 0.0021571766
0.1015243 -0.14190364 -0.15808679 -0.00083208946 -0.1287845 0.031254224 -0.03134108 -0.00071269437
-0.07068804 0.12896301 -0.068134986 0.06071884 0.008065111 0.034377016 0.09892822 0.04446317
0.25756857 -0.042887624 -0.10678177 -0.21898125 -0.09188541 -0.010697642 0.0059086266 -0.028056005
0.061156258 -0.020594526 -0.10153498 -0.0643201 -0.112736724 0.08612671 -0.077863134 0.08295864
-0.22530922 0.07567736 -0.06902689 0.017557375 0.03911833 -0.046429493 -0.19251807 -0.11258283
0.060686555 -0.009745024 -0.13015966 -0.0698103 -0.115819365 0.052636936 0.058708318 0.11771317
-0.05844185 0.3749273 0.0963888 0.020253163 0.055497643 0.00708695 -0.07158895 -0.04526355
-0.055207375 0.10536924 0.058560073 -0.108197 0.11479411 0.011390896 0.031390797 -0.10054977
-0.05207036 0.13337353 0.027070753 -0.06884061

adv_out.weight f4 [10, 100]
00000000: acb2 11be fb5b 573e c20c 5dbe 5adf 2dbe
00000010: 704e 1abf 0bbb 10be 8711 ec3d fb68 4a3d
00000020: 094f 093d 45b4 cabd 9994 71bd 049d 083f
00000030: 8e12 eabd 0f69 8a3d 811d d23e d3ed 03bf
00000040: aa1e 12bf 21e1 1f3e 50a0 8d3e 7f0f f63d
00000050: 4ead 823d ac45 b3bd 027b 553e 285d be3d
00000060: 534d 54bf 9149 8dbd f637 413e 9ef5 8d3d
00000070: e9cf f33c 42b7 18be ca2d 1fbc edf8 debd
00000080: 2e5c 413e f526 81bd 9a00 643e 685d 0d3e
00000090: ea6f 13be d3ab 383d 8043 123e 6e63 c23e
000000a0: 191a 89be 03d4 393f 2da4 f43d c385 e13a
000000b0: 7ead 213e 3b2a a5bd f878 6e3e b34d bc3d
000000c0: f574 b83e 6842 dbbe d2bb 63bc e5fa 4bbe
000000d0: 9a4e 3abb 5cff 8abe d372 17be cc1e 1c3d
000000e0: 5e76 37bd c119 eabd 7c21 ccbd d63c 8abe
000000f0: 9560 a0be 5413 523e 49f8 243e 0bc1 693e
00000100: e5e4 06bf 6234 93bb 560b 2abe a3fa 8d3e
00000110: a916 c33d 0b89 2c3d bbcf 2fbe f78f 1d3e
00000120: 15d6 18bc a307 003e 4c5f 0dbf 88de 123b
00000130: 892e 703d 3878 743e 5eb6 1e3e 96cd 46bd
00000140: e21f da3d d828 3a3d e150 a73e 51ad fabd
00000150: 8e5c 393d d9ae 053e 61b8 8c3e 6bb9 043e
00000160: 5921 e3be 9703 533c 5d6d 4bbe bb79 443e
00000170: 69aa cf3d e5ac 14bd f9c3 983d fa5e 20bf
00000180: 951d 203c 7bff 463d 63d8 8e3e 3421 213e
00000190: d304 2f3e 5b57 823d e9c5 16bf 3832 043e
000001a0: 984d a5be 91f4 19bd a91f 253d 3da4 a83c
000001b0: 7be6 20be cd7b c1bd 972d 39be 0688 b03e
000001c0: e72b 08be 01d5 063e 626e e63e 14d7 26bf
000001d0: a6b0 8fbe b29d 66bd e101 ed3e 780f 1abd
000001e0: 1048 e63d b821 a63d df3e 273e 747f d43d
000001f0: ff16 17bf bb1a 4ebc 7a02 903e 01c3 023d
00000200: 79b7 943d 1b2f d3bc 03a9 a0bd 1471 7a3d
00000210: 3172 483d 25e0 13bd 91f0 a53e fb00 4b3e
00000220: 4411 8a3d e2e8 993e 5028 f73d 0907 c73e
00000230: ecd6 22be 99c4 103f b924 73bc 0daf d0bd
00000240: 0135 a13c 868e 77bd b07d 06bd 563e 1c3e
00000250: b1a4 0e3d 9332 a9be 605e 3dbe 7a42 543d
00000260: 9191 1abe 8c00 03be a44c 5c3e 2acd 063e
00000270: a0cb efbc cfd0 acbd ca9d 763d 52b2 68be
00000280: 14d7 2cbe d629 2b3d b14d 08bd 737c b53e
00000290: 3f12 06bf 08ff edbd 2ab5 21bc 4bb3 ec3d
000002a0: 0719 3e3e d3a0 17bd e4cd 0cbe f003 51bd
000002b0: 0506 f4bc afc4 fa3c e643 cdbe 3329 dabc
000002c0: b067 003e f454 833e 208c 613d f14c 94bb
000002d0: ce4f 0bbe a196 4bbe 6c5c 8d3e 52c7 083d
000002e0: 97ec 43bd 3bb4 7c3e 7ea1 583e 317a cb3e
000002f0: a44d b1be 0a76 8dbd be0b 133d dfca e33d
00000300: 14c9 f3bc d146 edbc 914b 253e 358b f7be
00000310: 0c73 cabc 8fb9 efbb 44ba 343e beca 66be
00000320: 8500 973e fda2 3e3e 5f71 c9be 1410 443d
00000330: a45e 20be 57ac 79bd 2223 51bc 7b00 e3bd
00000340: 51b8 4bbe 678d f2bd 3d00 483d 8f84 9c3e
00000350: 0fe2 aebd 5e56 c0bc 615d bd3e fe6e afbe
00000360: aa04 09be 448f 113e d411 af3e 3f09 1bbe
00000370: 10d8 9dbd f397 2f3c 09ea 503e 0ce3 10be
00000380: cf46 003d 661a a93d 4586 8f3e 0c30 3b3e
00000390: e89a 213e 2393 afbc 873b 4dbe e726 e8bd
000003a0: 7ab4 06be 4df4 a93c e326 3e3d e341 193e
000003b0: 1300 08be f4d4 083e 11d9 23bd 0c20 6d3e
000003c0: b54a c2bd 6069 f03e e039 33be 2fcb 583e
000003d0: a86c c43d b618 c6bd 502b 043e cf7e 743e
000003e0: 661d ddbd f77d 78be 0d9d 63bd a34b 9c3d
000003f0: 23ac 963d bfbc 6cbd 4765 1fbd a7f7 ec3d
-0.14228314 0.21031182 -0.21586898 -0.16979733 -0.60275936 -0.14133851 0.115267806 0.049416523
0.03352264 -0.09897665 -0.058979604 0.53364587 -0.1142932 0.067583196 0.41038135 -0.51534766
-0.5707804 0.15613224 0.2766137 0.120146744 0.063807115 -0.08753523 0.20847705 0.09295112
-0.8293049 -0.06898797 0.18869004 0.069316134 0.029762225 -0.14913657 -0.009715507 -0.108873226
0.1888282 -0.063062586 0.22265854 0.13805163 -0.1439816 0.04508574 0.14283562 0.37966484
-0.26777723 0.7258913 0.119453765 0.0017206002 0.15788838 -0.080646954 0.23288333 0.091945074
0.3602673 -0.428241 -0.01389976 -0.19919927 -0.0028428198 -0.2714795 -0.14789896 0.038115308
-0.044790618 -0.114306934 -0.09967324 -0.2699954 -0.31323686 0.20515186 0.16110338 0.22827546
-0.52693015 -0.0044923285 -0.16605887 0.27730283 0.095258065 0.04212288 -0.17169087 0.1538695
-0.009328385 0.12502913 -0.55223536 0.002241047 0.05863813 0.23873985 0.15499255 -0.048535906
0.106506124 0.045449108 0.32678893 -0.12240089 0.045254283 0.1305498 0.2748442 0.12961356
-0.4436138 0.012879274 -0.19865938 0.19187061 0.10139925 -0.036297698 0.07459254 -0.6264492
0.009772678 0.04858349 0.27899465 0.15735322 0.17091684 0.06364318 -0.58895737 0.12909782
-0.32285762 -0.037586752 0.040313397 0.020586127 -0.15712921 -0.09447441 -0.18083797 0.34478778
-0.13297997 0.13167192 0.4500609 -0.65171933 -0.2806446 -0.056302734 0.46290496 -0.03761241
0.112442136 0.081119 0.16332577 0.10375872 -0.59019464 -0.012579615 0.2812689 0.03192425
0.07261557 -0.025779298 -0.078447364 0.061142996 0.048937026 -0.036102433 0.324101 0.19824593
0.067415744 0.30060488 0.12068236 0.38872555 -0.15902299 0.56549984 -0.014840298 -0.10189638
0.019678595 -0.060438655 -0.03283471 0.15258154 0.03482503 -0.33046398 -0.18493032 0.05182121
-0.15094592 -0.12793177 0.21513611 0.13164201 -0.0292719 -0.084382646 0.060209073 -0.22724274
-0.16878921 0.041787945 -0.033277217 0.3544651 -0.5237159 -0.11620909 -0.009869853 0.11557635
0.18564235 -0.03701861 -0.13750416 -0.051029146 -0.029788027 0.030611364 -0.40090865 -0.026630973
0.12539554 0.25650752 0.055065274 -0.0045257737 -0.13604662 -0.19881679 0.27609575 0.03339321
-0.04783305 0.24678127 0.21155354 0.39741662 -0.34629548 -0.0690728 0.03589987 0.11122679
-0.029758967 -0.028964432 0.16142108 -0.48348394 -0.024713062 -0.0073158215 0.1764918 -0.22538278
0.29492584 0.18616863 -0.39344308 0.047866896 -0.15661103 -0.06095537 -0.012764724 -0.11084076
-0.1989453 -0.118433766 0.048828352 0.30569884 -0.08539211 -0.023478683 0.36985305 -0.34264368
-0.13380685 0.14214808 0.3419329 -0.15140246 -0.07707226 0.01071738 0.20401777 -0.14149112
0.03131753 0.08256988 0.28032127 0.18280047 0.15781748 -0.021432465 -0.20042239 -0.11335545
-0.13154784 0.020746375 0.046423804 0.1496654 -0.13281278 0.13362485 -0.040001933 0.23156756
-0.094869055 0.46955395 -0.17502546 0.21171258 0.09591037 -0.09672682 0.12907147 0.23876499
-0.10796623 -0.24266802 -0.055569697 0.07631614 0.07357051 -0.05779719 -0.038914945 0.115706734

adv_out.bias f4 [10]
00000000: 230e ab3d 007b a5bc 7691 d6bd edd8 a2bd
00000010: 131a 27be 3b6b e8bc d588 b73d f0ca 34bc
00000020: 475b 393c 04dd cf3d
0.08352306 -0.020200253 -0.10476963 -0.079515316 -0.1631854 -0.028371444 0.089616455 -0.011034712
0.011313266 0.10149577

val.weight f4 [100, 100]
00000000: b0a8 773e 0b55 9bbd c753 6c3d 9d02 65be
00000010: f8b0 0d3e 4141 fbbd 6a95 32be c13a 243e
00000020: df76 103e e92f e93e e54f 9c3e 10b3 a33e
00000030: 9cb1 bfbe 301a 543e 946f 5bbd 8809 83bd
00000040: 6ecc 44bd bc1f 23be 3784 3abe 382f 98bd
00000050: d4bb 753e 5aba f63d 7e4f 47be fae7 7fbd
00000060: dcb2 223e 7a06 493e f84e cb3d efff f13d
00000070: 8b10 41bd 1725 8bbd 2a96 81be a13a 2abe
00000080: 134e 6dbe 8139 3bbe 038e c8be e6d5 8cbe
00000090: c857 433b 492b 96be 0d31 3b3e 7c88 39be
000000a0: 9c1e a03d aac1 5e3e 31eb 623e 9223 e33d
000000b0: 3e3f 86be 8baf 78bd f77e 8fbd 35c5 f33d
000000c0: 4a3c 543e 0778 713d 45c2 763e 837d 59be
000000d0: ae7c 9fbc c5a1 023e aec3 e8bc e48f 8ebe
000000e0: aa33 12be c79b 2dbe 6c11 4fbe 0e98 21be
000000f0: 9f49 173e 53bc c6bd 7349 e53d 21c2 8bbe
00000100: 75d9 5bbf 94ae a0be 8790 fabc de87 133c
00000110: bcd6 64be 9b84 38be ff19 5abe d5c8 48be
00000120: 3a4e c2bd bc12 d5bc 5935 d0bc 1289 2bbe
00000130: 4f40 ffbd 8c8d 7a3e 9e74 833e 50d4 fe3d
00000140: a37a 72bd ab5c bfbb 64db 223e c253 87be
00000150: 9072 3cbc 4abe b1bd 0a6f 8ebd e5ea e5bd
00000160: bd24 c53d 6b63 d03d d3a5 c0bd 38e1 a33e
00000170: de66 e8be 161e ffbd da10 6d3e 8732 903d
00000180: 81c9 563e 1b7f cb3e b474 8cbd 4e93 8fbd
00000190: be44 66bd 15e7 cd3e 2374 823e 435a 48be
000001a0: a96d 09be 12cf 21bf 43c5 11bd 0356 953d
000001b0: fb23 b13d 537f eebc fc8a 62be c2bc 403b
000001c0: 107c 6dbf e804 a0bc fd63 0b3e 8d10 42bd
000001d0: 0917 623e af45 dfbd 112e babd c451 77be
000001e0: 1928 4abe adbc 35be ac33 0f3d ae4a 88be
000001f0: 4241 b5bd 38d7 673e 96dd 313d aa4d cabd
00000200: c8b5 6bbe 7066 1abe 9a0d 373e c2ca cf3d
00000210: ec1d 053e 1529 dbbd b0dd ccbd 7bb1 2bbd
00000220: 9b2e 0cbf 6caa 453e 1294 533e e247 343e
00000230: 9f0e b83d b235 ec3d 9266 22be 3e33 55be
00000240: 3765 e13d 7fb0 9fbe e55f 10be f108 cfbd
00000250: c10c 173e 257e 84be 1c22 113e d266 90bd
00000260: 4350 90bc 5841 2c3e 9368 773b 15c4 fc3d
00000270: acfd aebe afb6 96bd b2cd 0cbe b26c d63d
00000280: 0a1f 6a3d 027e 053e 9071 303e fdd4 57bd
00000290: fa47 5d3e a2fd 02be d26c 683d 63d8 87ba
000002a0: cb6b 4fbe 3f06 123e 9866 babc e7ca df3d
000002b0: ed43 07bf f113 d23e c6f4 593d 09fb 963e
000002c0: 891b 63bf a276 c8bd 1379 4a3e bc1e fbbd
000002d0: 120b d0bd aebe 4cbe e4a5 1dbe 9ae1 f9bd
000002e0: b8f8 f83c d179 d3bd 895c 913d 1f26 853e
000002f0: 019d c4bd 5f69 59be 3c77 493e 2206 203d
00000300: dbdc d2bd 7bcf 3cbd eb8a 033e 87e1 07bd
00000310: 9be3 4a3d a252 3c3e c259 333e a315 93be
00000320: e8f4 2a3e 7470 b1be 4ebc 32be ad67 d9be
00000330: 5d42 513e 420b 2c3f d000 563e 3a72 48be
00000340: 854c 093d c60b 38be ef2e 8bbe 4c31 02bf
00000350: 1c23 1e3f 8e89 9ebe a04b debd 8f60 7dbd
00000360: d9f1 f13d 9618 83be 1093 d93d cb5e b5bc
00000370: 4c40 18be ef92 89bc 042e b13e e45d 833e
00000380: c775 1fbe d233 073e 5a0c 24bf c914 47bc
00000390: 45da 95be 6390 8ebe 2dec e43c 4c6d 4fbd
000003a0: b873 263b 10c7 113f 7321 23be 8727 1bbe
000003b0: fe0b c33d 4b59 a0be 386f 6dbf ed96 1ebe
000003c0: 5081 1fbe d5d4 b3bd 2df9 893d 41f3 493e
000003d0: 12b6 b7bb 8857 9b3d e0c9 823e 9a4d db3d
000003e0: e152 f63d 1ede e13d 6b2c 90be a125 c4bd
000003f0: d55c 3d3d 91a3 a1bd 9f9a 813e 6370 cc3d
0.24185443 -0.0758458 0.057697084 -0.22364278 0.1383704 -0.122683056 -0.1743981 0.16038038
0.14107846 0.45544365 0.30529705 0.3197255 -0.37440193 0.20713115 -0.053573206 -0.06398302
-0.04804652 -0.15930074 -0.18214498 -0.07430881 0.23997432 0.120472625 -0.19463918 -0.06247709
0.15888542 0.19631377 0.099271715 0.118163936 -0.047134917 -0.06794184 -0.2530988 -0.16623928
-0.23174314 -0.18283655 -0.39170846 -0.27506942 0.002980696 -0.293299 0.1828043 -0.18118471
0.07818338 0.21753564 0.22160031 0.11090769 -0.26220125 -0.060714286 -0.070066385 0.11902849
0.20726123 0.058952358 0.24097545 -0.21239285 -0.019468632 0.12757023 -0.02841362 -0.27844155
-0.14277521 -0.16953956 -0.2022149 -0.1578066 0.14774178 -0.09703889 0.1119565 -0.27296546
-0.8587869 -0.31383193 -0.030586494 0.009004561 -0.2234754 -0.18019335 -0.21298979 -0.19607861
-0.09487577 -0.02600991 -0.025416063 -0.16751507 -0.12463438 0.24468058 0.2567491 0.12442839
-0.059198987 -0.0058399043 0.15904003 -0.2643109 -0.011501923 -0.08678873 -0.06954773 -0.11226443
0.09626148 0.101752125 -0.094066285 0.32007766 -0.4539098 -0.1245691 0.2315096 0.07040887
0.20975305 0.3974541 -0.06858197 -0.07010518 -0.0562179 0.40215364 0.2547923 -0.19565682
-0.13420738 -0.6320659 -0.035588514 0.07291796 0.08649441 -0.029113447 -0.22123331 0.0029409383
-0.9276743 -0.01953359 0.13612361 -0.047379065 0.220791 -0.10901963 -0.09090818 -0.24152285
-0.19741859 -0.17747755 0.034961388 -0.26619476 -0.088503376 0.22640693 0.04342421 -0.098780945
-0.23018563 -0.1507814 0.17876282 0.10146095 0.12999696 -0.10701195 -0.10003221 -0.041917305
-0.54758614 0.19303292 0.20661953 0.17605546 0.08987164 0.11533679 -0.1585944 -0.20820329
0.11005633 -0.31189343 -0.14099081 -0.10109127 0.14750959 -0.2587749 0.14173168 -0.070508614
-0.017616397 0.16821802 0.003775154 0.12342087 -0.3417791 -0.07359063 -0.13750342 0.10469951
0.057158507 0.1303635 0.1723082 -0.052693356 0.21609488 -0.12792066 0.056744404 -0.0010364171
-0.20255964 0.14260195 -0.022753999 0.109273724 -0.5283802 0.4103084 0.05321195 0.294884
-0.8871389 -0.097882524 0.19772749 -0.122617215 -0.101583615 -0.19994614 -0.15395314 -0.12201233
0.030392036 -0.10325969 0.07097728 0.26005647 -0.096002586 -0.21231602 0.1967439 0.03906835
-0.10296031 -0.046096306 0.12845962 -0.033174064 0.049533468 0.18390897 0.17514709 -0.28727445
0.16694987 -0.34656107 -0.17454645 -0.4246191 0.20435472 0.6720468 0.20898747 -0.19574824
0.03352024 -0.17973241 -0.27184245 -0.5085647 0.6177232 -0.3096432 -0.10854268 -0.061859664
0.11813707 -0.25604695 0.10623753 -0.022139927 -0.14868277 -0.016793696 0.3460542 0.2565757
-0.15572272 0.13203362 -0.64081347 -0.012150952 -0.2926809 -0.27844533 0.027944649 -0.050641343
0.0025398564 0.5694437 -0.15930729 -0.15151797 0.09523772 -0.31318125 -0.9274783 -0.15487261
-0.15576673 -0.08780829 0.0673698 0.197217 -0.0056064213 0.07585055 0.25544643 0.10708161
0.12027527 0.110286936 -0.28158888 -0.0957749 0.04623111 -0.07892526 0.2531328 0.099823736

val.bias f4 [100]
00000000: f04b ea3c 4389 5f3e 93c1 d6bd 6acb 11be
00000010: 8603 4abe ea43 003e 37ec b4bd 3b91 823e
00000020: ee99 0abe e6f8 76be 8665 d13e 32a2 09be
00000030: ffc7 c3bd 8973 8f3e d1ab 5c3e 7de9 26be
00000040: 0615 03be f956 463e 26e0 9f3e 1bfb d2bc
00000050: 11c1 653e 9aa5 743d d090 90bd 3704 5abe
00000060: 0a16 bfbd 9120 babb 152d 933e 1ed4 763e
00000070: d819 143e 1b42 5a3e b6cb 3e3d d499 113d
00000080: f116 a4bd 5a98 df3d c4aa 4c3e 98af 2d3d
00000090: 01c6 a0bd 83eb 88be cba8 743d 1744 85be
000000a0: 903b 5f3e c639 683e 64ad 6b3e b4aa 0bbe
000000b0: 0ba1 d0bd ef88 6cbe 6df6 91bc 903f 86be
000000c0: ce9a 1c3e 65cd 8dbd a964 ab3d 2275 873e
000000d0: 2c91 48be 91dd 60bc b9dc d7bd 8d03 823e
000000e0: b1a1 98be 1b7c abbd 2c86 84bc ce03 923d
000000f0: df56 b0bd f03f 243e e1af 1b3e 4758 babd
00000100: 2922 28be 3363 89be 1725 c6bd c5f4 913d
00000110: 1b1f 37be 6033 4b3e 076e 053e bd1e 553e
00000120: c1fa 36be b7de 443e d676 c2bd 1e00 5ebe
00000130: 1a2c 33be f6fb 703e 6eec c83d b807 87bd
00000140: aafe 8ebd 120e db3c af3c 33be bc63 02be
00000150: 5e70 393e cb62 6ebe c023 313e 4e0b 0c3e
00000160: 791f 523d 2076 9c3e 63d7 5f3c 6f27 47bd
00000170: 6ee1 d2bd 1943 063e 11c1 cf3b 30af 5fbe
00000180: 395d cb3d 03f6 7b3e c0b4 973c 732d 033e
0.028600663 0.21829705 -0.1048614 -0.14237753 -0.19727907 0.12525907 -0.08834117 0.25501427
-0.13535282 -0.24118385 0.4089777 -0.13440779 -0.095596306 0.28017834 0.21549918 -0.16300006
-0.12800989 0.19369115 0.312257 -0.025754502 0.2243693 0.059728242 -0.07058871 -0.2129067
-0.093303755 -0.0056801517 0.28745332 0.24104354 0.14462984 0.2131428 0.046580993 0.035547093
-0.08012188 0.10917731 0.19987017 0.042403787 -0.07850266 -0.2674218 0.059731286 -0.2602851
0.21800065 0.22678289 0.23015362 -0.13639337 -0.101869665 -0.23099111 -0.0178177 -0.2622037
0.15293428 -0.069239415 0.08368809 0.26456553 -0.19586629 -0.013724701 -0.105401464 0.25393334
-0.2981086 -0.083732806 -0.01617726 0.07129632 -0.08610319 0.16040015 0.15203811 -0.09098869
-0.16419281 -0.26833495 -0.09675043 0.07126764 -0.1788296 0.19843817 0.13030253 0.20812507
-0.17869093 0.19225584 -0.094953224 -0.21679732 -0.17497292 0.23533615 0.098107204 -0.06593269
-0.06982167 0.026740108 -0.17503618 -0.12733358 0.18109271 -0.23279874 0.17298794 0.13676187
0.051299546 0.30558872 0.013662192 -0.04862159 -0.102969036 0.13111533 0.006340154 -0.21844172
0.0992989 0.24605565 0.018518806 0.12810306

val_out.weight f4 [1, 100]
00000000: b965 4b3e c0c2 0c3e 440d 32bf 6826 b7bd
00000010: fee6 9dbe ac4b 523e 6b89 adbe d7e7 ef3d
00000020: 61c9 7fbe db7b 1abf 5b28 033f 580f a9bd
00000030: cee1 5d3f cc3d 9c3e 450f 073f 21f0 3abf
00000040: 9b40 0fbe 012b 523e f550 fe3d 44be 34be
00000050: 76ff 4f3e 6c12 52be 0ecc 67be 8a1d 97be
00000060: ae3a cbbe 346f d93d 71f0 c23e cc5d e33d
00000070: f2db 143e 7f1c 723e 14a5 9c3e e856 e6bd
00000080: 643e 98be 650f e23d 7d08 903e 729c 3b3d
00000090: cc11 cebc 7477 5dbf 0887 653b 6a20 a33e
000000a0: 5578 0c3d eca6 843e 0cc8 e53d 4e4e f6be
000000b0: be93 0ebf cd70 a8be f77e 1dbf 728a 66bf
000000c0: 685e 9f3d 3bcb afbe 8a16 303d c9b9 a63e
000000d0: f2a5 97be 1b8c 3c3e 9a72 86bd 6cf9 223e
000000e0: 5821 89be ca3f c6be 6c33 cebe 2428 e73e
000000f0: a634 0bbe 8357 bf3e 546f 8a3f ff20 563e
00000100: 9127 443e b4b5 3cbe eb0c 65be 706c 983e
00000110: 3657 8bbe b062 103e 9daa 993e 24d4 833d
00000120: f7c3 5dbf 713a a33e 2b07 a5be 7531 8cbf
00000130: 5b37 a2bf c818 703e dbd5 b73e 4043 943c
00000140: b0e5 54bf ae28 fd3d e05c 19be a9d3 e7bd
00000150: 0232 933f 2db5 f2bd eb10 843e b67f 113e
00000160: 3d07 a83e 75a8 203f 4bb0 a2be 7276 96be
00000170: 88d0 61be 8385 d03d 0fc0 5c3f 1d42 393f
00000180: 60ba 1ebc 6c00 383e 66ed 613e d8cb 383e
0.19863023 0.13746166 -0.6955149 -0.08942872 -0.30840296 0.20536679 -0.33893904 0.11714142
-0.24979164 -0.6034524 0.5123345 -0.0825488 0.86672676 0.30515897 0.52757674 -0.7302266
-0.13989489 0.20524217 0.12417785 -0.17650706 0.20312294 -0.2051484 -0.22636434 -0.29514724
-0.39693207 0.106169134 0.38074067 0.11101875 0.14537027 0.23643683 0.30594695 -0.11247045
-0.297351 0.110380925 0.28131476 0.045803495 -0.02515497 -0.86510396 0.0035023112 0.31860667
0.034294445 0.259086 0.112197965 -0.48106617 -0.55694187 -0.3289856 -0.6152186 -0.90055
0.077816784 -0.3433474 0.042990245 0.32563618 -0.29618794 0.18412821 -0.06564827 0.1591546
-0.26783252 -0.38720542 -0.40273607 0.45147812 -0.13594303 0.37371454 1.0815225 0.20911025
0.19155718 -0.18428689 -0.22368209 0.2977023 -0.27214974 0.14100146 0.3001298 0.06436947
-0.86627144 0.31880525 -0.3223203 -1.0952593 -1.2673143 0.23446953 0.35905346 0.018098474
-0.83162975 0.12361275 -0.14976835 -0.11319668 1.1499636 -0.11850963 0.25794157 0.14208874
0.32818022 0.62757045 -0.31775126 -0.29387242 -0.22052205 0.10181715 0.8623056 0.72366506
-0.00968799 0.17968911 0.22063217 0.1804651
