models/demo_A0TOKYO_14_09_49_314.pt (torch_old, 3768 bytes, 4 tensors)

fc1.weight f4 [50, 4]
0	0xc034e8f1	-2.8267176
1	0x400828f5	2.1274998
2	0xbfa9ecd7	-1.3275403
3	0xbf219ed6	-0.6313299
4	0x3e639f13	0.22228651
5	0xbda709f6	-0.08156197
6	0xbf7098cf	-0.9398317
7	0x3f07f300	0.53105164
8	0xbf2a8aaa	-0.66617835
9	0x3f890c8f	1.0706958
10	0xbfb56189	-1.417039
11	0x3f155ad9	0.5834175
12	0xbfd5a1c0	-1.6689987
13	0x3f04e705	0.5191501
14	0xbf7dc3fe	-0.99127185
15	0xbfcf571e	-1.6198461
16	0xbe203878	-0.15646541
17	0xbf4638a9	-0.77430207
18	0xbf2f2d1b	-0.684282
19	0x3fd7cd70	1.685957
20	0x3f95777e	1.1677091
21	0xbf93de36	-1.1552188
22	0x3d5f04b9	0.054447863
23	0xbf63d9e4	-0.8900435
24	0xbf4201eb	-0.75784177
25	0x3ed5e7cf	0.41778418
26	0xbfa01579	-1.2506553
27	0xbf8c90b2	-1.0981658
28	0xc006fc51	-2.1091502
29	0x3fdd6d9f	1.7299079
30	0xbfab410f	-1.3379229
31	0xbf68947f	-0.9085159
32	0xbfb06c3b	-1.3783029
33	0x3fb7c175	1.4355913
34	0xbfc06904	-1.5032048
35	0xc002ad33	-2.0418212
36	0x3f7d1f00	0.9887543
37	0xbf4ccd2e	-0.8000058
38	0xbd1254a3	-0.035725247
39	0x3fb3ae13	1.4037498
40	0xbf4b4e43	-0.7941629
41	0x400b960c	2.1810331
42	0xbd07311b	-0.033005815
43	0xbffd9e5d	-1.9813954
44	0xbef2baf3	-0.47408256
45	0x3df5c524	0.12000492
46	0x3f001e83	0.5004656
47	0xbf5082d5	-0.81449634
48	0xbf2e6bde	-0.6813334
49	0xbf16efcc	-0.5895965
50	0x3c9307cd	0.017948056
51	0xbfb5e440	-1.4210281
52	0x3f74a62e	0.9556607
53	0x3dcb2969	0.09920008
54	0x3f9990d7	1.1997327
55	0xbf6940d3	-0.9111454
56	0xbf98265f	-1.188671
57	0xbf63b1be	-0.8894309
58	0x3ef465cf	0.47733924
59	0x3e4f9dbb	0.20275013
60	0x3f810118	1.0078459
61	0xbe94a945	-0.29035392
62	0x3fce0513	1.6095299
63	0xbf511e80	-0.81687164
64	0xbfd37edf	-1.6523093
65	0x3f5e4c54	0.8683522
66	0xbf915851	-1.1355077
67	0xbff68611	-1.9259664
68	0xc020cbc6	-2.5124373
69	0x40168973	2.3521392
70	0xbf438c8e	-0.76386344
71	0xbffbaad1	-1.9661504
72	0x4032e59e	2.7952647
73	0xc008fb4a	-2.1403375
74	0x3f23f6ed	0.64048654
75	0x3fd70757	1.6799115
76	0xbf930523	-1.1485943
77	0x3f6529eb	0.89517087
78	0xbfb6b79a	-1.4274781
79	0xbfba2064	-1.4541135
80	0xbf9ef165	-1.2417418
81	0x3f83bd3b	1.0292124
82	0xbef437cf	-0.4769883
83	0xbff968fc	-1.9485164
84	0x3f1b3d23	0.6064016
85	0x3f8a9934	1.0828004
86	0xbf58c0ce	-0.84669197
87	0x3f9896ac	1.1920981
88	0xbfa9f11c	-1.3276706
89	0x3f069ed9	0.5258613
90	0x3c5a4415	0.013321896
91	0x3f960631	1.172064
92	0x3fb98134	1.4492555
93	0x3e825eea	0.2546304
94	0x3f90f46d	1.1324593
95	0x3f1290f8	0.57252455
96	0xbea2230f	-0.31667373
97	0x3f2a3f07	0.6650242
98	0xbfc1b61e	-1.5133703
99	0xc015502a	-2.3330178
100	0x3d3f94f1	0.0467729
101	0xbe3d505e	-0.18487689
102	0xbf061ebe	-0.5239066
103	0x3ec7aa96	0.38997334
104	0x3f6edbdb	0.9330422
105	0x3ea45839	0.3209856
106	0x3e3f7060	0.18695211
107	0x3f884d5f	1.0648612
108	0x3f1349c8	0.57534456
109	0xbe9c1c79	-0.30490473
110	0x3fce4db1	1.611746
111	0xbe2015ef	-0.15633367
112	0xbfd9a2c1	-1.7002794
113	0x3feded6b	1.8588079
114	0xbfebcbdf	-1.8421592
115	0x3eb00c08	0.3438418
116	0xbf21a197	-0.6313719
117	0x3df3c827	0.119034104
118	0xbfd545d5	-1.6661936
119	0xbcb83006	-0.022483837
120	0x3f0fc21f	0.5615558
121	0xbf0528af	-0.52015203
122	0xbe96f317	-0.29482338
123	0xbe991465	-0.29898372
124	0x3f3de106	0.74171484
125	0xbf3abb6e	-0.72942245
126	0x3e94925c	0.29017913
127	0xbf1ba82e	-0.60803497
128	0x3f17eba9	0.59343964
129	0xbfcd9e4c	-1.6063933
130	0x3d02c5b5	0.03192683
131	0xbf5ba1fc	-0.85794044
132	0xbfda3caa	-1.7049763
133	0x400fc07e	2.2461238
134	0x3e165c0d	0.14683552
135	0xc01256b9	-2.2865431
136	0xbf9165b9	-1.1359168
137	0x4031a3e7	2.7756288
138	0xbf853b6f	-1.0408763
139	0xbff3ae6a	-1.9037602
140	0xbf0622ac	-0.52396655
141	0x3eb4b0fb	0.35291275
142	0xbf45132d	-0.76982385
143	0x3fc5a4a3	1.5440868
144	0xbfb34268	-1.400464
145	0x3f5fd9b0	0.8744154
146	0xbf8fca6c	-1.1233649
147	0xc01d8d1b	-2.4617374
148	0xbf914cd3	-1.135157
149	0xbf89a2c5	-1.0752798
150	0x3f857319	1.042575
151	0x3fc20835	1.5158755
152	0x3eead2b0	0.45863867
153	0xbf0661d4	-0.52493024
154	0x3e81b1d5	0.25330988
155	0x3f990423	1.1954387
156	0x3e1840f5	0.14868529
157	0x3f3d60db	0.73975915
158	0xbfa65050	-1.299326
159	0xbf8bed7d	-1.0931851
160	0xbfae0f82	-1.3598483
161	0xbf401ea7	-0.7504677
162	0x3e90f4a1	0.28311637
163	0x3f4d52ec	0.80204654
164	0xbf91a4e0	-1.1378441
165	0x3fd4ad50	1.6615391
166	0xbf55c9e2	-0.83511174
167	0xc03ef35f	-2.9836042
168	0x400486c2	2.070725
169	0xc0364588	-2.8479939
170	0x3f52d5b5	0.8235734
171	0xbf787401	-0.9705201
172	0xc00b5ea6	-2.177652
173	0x3f250664	0.64462876
174	0x3f20f76f	0.62877554
175	0x3fa31b25	1.2742659
176	0xbe0fc3bf	-0.14039515
177	0xbf8e8c67	-1.1136597
178	0xbec17b65	-0.37789455
179	0xbccb635b	-0.02482765
180	0x3ef6dc79	0.48215082
181	0xbf369468	-0.713202
182	0xbf0ba87c	-0.5455396
183	0x3d8aef2f	0.06783902
184	0xbf99224d	-1.1963593
185	0x3ed6a721	0.41924384
186	0xbf566554	-0.83748364
187	0x3ec72699	0.38896635
188	0xbfe6ead6	-1.8040416
189	0xbbcab997	-0.006186675
190	0xbe6d855c	-0.23195404
191	0xbffe8fff	-1.9887694
192	0xbf481e11	-0.7817088
193	0x4005099b	2.0787113
194	0xbe54e5ef	-0.20790838
195	0xc0322603	-2.78357
196	0xbea42b7b	-0.32064423
197	0x3f1e069d	0.6172884
198	0xbf71ec05	-0.9450076
199	0xbf9759ae	-1.1824243

fc1.bias f4 [50]
0	0x3e97f735	0.29680791
1	0x3f74c8fe	0.9561919
2	0x3f3b8111	0.73243815
3	0xbfe7c23d	-1.8106152
4	0x3f1da906	0.61586034
5	0x3ec8f952	0.39252716
6	0xbfbd48dc	-1.478786
7	0x3f261d78	0.64888716
8	0xc00d94e5	-2.2122128
9	0x3fb1e3a0	1.3897591
10	0xbfd57e48	-1.6679163
11	0x3fb8bddb	1.4432939
12	0xbf4ce756	-0.8004049
13	0x3fa702bb	1.3047708
14	0x3fafa91d	1.3723484
15	0x3fd3c7fd	1.6545407
16	0xbff3d20f	-1.904848
17	0x3daf019a	0.08545227
18	0x3f5b6694	0.85703397
19	0xbfe834c4	-1.8141103
20	0xbfd52139	-1.6650764
21	0x3f66567e	0.89975727
22	0x3e84bd8e	0.2592587
23	0x3cef63b3	0.029222345
24	0xbf82ca5e	-1.0218008
25	0x3fadcb9b	1.357776
26	0x3f79341a	0.97345126
27	0x3f6444b7	0.8916735
28	0xbf2a1007	-0.66430706
29	0xbf77aeaf	-0.9675092
30	0x3f5033f4	0.81329274
31	0x3ed09230	0.40736532
32	0x3e14d27e	0.14533421
33	0xbf831d76	-1.0243366
34	0xbe7a5d33	-0.24449615
35	0x3e0013fd	0.12507625
36	0xbeb1ed9e	-0.347516
37	0x3e82fd67	0.25583956
38	0x3f9d9bd7	1.2313184
39	0xbf86ce3a	-1.0531685
40	0x3fcf7765	1.6208311
41	0xbe83b4d0	-0.25723886
42	0xbf34fe10	-0.7070017
43	0x3f254eef	0.6457357
44	0x3fb85ab7	1.4402684
45	0x3faf834e	1.3711946
46	0x3fc0019f	1.5000495
47	0xbfd1f111	-1.6401693
48	0xbef46923	-0.47736463
49	0x3f8797e3	1.0593227

fc_out.weight f4 [10, 50]
0	0xbeb049fc	-0.34431446
1	0x3f472d5c	0.7780359
2	0x3eca0adc	0.3946141
3	0xbfd0abb3	-1.6302398
4	0xbfb676c1	-1.4254991
5	0x3f125b88	0.57170916
6	0xbfae277a	-1.3605797
7	0xbe21c966	-0.15799484
8	0xbf9068f2	-1.1282027
9	0xc002026f	-2.0313985
10	0xbfa856b9	-1.3151466
11	0x3ecdbb07	0.40181753
12	0xbf93f1c3	-1.1558155
13	0x3f2f315d	0.684347
14	0x3fb2c55c	1.3966479
15	0x3f915798	1.1354856
16	0xbf867231	-1.0503598
17	0xbe8014e1	-0.2501593
18	0x3faa5f13	1.3310264
19	0xbfd09c56	-1.629771
20	0xbf730382	-0.9492723
21	0x3f884b36	1.0647953
22	0x3f54859c	0.8301637
23	0x3eb52741	0.3538151
24	0xbf0d3b03	-0.5516817
25	0x3f362b38	0.71159697
26	0xc00c410e	-2.1914706
27	0xbff402b8	-1.906333
28	0xbf31b216	-0.6941236
29	0xbfdd0c0f	-1.7269305
30	0x3eda3061	0.42615035
31	0x3eac2bfe	0.33627313
32	0x3f0ec5f7	0.5577082
33	0xbf36ad41	-0.71358114
34	0x3d45eef9	0.048323605
35	0x3efcaa95	0.49348894
36	0xbf168073	-0.5878975
37	0x3dcf1ec7	0.10113292
38	0xc01735d8	-2.3626614
39	0xbfc41e2c	-1.5321708
40	0x3fd8074d	1.6877228
41	0xbe893076	-0.26794785
42	0xbf896b21	-1.0735818
43	0x3f9b0a7b	1.2112573
44	0x3f616b3e	0.88054264
45	0x3f53fa86	0.82804143
46	0x3f47cda7	0.78048176
47	0xbfe54ea5	-1.7914625
48	0xbdd9db21	-0.10637499
49	0x3eaacd1f	0.3335962
50	0x3c9dd111	0.01926473
51	0x3f3f1f23	0.74656886
52	0x3bb849af	0.005624018
53	0xbfc0522b	-1.5025076
54	0xbf834879	-1.0256492
55	0x3e2b3312	0.167187
56	0xbf57bf0e	-0.842759
57	0xbe2b3699	-0.16720046
58	0xbf80d50d	-1.0065018
59	0xbf454bc7	-0.7706875
60	0xbfb9e661	-1.4523431
61	0x3ef5d33d	0.48012725
62	0xbf258557	-0.64656585
63	0x3f17598d	0.5912102
64	0x3f73cffc	0.95239234
65	0x3f890196	1.0703609
66	0xbfbb08d8	-1.4612074
67	0xbddb181e	-0.10697959
68	0x3f6d270c	0.92637706
69	0xbfbb9b92	-1.4656851
70	0xbfaf7b4e	-1.3709505
71	0x3e4200c6	0.18945608
72	0x3ef3e59d	0.4763612
73	0xbdb50934	-0.08839646
74	0xbf12e992	-0.5738765
75	0x3ee48c95	0.44638506
76	0xbf65948c	-0.8967979
77	0xbfa4cad2	-1.2874396
78	0xbf47a4d0	-0.7798586
79	0xbf58a708	-0.8462987
80	0x3e3ffcef	0.1874883
81	0x3f1f1187	0.6213612
82	0x3f36bfc4	0.7138636
83	0xbf26c79c	-0.6514833
84	0x3d90810d	0.070558645
85	0xbe94867b	-0.2900885
86	0xbd35b3ef	-0.04436105
87	0xbea7a604	-0.32743847
88	0xbf695221	-0.91140944
89	0xbfb295b8	-1.395194
90	0x3fa37b91	1.2772084
91	0xbea622aa	-0.32448322
92	0xbf7f19dd	-0.9964884
93	0x3f4ae906	0.79261816
94	0x3f6f282f	0.9342069
95	0x3f67d6da	0.9056221
96	0x3ec63ad4	0.38716757
97	0xbfe87840	-1.8161697
98	0xbd3ab16a	-0.04557935
99	0x3dd7aa27	0.10530501
100	0xbd4efa27	-0.050531533
101	0x3f05f08a	0.5232016
102	0x3e81d48c	0.25357473
103	0xbfd60354	-1.6719766
104	0xbf3654ed	-0.71223336
105	0x3eafdea9	0.34349564
106	0xbf976a14	-1.1829247
107	0xbec882a9	-0.39162186
108	0xbf91db9d	-1.1395146
109	0xbf733dea	-0.9501635
110	0xbfa3fb94	-1.281115
111	0x3f32ca1c	0.69839644
112	0xbfa7d9f7	-1.3113393
113	0x3f440519	0.7657028
114	0x3f921d63	1.1415218
115	0x3f6f69c0	0.93520737
116	0xbfbd84f9	-1.4806205
117	0x3c3eac3e	0.011637745
118	0x3f2290fb	0.6350247
119	0xbfbfd49b	-1.4986757
120	0xbfc86d78	-1.5658407
121	0x3f4c07d5	0.7969945
122	0x3ebb5a09	0.3659213
123	0xbe74a062	-0.23889306
124	0xbef857a9	-0.4850438
125	0x3f1086d2	0.5645572
126	0xbf6a7a6f	-0.9159307
127	0xbf793409	-0.97345024
128	0xbfa077fb	-1.2536615
129	0xbf8e99c6	-1.1140678
130	0x3f13942a	0.57647955
131	0x3f1a3f9c	0.6025331
132	0x3f3a2c21	0.72723585
133	0xbf1ab5d6	-0.6043371
134	0xbe781ec1	-0.24230482
135	0xbef13a4f	-0.47114798
136	0xbe523b45	-0.20530422
137	0xbedd1729	-0.43181732
138	0xbf5f8a4e	-0.8732041
139	0xbf90351b	-1.1266207
140	0x3f711902	0.94178784
141	0x3d1ef536	0.03880807
142	0xbf3e139c	-0.7424867
143	0x3f59e9bb	0.8512227
144	0x3f8057bd	1.0026776
145	0x3f3c38c5	0.73524123
146	0x3f0afef1	0.5429526
147	0xbfd8348a	-1.6891034
148	0xbe20cde5	-0.15703543
149	0xbdaef9a4	-0.08543709
150	0x3c27810c	0.010223638
151	0x3f4a3cd4	0.78999066
152	0x3db08da6	0.08620767
153	0xbf976d1a	-1.183017
154	0x3e65bd50	0.22435498
155	0x3ef95c85	0.487034
156	0xbee9c320	-0.4565668
157	0xbe940bdf	-0.28915307
158	0xbf3aacb3	-0.7291977
159	0x3d6d5b27	0.057948258
160	0xbfa4a3ae	-1.2862451
161	0x3f246174	0.642112
162	0xbf7d5285	-0.9895404
163	0x3f28bf09	0.65916497
164	0x3f56b4f6	0.83869874
165	0x3f60ccad	0.8781231
166	0xbf4ee5a9	-0.80819184
167	0xbd204280	-0.03912592
168	0xbf3817ca	-0.719113
169	0xbf88dcb6	-1.0692356
170	0xbf9fa29f	-1.2471503
171	0x3d10ddc8	0.035367757
172	0x3e982ca7	0.29721567
173	0x3e22c903	0.15896992
174	0xbc76920a	-0.015049467
175	0x3f29275c	0.6607568
176	0x3e9569b9	0.29182222
177	0xbf1cc831	-0.6124297
178	0xbfc4d11f	-1.5376319
179	0xbe38c8e8	-0.1804539
180	0x3ec6a3d0	0.38796854
181	0x3f8c1a5e	1.0945547
182	0x3ef64f60	0.48107433
183	0xbf941667	-1.1569337
184	0xbea04845	-0.31305137
185	0xbf126e6c	-0.5719974
186	0xbdfe6cfc	-0.12423131
187	0xbd372bbd	-0.044719446
188	0x3d904460	0.070442915
189	0xbf0e1d26	-0.55513227
190	0x3e8179b0	0.25288153
191	0xbe941e12	-0.28929192
192	0xbf32c9ec	-0.6983936
193	0xbd3cb0c7	-0.046067026
194	0x3f142ed3	0.5788395
195	0x3f1117ff	0.5667724
196	0x3e2b5941	0.16733266
197	0xbf27eea5	-0.6559852
198	0x3e1f5e3e	0.15563294
199	0x3d31d4f8	0.043415993
200	0xbeb1571a	-0.34636766
201	0x3e4b3cc5	0.198474
202	0xbe26d757	-0.16293083
203	0xbf3b3f16	-0.73143137
204	0x3e46b096	0.194033
205	0x3f41ea69	0.75748307
206	0xbee04a88	-0.43806863
207	0xbd4f3495	-0.050587256
208	0xbf9be14c	-1.217813
209	0x3d716e18	0.058942884
210	0xbf419e6e	-0.7563237
211	0x3ec95061	0.39319137
212	0xbf55c379	-0.8350139
213	0x3f8b5bd5	1.08874
214	0x3ec01d8f	0.3752255
215	0x3f1df05b	0.6169488
216	0xbf9099b0	-1.1296902
217	0xbd290a9b	-0.04126988
218	0xbf5ba044	-0.8579142
219	0xbf35a7bb	-0.7095906
220	0xbf40880f	-0.7520761
221	0x3e0d2d6c	0.13786858
222	0x3e2a8a92	0.16654423
223	0x3d98bb4d	0.074576
224	0xbeea316f	-0.4574084
225	0x3f30b0ee	0.69019973
226	0x3f244c58	0.6417899
227	0xbef24cc9	-0.47324207
228	0xbfc636b2	-1.5485442
229	0xbce77913	-0.028255975
230	0x3f3eed3f	0.7458076
231	0x3f45e049	0.77295357
232	0x3f07646b	0.528876
233	0xbf867277	-1.0503682
234	0xbdb431e3	-0.08798578
235	0xbe51c6bf	-0.20485972
236	0xbe614b5f	-0.22001408
237	0xbec0cdb3	-0.37656936
238	0x3f01714d	0.5056351
239	0xbee056b1	-0.4381614
240	0x3ea6fecf	0.3261628
241	0xbe628715	-0.22121842
242	0xbf517d80	-0.8183212
243	0x3d48d9f3	0.049035978
244	0x3f67327b	0.903114
245	0x3f4722c4	0.77787423
246	0xbcedd90d	-0.029034162
247	0xbf6900f7	-0.910171
248	0xbe83bd63	-0.25730428
249	0x3e49bf89	0.19701971
250	0xbef3bdd9	-0.4760578
251	0x3f249893	0.6429531
252	0xbbbea766	-0.0058182953
253	0xbf1a944c	-0.60382533
254	0x3dcc0f9d	0.099639155
255	0x3f2b1eeb	0.6684405

fc_out.bias f4 [10]
0	0x3f6ac316	0.9170393
1	0x3f198d8b	0.599816
2	0x3ec6cef2	0.38829762
3	0x3eea6f50	0.4578805
4	0x3df2603d	0.11834762
5	0x3e6c3419	0.23066749
6	0x3e8fcd03	0.280861
7	0x3da2511b	0.07925626
8	0x3eebc604	0.4604951
9	0x3d8d1dc8	0.06890446
