models/demo_B2_AOMORI_314.pt (torch_old, 88602 bytes, 9 tensors)

fc1.weight f4 [100, 4]
0	0xbf5abc47	-0.8544354
1	0x3e0a9529	0.13533463
2	0xbf161a21	-0.5863362
3	0xbee11877	-0.43963978
4	0x3da4e754	0.08051935
5	0xbe54a049	-0.20764269
6	0x3e331632	0.17488936
7	0xbf039f72	-0.5141517
8	0x3ec4b69e	0.38420576
9	0xbf0268d4	-0.50941205
10	0xbe6fcdb9	-0.2341832
11	0xbe334c7e	-0.17509648
12	0x3f19b8df	0.60047716
13	0xbe7edfdb	-0.24890082
14	0x3d94d0c8	0.07266384
15	0x3f8ee181	1.1162568
16	0xbf66a458	-0.9009452
17	0xbf7c382a	-0.985232
18	0x3e9f2b5f	0.31087777
19	0xbf8664f7	-1.0499562
20	0xbf4693b4	-0.7756913
21	0xbf4bb7bf	-0.7957725
22	0x3c8fe838	0.017566785
23	0xbf965ebc	-1.1747661
24	0xbf080aa0	-0.5314121
25	0x4016f311	2.3585856
26	0x3eb67f85	0.35644165
27	0xbf3b3939	-0.7313419
28	0xbf53b382	-0.8269578
29	0xbfb4ea95	-1.4134089
30	0xbef2a38d	-0.47390404
31	0x3e54e91a	0.20792046
32	0xbf8dd1c5	-1.1079642
33	0xbf6b69c9	-0.9195829
34	0x3e8144c7	0.25247785
35	0xbdc71e45	-0.0972257
36	0x3f8f59bb	1.1199259
37	0x3f3c6659	0.7359367
38	0xbfac4f97	-1.3461789
39	0xbe23b50c	-0.15987033
40	0x3f7bad5f	0.9831142
41	0x3e5020c4	0.20324999
42	0xbf5c2dce	-0.8600739
43	0x3e9b7a8b	0.3036693
44	0x3f439e9d	0.764139
45	0x3e5fc345	0.21851833
46	0xbf50d5ec	-0.8157642
47	0x3f1a697b	0.603172
48	0xbe895991	-0.26826146
49	0x3f05173e	0.5198859
50	0xbc81594a	-0.015789647
51	0xbed02ab9	-0.40657595
52	0x3f1c0a8f	0.6095361
53	0x3f31bb53	0.6942646
54	0xbebcf664	-0.3690673
55	0x3f6e39e0	0.9305706
56	0xbf32a3a1	-0.6978093
57	0xbea04480	-0.3130226
58	0xbf859760	-1.0436821
59	0x3ebee47e	0.372837
60	0x3f9df83b	1.2341379
61	0x3d7efba1	0.06225169
62	0x3f3725e3	0.71542186
63	0xbf2b19ae	-0.6683606
64	0x3f740de8	0.9533372
65	0xbfa9eb37	-1.3274907
66	0xbf684b64	-0.90740037
67	0x3f468970	0.77553463
68	0x3dbe74ef	0.09299647
69	0x3f85292d	1.0403191
70	0xbe33f065	-0.17572172
71	0x3f437463	0.7634947
72	0xbf50149a	-0.81281435
73	0xbf864801	-1.0490724
74	0x3fb25f25	1.3935286
75	0x3f0abbab	0.5419261
76	0x3f7921f5	0.9731744
77	0x3ec184f0	0.37796736
78	0x3eeee7f8	0.46661353
79	0xbb29edf2	-0.002592918
80	0xbe14ca41	-0.14530279
81	0x3e92c2cc	0.28664243
82	0xbf76d225	-0.96414405
83	0x3f12e09f	0.57373995
84	0x3ef50460	0.478549
85	0xbece0b81	-0.40243152
86	0x3f3169a8	0.69301844
87	0xbe219c96	-0.15782389
88	0x3e75817a	0.23975173
89	0xbee2fd86	-0.44334048
90	0x3f884893	1.0647148
91	0x3e92460e	0.28569072
92	0xbf1cd552	-0.61263
93	0x3fc2941f	1.5201453
94	0xbdaffcaa	-0.08593114
95	0xbf0c817d	-0.54885083
96	0x3e2f42a7	0.1711527
97	0x3ea24b46	0.31698054
98	0x3e91d5d7	0.2848346
99	0xbf1a9ed4	-0.603986
100	0xbeb76a1e	-0.35823148
101	0xbef2bf92	-0.47411782
102	0x3f6e3af3	0.930587
103	0x3f339a72	0.7015754
104	0x3f7af8a8	0.9803567
105	0x3e8934b6	0.26798028
106	0x3f088893	0.53333396
107	0x3f6ad867	0.91736454
108	0x3f5df78b	0.86705846
109	0xbf80b751	-1.0055944
110	0x3f9eb6d9	1.2399551
111	0x3f1d960c	0.6155708
112	0x3f248b8c	0.6427543
113	0x3f2ead43	0.68233126
114	0x3f66d18c	0.90163493
115	0xbf0e6e47	-0.5563702
116	0x3f666f34	0.9001343
117	0x3efe4c5c	0.49667633
118	0x3eb77596	0.35831898
119	0x3f567206	0.83767736
120	0x3eea2974	0.4573475
121	0x3eba9790	0.36443758
122	0x3f63f77d	0.8904951
123	0x3e7e0278	0.24805629
124	0xbeb6799f	-0.35639665
125	0x3ef3cb83	0.47616205
126	0xbeeb7db9	-0.45994356
127	0xbf496c35	-0.78680736
128	0xbf79de63	-0.9760496
129	0xbfb2968b	-1.3952192
130	0xbe9093d4	-0.28237784
131	0x3e64f699	0.22359695
132	0x3e2e6bfa	0.17033377
133	0x3f9e7781	1.238022
134	0xbf992743	-1.1965107
135	0xbf618697	-0.8809599
136	0x3f8a8815	1.0822779
137	0xbf848123	-1.0351909
138	0x3ea7d534	0.3277985
139	0xbe9b9bba	-0.30392247
140	0x3f38a6f7	0.7212977
141	0xbf82f7a7	-1.0231827
142	0x3f8329a3	1.0247082
143	0x3fb90fbf	1.445793
144	0x3f17ea95	0.5934232
145	0x3f2b8310	0.6699686
146	0xbcddb116	-0.02706198
147	0xbf04132b	-0.5159175
148	0xbe473468	-0.19453585
149	0x3f958cdc	1.1683612
150	0x3f775541	0.9661446
151	0xbea60254	-0.3242365
152	0x3e6571cf	0.22406696
153	0x3fb0f66b	1.3825201
154	0x3e9f9f6d	0.3117632
155	0x3f24c23f	0.64358896
156	0xbe99b3c4	-0.30019963
157	0x3e232c1a	0.15934792
158	0x3f4ae7a5	0.7925971
159	0x3e59e0a9	0.21277107
160	0x3f29f159	0.6638389
161	0xbf3e6860	-0.74378014
162	0x3f16fdb0	0.58980846
163	0xbf91575e	-1.1354787
164	0x3ccf1af5	0.025281409
165	0xbc1a618c	-0.009422671
166	0x3f3850cf	0.71998304
167	0x3f964bd1	1.1741887
168	0x3e333693	0.17501287
169	0x3f7d6ffd	0.98999006
170	0x3f94c641	1.1623002
171	0xbf8b5e2a	-1.0888112
172	0xbf455d2b	-0.7709529
173	0xbf6ace17	-0.9172072
174	0x3f329f99	0.69774777
175	0x3e609eee	0.21935627
176	0x3f5c699f	0.86098665
177	0xbf89628e	-1.0733202
178	0xbf6a6598	-0.9156127
179	0xbe887bef	-0.26657054
180	0xbf09902c	-0.53735614
181	0xbfad4320	-1.353611
182	0x3e6fcb8e	0.23417494
183	0xbe871eca	-0.26390678
184	0xbd8fcefe	-0.070219025
185	0xbeea0108	-0.45703912
186	0xbd5223df	-0.05130374
187	0xbdddf95d	-0.10838578
188	0xbe802fc3	-0.2503644
189	0xbf11845b	-0.56842583
190	0x3f2e0429	0.679751
191	0x3f18f7dd	0.5975321
192	0x3eedd645	0.46452537
193	0x3f7e6521	0.9937306
194	0xbd3c03ec	-0.045902178
195	0xbecf255b	-0.40458187
196	0x3de2e036	0.11077921
197	0x3f311d37	0.69185203
198	0xbed44b76	-0.41463822
199	0xbeb6e5f2	-0.3572231
200	0xbf04b166	-0.5183319
201	0x3fae7f81	1.3632661
202	0xbf357133	-0.70875853
203	0x3f1ecf54	0.6203511
204	0xbf11144b	-0.5667159
205	0xbf28a41e	-0.6587542
206	0xbf659ebe	-0.89695346
207	0xbebb3aaa	-0.36568195
208	0x3f53cacc	0.8273132
209	0xbf1793ea	-0.59210074
210	0xbef12741	-0.4710026
211	0xbf81a1e7	-1.0127534
212	0xbf6219d3	-0.88320655
213	0xbf8bf51a	-1.0934174
214	0x3eb156fb	0.34636673
215	0x3e9d6035	0.30737463
216	0xbf8b0d08	-1.0863352
217	0xbf9808f6	-1.1877735
218	0xbf87e882	-1.0617831
219	0xbecd8235	-0.40138403
220	0xbf0fb0ee	-0.5612935
221	0xbf1be3b2	-0.6089431
222	0x3d37a91a	0.044839002
223	0x3e5e55ae	0.21712372
224	0xbf601caa	-0.8754374
225	0xbe8df425	-0.2772533
226	0x3ecaeda2	0.39634424
227	0x3ea56250	0.3230157
228	0xbe5a56e7	-0.21322213
229	0x3d2f1ca9	0.04275194
230	0xbf705825	-0.938845
231	0x3f2c64ec	0.67341495
232	0xbf21c684	-0.63193536
233	0x3f1cb963	0.6122038
234	0xbf0f619d	-0.5600832
235	0xbf5dacb6	-0.8659166
236	0x3d310ac0	0.043223143
237	0xbe740ffc	-0.23834223
238	0xbd2f5b60	-0.04281175
239	0xbf9502ae	-1.1641443
240	0xbf3651a4	-0.71218324
241	0xbf3d92a9	-0.7405191
242	0x3c1ecf1d	0.009692934
243	0x3f2e089e	0.679819
244	0xbdd033eb	-0.101661526
245	0xbf0709ce	-0.52749336
246	0xbf223c3d	-0.63373166
247	0x3f4c57f9	0.79821736
248	0x3cf13ec4	0.029448874
249	0xbe4d87fc	-0.20071405
250	0x3de8fe01	0.113765724
251	0x3f6ba3a5	0.92046577
252	0xbf5da579	-0.86580616
253	0xbf9a13ba	-1.203727
254	0xbec74b4e	-0.3892464
255	0x3f55965b	0.8343255

fc1.bias f4 [100]
0	0x3ea6ed45	0.32602897
1	0x3f3c4963	0.7354948
2	0x3e908c02	0.28231817
3	0xbd79cb41	-0.060984854
4	0xbc0537e7	-0.008131004
5	0x3e8654b4	0.26236498
6	0xbd17bacf	-0.03704339
7	0x3e76f53e	0.2411699
8	0xbf3a707f	-0.72827905
9	0xbef748ea	-0.48297817
10	0xbeb4638f	-0.35232207
11	0xbe98d77d	-0.29851905
12	0xbd478f19	-0.048720453
13	0x3eb258ca	0.34833366
14	0xbd308241	-0.04309297
15	0xbdc13c68	-0.0943535
16	0x3d535166	0.0515913
17	0xbed0c7e0	-0.40777493
18	0x3e14617b	0.14490311
19	0xbf7b83a9	-0.9824777
20	0xbeb08c1f	-0.34481904
21	0xbefea57d	-0.49735633
22	0xbf43b970	-0.7645483
23	0xbe4ed1d8	-0.20197237
24	0x3f44c723	0.7686636
25	0x3f17eaa1	0.5934239
26	0x3d6816d4	0.056662396
27	0xbf028a20	-0.5099201
28	0xbf06452f	-0.52449316
29	0x3ec8a200	0.39186096
30	0x3e2e6dee	0.17034122
31	0xbe26170f	-0.16219734
32	0xbeeca941	-0.4622288
33	0x3db9deb3	0.0907568
34	0xbf36b8cc	-0.7137573
35	0x3eaafe44	0.33397114
36	0xbed3993f	-0.41327855
37	0x3e41bbbf	0.18919276
38	0xbe42a0d8	-0.1900667
39	0xbe9a2dd3	-0.30113086
40	0x3f0befb2	0.5466262
41	0xbe0507f2	-0.12991312
42	0xbda2d941	-0.07951594
43	0x3e966c9a	0.2937973
44	0x3f36e639	0.7144504
45	0xbf088daf	-0.5334119
46	0x3e174723	0.1477323
47	0x3e50ab2d	0.20377798
48	0xbf23485d	-0.6378229
49	0xbf023b3c	-0.50871634
50	0x3e0f4d01	0.13994218
51	0x3c64ddcc	0.013968896
52	0xbf084b84	-0.5324023
53	0xbe86dda1	-0.26340964
54	0xbeb627d8	-0.35577273
55	0xbf00a4e0	-0.5025158
56	0xbec68a6a	-0.38777477
57	0xbf26bfae	-0.6513623
58	0xbd60e2a7	-0.054903653
59	0x3e6661a8	0.2249819
60	0x3f522ed5	0.8210271
61	0x3d2ce535	0.042210776
62	0x3ed00ca7	0.40634653
63	0xbe223c59	-0.15843333
64	0x3e51a803	0.20474248
65	0x3f0a1c84	0.5394976
66	0x3e53394a	0.20627323
67	0x3daa353f	0.08310937
68	0xbd8e2b8e	-0.06941901
69	0x3d562ea3	0.05229057
70	0xbe9a3770	-0.3012042
71	0x3f0f440e	0.5596322
72	0xbf02db3b	-0.5111577
73	0x3f43b1d7	0.7644324
74	0xbf410d93	-0.7541134
75	0x3eadccdf	0.33945367
76	0xbf2c456c	-0.6729343
77	0xbe8df53d	-0.27726164
78	0xbe980d75	-0.29697767
79	0x3d2fb63a	0.042898394
80	0xbe5636e6	-0.2091938
81	0x3ee4bbac	0.44674432
82	0x3e224861	0.15847923
83	0xbe15a076	-0.14611992
84	0xbea64f02	-0.32482153
85	0xbe5a37c8	-0.21310341
86	0x3f2b41b0	0.66897106
87	0xbefa6042	-0.48901564
88	0xbe879cd9	-0.26486853
89	0x3eb1cd22	0.34726816
90	0x3e460712	0.19338635
91	0xbecabac2	-0.3959561
92	0xbda1e665	-0.079052724
93	0xbe569ec2	-0.20958999
94	0xbe6018a9	-0.21884407
95	0x3edfb9c5	0.43696418
96	0xbf66d4d6	-0.9016851
97	0x3c34772c	0.011014741
98	0x3f25c744	0.6475718
99	0xbf2d33a2	-0.6765691

adv.weight f4 [100, 100]
0	0x3d88f61e	0.06687568
1	0x3e13c18f	0.14429305
2	0xbe1c4301	-0.15259935
3	0xbd654ec8	-0.055983335
4	0xbea2cd6c	-0.3179735
5	0xbea72c8d	-0.32651177
6	0xbe81a867	-0.25323793
7	0xbce7fcaf	-0.028318731
8	0x3e11f15e	0.1425223
9	0x3d8f2f14	0.06991401
10	0xbdb9f432	-0.0907978
11	0x3d89d1c5	0.067294635
12	0xbeb5e3b1	-0.35525277
13	0x3e479989	0.19492163
14	0x3e737196	0.23773798
15	0xbcb749af	-0.022374002
16	0xbe053b65	-0.13010938
17	0x3e6eeee3	0.23333316
18	0x3dc3402b	0.095337234
19	0x3e1c7fff	0.15283202
20	0xbd492d5b	-0.04911552
21	0x3e586f76	0.21136269
22	0xbd34b26b	-0.044115465
23	0xbc8708b6	-0.016483646
24	0x3a1817ae	0.00058018684
25	0x3dcce479	0.10004515
26	0x3defaf6c	0.11703381
27	0xbc6578d7	-0.014005861
28	0xbe82fe90	-0.2558484
29	0xbde09b20	-0.10967088
30	0xbe650243	-0.22364144
31	0x3e98aa59	0.29817465
32	0xbdf5ba5c	-0.11998436
33	0x3e88580c	0.26629674
34	0x3e98f84c	0.29876935
35	0xbd9c2396	-0.07623975
36	0xbea6f185	-0.3260614
37	0xbca0ce52	-0.019629631
38	0xbe595447	-0.21223556
39	0xbe17be7e	-0.14818761
40	0x3d05eb67	0.0326952
41	0xbe56916f	-0.20953916
42	0xbdf73fec	-0.12072739
43	0xbde0c470	-0.109749675
44	0xbca84b11	-0.020543607
45	0x3dafb2eb	0.08579048
46	0xbd826e6f	-0.0636872
47	0xbe01e7e7	-0.1268612
48	0xbcbee8b2	-0.023304317
49	0x3e48a0e9	0.19592632
50	0xbd3439c3	-0.0440004
51	0x3e2bc1bc	0.16773123
52	0x3e60664a	0.2191402
53	0xbe5738fe	-0.21017835
54	0xbe27468b	-0.16335504
55	0xbbb7564c	-0.005595004
56	0xbe2caa1f	-0.16861771
57	0x3de1a5f9	0.11017985
58	0x3e1246a3	0.14284758
59	0xbe5e8894	-0.21731788
60	0xbe22e063	-0.15905909
61	0x3df1b27e	0.11801623
62	0xbdc1c2e6	-0.09461002
63	0x3deb3e76	0.11486523
64	0xbe813a8f	-0.2523999
65	0x3e415737	0.18880926
66	0x3dc8bd97	0.098017864
67	0x3d97acee	0.074060306
68	0x3e243360	0.16035223
69	0x3c507a3b	0.0127244545
70	0x3d5a585c	0.053306922
71	0x3e39fea3	0.18163542
72	0xbdba9aa4	-0.091115266
73	0xbedc9a2d	-0.43086377
74	0xbe236f63	-0.1596046
75	0x3d968a83	0.07350638
76	0xbf0c98f7	-0.54920906
77	0x3c95787a	0.018245924
78	0xbe155a71	-0.14585282
79	0x3d9e77ad	0.0773767
80	0xbdaf948d	-0.08573256
81	0x3cb5c493	0.02218846
82	0xbde22304	-0.11041835
83	0x3d2846db	0.041083198
84	0x3c5def50	0.013545826
85	0x3c832720	0.016009867
86	0xbe52855f	-0.2055869
87	0x3e3ff129	0.18744339
88	0xbe688173	-0.22705631
89	0xbdc65cea	-0.09685691
90	0xbe01aa75	-0.1266268
91	0x3da6c4bd	0.081429936
92	0x3cf7a772	0.030231211
93	0x3e306492	0.17225865
94	0x3e844849	0.258364
95	0x3e053a98	0.13010633
96	0xbd5c1b7b	-0.053737145
97	0x3ea79196	0.3272826
98	0xbe5a3d74	-0.21312505
99	0x3c87ebc5	0.016591916
100	0x3d58f82a	0.052971043
101	0xbe8dba0a	-0.27681
102	0xbd47c395	-0.048770506
103	0xbe919958	-0.28437304
104	0x3e4b756a	0.19869009
105	0x3e273878	0.16330135
106	0x3d85c0b1	0.065308936
107	0x3dfc1fa1	0.1231072
108	0xbe2a9f9d	-0.1666245
109	0x3e66816d	0.2251031
110	0xbd6aef96	-0.057357393
111	0xbea94acc	-0.33064878
112	0x3ec8caa6	0.39217108
113	0xbe47bfd3	-0.19506769
114	0xbdb33bd5	-0.087516464
115	0xbd3c7bfd	-0.046016682
116	0x3e5eecba	0.21769992
117	0xbd699a35	-0.05703183
118	0xbe07aa4e	-0.1324856
119	0xbe1fd94d	-0.15610237
120	0xbe2e7f91	-0.1704085
121	0xbe26bbb9	-0.16282548
122	0xbc2dc3af	-0.010605737
123	0x3e43101b	0.19049112
124	0x3e9e96e1	0.30974486
125	0x3d93bc64	0.07213667
126	0xbe4a15fa	-0.19734946
127	0xbe1c46f7	-0.15261446
128	0xbbc26b77	-0.005933221
129	0x3e1ccd01	0.15312578
130	0xbe8682a2	-0.2627154
131	0x3e0eb666	0.13936767
132	0xbe7b8a41	-0.24564458
133	0x3ca10436	0.019655328
134	0xbed6437a	-0.41848356
135	0x3e41de73	0.18932514
136	0xbdcb29f5	-0.09920112
137	0x3e25546e	0.16145489
138	0x3dc7cd27	0.097559266
139	0x3e2eff1c	0.17089504
140	0xbf24d515	-0.6438764
141	0x3e27f946	0.16403684
142	0x3e7143b5	0.23560984
143	0x3d8d36f3	0.06895246
144	0x3d935043	0.07193043
145	0x3dae8680	0.085217476
146	0x3e0984c7	0.13429557
147	0x3c87587d	0.016521687
148	0xbe1518b3	-0.14560203
149	0x3dc6d021	0.09707666
150	0x3cff2dea	0.031149823
151	0xbde6455c	-0.11243698
152	0xbddacb83	-0.10683348
153	0x3dbc77f3	0.09202566
154	0xbdffc456	-0.1248862
155	0xbdf1f01a	-0.11813374
156	0xbe2a5cbe	-0.16636941
157	0xbe04f863	-0.12985377
158	0x3de58890	0.11207688
159	0x3cb02348	0.021501198
160	0xbde56dde	-0.11202596
161	0xbe1cb3bc	-0.15302938
162	0xbe79ea90	-0.24405885
163	0x3d9336f3	0.07188215
164	0xbc884f15	-0.016639272
165	0xbebb5af2	-0.36592823
166	0xbe0a69bb	-0.13516895
167	0xb9b3364a	-0.0003418199
168	0xbeb79d88	-0.35862374
169	0x3d919bd6	0.071098015
170	0x3d87f5ce	0.066386804
171	0x3d66a5a9	0.05631033
172	0xbe1be04b	-0.1522228
173	0x3ea32f34	0.3187195
174	0xbf0c1064	-0.5471251
175	0x3e30388d	0.17209072
176	0xbe81eb94	-0.25375044
177	0x3d360a37	0.044443335
178	0xbc868e31	-0.016425224
179	0x3c48b3a1	0.012249858
180	0x3e102abe	0.14078805
181	0x3df3a9ab	0.11897596
182	0x3e7572c0	0.23969555
183	0xbe9934eb	-0.29923186
184	0xbd60d688	-0.054892093
185	0x3e28d1c7	0.16486274
186	0x3d646194	0.05575712
187	0x3dc225c2	0.09479858
188	0x3dd8969d	0.10575602
189	0xbe75f0e5	-0.24017675
190	0xbe46057f	-0.19338034
191	0x3ca0c4cf	0.019625096
192	0x3d0edfa6	0.034881257
193	0x3e68383a	0.22677699
194	0x3e25507e	0.16143987
195	0x3b60dbcb	0.0034310694
196	0xbecc8251	-0.39943174
197	0xbc3aeb5b	-0.011408652
198	0x3dedea83	0.11616995
199	0xbd7f4b41	-0.062327627
200	0xbe1b2703	-0.151516
201	0xbd449ac7	-0.04799917
202	0xbe2c6a9d	-0.16837545
203	0xbe63d48b	-0.22249047
204	0x3f421a67	0.75821537
205	0x3eef42a3	0.46730527
206	0x3f372a3d	0.71548826
207	0x3cd25ce7	0.025679065
208	0x3e2bc92f	0.16775964
209	0xbe480a4e	-0.19535181
210	0xbe36dbf6	-0.17857346
211	0xbf27d943	-0.6556589
212	0x3f8ced78	1.100997
213	0xbeb382d6	-0.35060757
214	0x3d81c80d	0.06336985
215	0xbe891173	-0.26771125
216	0x3e640e0b	0.22270982
217	0xbe304bd8	-0.17216432
218	0xbd50c258	-0.05096659
219	0x3e2e585e	0.17025897
220	0xbe4bb1b5	-0.19892009
221	0xbe1b9096	-0.15191874
222	0x3ecd0146	0.40040034
223	0x3e35da9a	0.17759171
224	0x3d25f62d	0.040517975
225	0xbdc44482	-0.09583379
226	0xbe9233a0	-0.28555012
227	0x3b96d6f3	0.0046032607
228	0x3e053d1f	0.13011597
229	0xbe9b8467	-0.30374452
230	0x3e57f37a	0.21088973
231	0x3e08d9d8	0.13364351
232	0x3cc98cae	0.024603214
233	0xbe27a0be	-0.16369912
234	0x3da7b9b9	0.08189721
235	0xbeeab8f5	-0.45844236
236	0x3e4472ad	0.1918437
237	0x3d0ee093	0.03488214
238	0xbe5f1b00	-0.21787643
239	0x3d7b5716	0.06136235
240	0xbe9235b5	-0.285566
241	0xbe1b51e3	-0.15167956
242	0x3d60e361	0.054904345
243	0xbdd08c77	-0.101830415
244	0x3c4e3909	0.01258684
245	0x3ec5db38	0.38643813
246	0xbdb9550e	-0.09049426
247	0xbe815b5e	-0.2526502
248	0xbe3b3fef	-0.18286107
249	0x3e2a5c09	0.16636671
250	0x3b2276c2	0.0024790023
251	0x3cf499db	0.02985852
252	0xbdb90a1d	-0.09035132
253	0x3d167454	0.036732033
254	0xbd802013	-0.06256118
255	0x3d5abc57	0.05340227

adv.bias f4 [100]
0	0x3cc48428	0.023988798
1	0x3dfb654e	0.12275182
2	0xbd016420	-0.031589627
3	0xbe148795	-0.14504845
4	0xbe22843a	-0.15870753
5	0x3e5a9765	0.21346815
6	0xbde5fd65	-0.11229972
7	0xbcd598b5	-0.026073793
8	0x3dca5f0a	0.098814085
9	0xbdecb8f6	-0.11558716
10	0xbe3d118b	-0.18463723
11	0xbd5fd2a2	-0.054644234
12	0xbe1c9e16	-0.1529468
13	0x3be2c8e4	0.0069209207
14	0xbd21d23c	-0.039507136
15	0xbca39488	-0.019968286
16	0xbcba0bf9	-0.022710787
17	0xbbeaabdd	-0.007161601
18	0x3c6bdbc0	0.014395654
19	0x3bb5218a	0.00552768
20	0x3dacefbf	0.084441654
21	0xbd56b07d	-0.052414406
22	0xbdbdfee7	-0.092771344
23	0xbdae304b	-0.08505305
24	0x3dae3161	0.08505512
25	0xbced6323	-0.028977936
26	0xbc9389a0	-0.01800996
27	0x3e038875	0.12845023
28	0xbd067a0a	-0.03283123
29	0xbe197688	-0.14986622
30	0x3d88faa3	0.0668843
31	0x3d371c16	0.04470452
32	0x3cd775b8	0.02630125
33	0xbe2cc2fb	-0.16871254
34	0xbd851d2a	-0.06499703
35	0xbd3fa3e1	-0.046787146
36	0xbd37ea67	-0.044901278
37	0xbdc0475e	-0.09388612
38	0xbda73966	-0.08165245
39	0xbd10ce7c	-0.03535317
40	0xbdca5e59	-0.09881277
41	0x3d9165fc	0.0709953
42	0x3d1810cd	0.037125397
43	0x3c8f2786	0.0174749
44	0x3c561490	0.013066426
45	0x3d74e829	0.059791718
46	0x3dca9ae1	0.09892822
47	0x3d8e0a71	0.06935585
48	0x3dc579bf	0.09642362
49	0x399bc420	0.00029710028
50	0xbdbc74e6	-0.09201984
51	0xbe0bbce6	-0.13646278
52	0xbda512c8	-0.08060223
53	0x3d062c72	0.03275723
54	0xbcb171a0	-0.021660626
55	0xbbd1d3c1	-0.006403417
56	0xbd3a62cb	-0.045504373
57	0x3d620c7e	0.055187695
58	0xbd514e56	-0.051100098
59	0xbd82be9c	-0.06384012
60	0xbcde51bc	-0.027138583
61	0x3ddf13bc	0.10892436
62	0xbdabe23a	-0.08392759
63	0xbdc8e98a	-0.09810169
64	0xbe480417	-0.1953281
65	0x3dbd5fff	0.092468254
66	0xbdcb7f0f	-0.09936344
67	0xbc9901e2	-0.018677656
68	0xbdcd7af8	-0.1003322
69	0x3b6ae76a	0.00358435
70	0xbd910262	-0.070805326
71	0xbe119153	-0.14215593
72	0x3d90a674	0.070629984
73	0xbd6dabe8	-0.05802527
74	0xbdb7aa41	-0.0896802
75	0xbd7dfeb2	-0.062010475
76	0xbe0a37cf	-0.13497852
77	0xbca95597	-0.020670695
78	0x3d707822	0.058708318
79	0x3e290b76	0.16508278
80	0xbdaf362c	-0.08555254
81	0x3dcfa2b6	0.101384565
82	0x3c80d20b	0.015725156
83	0x3d8001ac	0.06250319
84	0x3d24e84b	0.040260594
85	0xbcaea7f0	-0.021320313
86	0x3e1b4497	0.15162884
87	0xbd32831c	-0.043582067
88	0x3de95b70	0.113943934
89	0x3df432ea	0.119237736
90	0x3d5800aa	0.05273501
91	0xbe0e9d30	-0.1392715
92	0x3a50411d	0.0007944273
93	0x3ced96da	0.029002596
94	0xbc4bd657	-0.012441239
95	0xbcff70f3	-0.031181788
96	0xbe340bae	-0.1758258
97	0x3e2ad7e0	0.16683912
98	0xbd111bb4	-0.03542681
99	0xbd90564a	-0.07047708

adv_out.weight f4 [10, 100]
0	0x3b870a1d	0.0041210786
1	0x3e2931e7	0.16522942
2	0xbdc4404d	-0.09582577
3	0x3d0ad82a	0.033897556
4	0xbe63b633	-0.22237472
5	0xbd8e058c	-0.06934652
6	0x3dea8c43	0.11452534
7	0x3d6aa315	0.057284433
8	0x3bf64985	0.0075160884
9	0xbda3b822	-0.07994105
10	0xbdb04c41	-0.08608294
11	0x3e9f4e79	0.31114557
12	0xbdd14197	-0.102175884
13	0xbe172c90	-0.14763093
14	0x3e986388	0.29763436
15	0xbf171682	-0.5901872
16	0x3c5b78c2	0.01339549
17	0x3e417742	0.1889315
18	0x3ee6a2ee	0.4504618
19	0x3e21a214	0.15784484
20	0x3d1ce572	0.038304754
21	0xbe37670b	-0.17910402
22	0x3d8b43dc	0.068000525
23	0x3dbe5d28	0.09295112
24	0xbea79e5b	-0.32738003
25	0x3e8236ed	0.2543253
26	0xbfa7adc7	-1.3099908
27	0x3cfea53f	0.031084655
28	0x3d16cbb2	0.036815353
29	0xbda1eeed	-0.079068996
30	0x3d4191e3	0.04725827
31	0xbe29ccc9	-0.16582026
32	0x3e666eda	0.22503224
33	0xbdb60771	-0.08888138
34	0x3e04e10d	0.12976475
35	0x3de0ad2d	0.10970531
36	0xbe103325	-0.1408201
37	0x3dc0d82f	0.09416234
38	0x3e5567fa	0.20840445
39	0x3f143546	0.5789379
40	0xbdf807af	-0.121108405
41	0x3f24af75	0.64330226
42	0x3e0dc0af	0.13843034
43	0x3d22982f	0.039695915
44	0x3e35a9fd	0.17740627
45	0x3e38d13e	0.1804857
46	0x3e6e78f8	0.23288333
47	0x3ef3fff6	0.4765622
48	0x3ec6b22d	0.38807812
49	0xbf4d5bf1	-0.80218416
50	0xbd47c8a0	-0.048775315
51	0xbe453e9f	-0.1926217
52	0xbd151c3c	-0.03640388
53	0xbf9bf25b	-1.2183336
54	0x3dbc6d6a	0.092005566
55	0x3db6454b	0.08899935
56	0x3dfd16cb	0.12357863
57	0xbe92a709	-0.28643063
58	0x3e1121c4	0.14173037
59	0xbf5e67d8	-0.86877203
60	0xbe4d2586	-0.20033845
61	0x3dd44e2a	0.10366471
62	0x3e0ef7a0	0.13961649
63	0x3e0974fb	0.13423531
64	0xbf6b20c1	-0.91846853
65	0x3d1c957a	0.03822849
66	0xbea3222e	-0.31862015
67	0x3f0c5482	0.5481645
68	0x3e21df3c	0.15807813
69	0x3da1568d	0.078778364
70	0xbe36ea70	-0.17862868
71	0x3eae6c5a	0.3406704
72	0xbccf26f2	-0.025287125
73	0x3e76a295	0.24085458
74	0xbf91ca73	-1.1389908
75	0x3d131b79	0.03591487
76	0x3e6fd595	0.23421319
77	0x3e78c7e6	0.24295005
78	0x3e1eb65e	0.15499255
79	0xbe656fe5	-0.22405966
80	0xbd187db2	-0.037229247
81	0x3e230959	0.15921535
82	0x3ecba145	0.39771476
83	0xbe3f70de	-0.18695399
84	0x3d888d13	0.06667533
85	0x3e2bcd24	0.16777474
86	0x3e3fdd7b	0.18736832
87	0x3d824235	0.06360284
88	0xbbcdbd9c	-0.0062787067
89	0x3d749a79	0.05971763
90	0xbe4fc197	-0.20288692
91	0x3e4c53a7	0.19953786
92	0x3d76cbad	0.060252834
93	0xbd84f7b5	-0.06492559
94	0x3d12eb69	0.035869036
95	0xbfe968a5	-1.823506
96	0x3d8a0139	0.067385145
97	0x3da096d4	0.07841268
98	0x3ea1ace6	0.31577224
99	0x3e2a8457	0.16652046
100	0x3db3d4b5	0.08780805
101	0x3c6e375c	0.014539566
102	0xbef3262c	-0.4749006
103	0x3e746f57	0.23870598
104	0xbe379672	-0.17928484
105	0xbd389d5d	-0.04507195
106	0x3d8a256e	0.067454204
107	0x3da609f7	0.081073694
108	0xbe04ebb9	-0.12980546
109	0xbdb0baf8	-0.086294115
110	0xbe2e29a2	-0.17008069
111	0x3e18da09	0.14926924
112	0xbe0f482d	-0.13992377
113	0xbc14e895	-0.009088655
114	0x3ea46fde	0.32116598
115	0xbe8c115e	-0.27357
116	0x3de7fc41	0.113274105
117	0xbd338c98	-0.043835253
118	0x3e9cbd3d	0.30613127
119	0xbc3e65f1	-0.011620984
120	0x3e196b41	0.1498232
121	0x3d49b7f6	0.049247704
122	0x3dd4487b	0.10365387
123	0x3dd47f74	0.10375872
124	0xbe2ffba7	-0.17185842
125	0x3e86074e	0.26177448
126	0xbeebafc8	-0.46032548
127	0xbdca8796	-0.09889142
128	0x3dae131a	0.08499737
129	0xbc0b3a13	-0.008497733
130	0xbdefe5f8	-0.11713785
131	0x3dfba442	0.12287189
132	0x3d1e24eb	0.038609426
133	0xbd835d8d	-0.06414328
134	0x3df8ce30	0.12148702
135	0x3e6a7033	0.22894363
136	0x3c69e19d	0.014274982
137	0x3e33059c	0.17482609
138	0x3d6dd48c	0.05806403
139	0x3ed0b7c4	0.40765202
140	0xbe1e900b	-0.15484636
141	0x3e2f59b4	0.17124063
142	0x3d8956cb	0.067060076
143	0x3c8da5c0	0.01729095
144	0xbd0c3153	-0.034226727
145	0xbd22a99d	-0.039712537
146	0xbd067db0	-0.03283471
147	0x3eb8f503	0.3612443
148	0x3d62f429	0.05540863
149	0xbecebc51	-0.4037805
150	0xbe0354ab	-0.12825267
151	0x3d2c066d	0.041998316
152	0xbe229f82	-0.1588116
153	0xbed87420	-0.42276096
154	0x3ea46136	0.32105416
155	0x3e0dc14e	0.13843271
156	0x3d05fd35	0.03271218
157	0xbe422830	-0.18960643
158	0x3dfd335d	0.123633124
159	0xbed80469	-0.42190865
160	0xbe5808ae	-0.21097061
161	0xbde2e1e7	-0.11078244
162	0xbd55cc8d	-0.052197028
163	0xbd89a1ad	-0.0672029
164	0xbf144704	-0.5792086
165	0xbdcc15bd	-0.09965084
166	0xbdf19689	-0.117962904
167	0x3de1e0c4	0.11029199
168	0x3e431f3b	0.19054882
169	0xbdc77c5c	-0.097405165
170	0xbe2681ea	-0.16260496
171	0x3e5c33fc	0.21504205
172	0xbdc8f366	-0.098120496
173	0xbe3022af	-0.1720073
174	0xbec2fa73	-0.38081703
175	0xbbff0841	-0.0077829664
176	0x3e97afef	0.29626414
177	0x3e846c47	0.2586386
178	0x3d618c20	0.055065274
179	0xbb6ca0d1	-0.0036106596
180	0xbda25f43	-0.07928326
181	0xbe1a3409	-0.15058912
182	0x3e8c0e5a	0.273547
183	0x3dd030d5	0.10165564
184	0xbc49fb94	-0.012328047
185	0x3e998466	0.29983824
186	0x3d8b53d8	0.06803101
187	0x3ead45fd	0.3384246
188	0xbe8e7114	-0.27820647
189	0xbd6a9bf8	-0.05727765
190	0x3ceee8b7	0.029163701
191	0x3d9b6895	0.07588307
192	0xbdc5e370	-0.09662521
193	0x3d0c2ff4	0.03422542
194	0x3da9aa0d	0.08284388
195	0xbf1db29c	-0.6160066
196	0x3db17837	0.08665507
197	0x3d023f26	0.031798504
198	0x3e3a4fc7	0.18194495
199	0xbe64f3bc	-0.22358602
200	0x3e0fa070	0.14026046
201	0x3e898fe0	0.2686758
202	0xbeb86f10	-0.36022234
203	0x3e7ff273	0.24994831
204	0xbdd69523	-0.10477664
205	0xbd0237b1	-0.031791393
206	0xbd454b90	-0.048167765
207	0xbe69d319	-0.22834434
208	0xbe310e86	-0.17290697
209	0xbde8529d	-0.11343882
210	0x3d2c838d	0.042117644
211	0x3e60b472	0.21943834
212	0xbdab7f05	-0.083738364
213	0xbdc6b0c4	-0.09701684
214	0x3ea34ab4	0.3189293
215	0xbe078719	-0.1323513
216	0xbcdfcc06	-0.027318966
217	0x3e1e7bff	0.15476988
218	0x3e96a143	0.29419908
219	0xbe1e105f	-0.15435933
220	0xbd7e0a5b	-0.062021594
221	0xbc954d99	-0.018225478
222	0xbc920b10	-0.01782754
223	0xbe10e30c	-0.14149112
224	0x3caa967d	0.020823712
225	0x3e921254	0.28529608
226	0xbe51e5b5	-0.20497783
227	0xbdce06a1	-0.10059858
228	0x3e30fd6e	0.17284176
229	0x3ca69bad	0.020337904
230	0xbe37affe	-0.1793823
231	0xbcf59b26	-0.029981207
232	0xbd94f73a	-0.07273717
233	0x3de4dc0d	0.11174784
234	0xbd14c807	-0.036323573
235	0x3e0e32fa	0.13886634
236	0xbe133dc2	-0.14379027
237	0x3e50eeb2	0.20403555
238	0xbdc9f776	-0.098616526
239	0x3ea5befc	0.32372272
240	0xbe0a9269	-0.13532414
241	0x3dc7ecab	0.09761938
242	0x3e07af4d	0.13250466
243	0x3e4f8f44	0.20269495
244	0x3da070dc	0.07834026
245	0xbe235f74	-0.15954381
246	0x3e042b50	0.12907147
247	0x3ee627c2	0.44952208
248	0xbe347764	-0.17623669
249	0xbee537bc	-0.44769084
250	0xbd1d41d3	-0.038392853
251	0x3da9b674	0.08286753
252	0x3d683106	0.056687377
253	0xbe6e690e	-0.23282263
254	0x3dce2a73	0.1006669
255	0x3e1dc5f4	0.15407544

adv_out.bias f4 [10]
0	0x3bad2670	0.005284123
1	0x3cf1a1d7	0.029496117
2	0xbdd77fa5	-0.10522393
3	0xbdf9ea4a	-0.1220289
4	0xbe2ccc64	-0.16874844
5	0xbd4142a0	-0.04718268
6	0x3daf0cff	0.08547401
7	0xbbdba273	-0.006702715
8	0x3d8d9ee1	0.06915069
9	0x3e7afaa7	0.24509679

val.weight f4 [100, 100]
0	0x3e467677	0.19381128
1	0x3e8e5860	0.278018
2	0x3dcc941b	0.099891864
3	0xbe4b9429	-0.19880737
4	0xbec68d05	-0.38779464
5	0xbfa4071b	-1.2814668
6	0xbe77d3ed	-0.24201937
7	0x3e2b3650	0.16719937
8	0x3de2c66a	0.11073001
9	0x3ed3651a	0.41288072
10	0x3e756444	0.2396403
11	0x3e8f7ee8	0.2802651
12	0xbf36717a	-0.712669
13	0x3e564242	0.20923713
14	0xbd49c887	-0.049263503
15	0x3e265369	0.16242756
16	0x3de78f29	0.113066025
17	0xbe26ba65	-0.16282041
18	0xbe513a75	-0.20432456
19	0xbeb938e7	-0.36176226
20	0x3e7599d7	0.23984466
21	0x3c8bb8eb	0.01705595
22	0xbeb7e66f	-0.35917994
23	0xbd37d4bf	-0.044880625
24	0x3dc8bc9e	0.09801601
25	0x3e452936	0.19254002
26	0xbdc04332	-0.093878165
27	0x3d721155	0.05909856
28	0x3e251199	0.16119994
29	0xbe291234	-0.1651085
30	0xbf05232e	-0.52006805
31	0x3e11d838	0.14242637
32	0xbe557b4b	-0.20847814
33	0xbda9c0ae	-0.08288704
34	0x3d9652bc	0.07339999
35	0xbf071949	-0.5277296
36	0xbd01d634	-0.03169842
37	0xbe88fec7	-0.2675688
38	0x3dad07ab	0.08448728
39	0xbd8118ef	-0.06303584
40	0x3e3745a4	0.1789766
41	0x3e77201c	0.24133343
42	0x3e396659	0.18105449
43	0x3da9b78a	0.082869604
44	0xbd443757	-0.04790434
45	0xbf1a49e0	-0.60268974
46	0xbd9bbefc	-0.07604787
47	0x3e1daffa	0.15399161
48	0x3e01d207	0.12677775
49	0x3e82411b	0.25440297
50	0x3e668b13	0.2251399
51	0xbe5a0823	-0.21292166
52	0x3e4ba323	0.1988645
53	0x3dfb77f6	0.1227874
54	0xbcdd36c5	-0.027003655
55	0xbe6578d0	-0.22409368
56	0xbe06d798	-0.1316818
57	0xbe2a0831	-0.16604687
58	0xbeb0ef44	-0.34557545
59	0xbe21980e	-0.1578066
60	0x3e259096	0.16168436
61	0xbdb5d91b	-0.088793
62	0x3debf959	0.11522169
63	0xbe84d5ba	-0.2594431
64	0xbe351896	-0.1768516
65	0xbe8eee64	-0.27916253
66	0xbeb3dc61	-0.35129073
67	0xbd2db500	-0.042408943
68	0xbe5eff74	-0.21777135
69	0xbe14d01c	-0.14532512
70	0xbe682e8b	-0.22674005
71	0xbe58171d	-0.21102567
72	0xbd8572eb	-0.065160595
73	0xbef370c1	-0.47546962
74	0x3ccd9693	0.025096213
75	0xbc773036	-0.015087178
76	0xbe4c67c8	-0.19961464
77	0x3dc28be0	0.09499335
78	0x3e740456	0.23829779
79	0x3d9a6558	0.07538861
80	0x3be64b9f	0.0070280577
81	0xbe4b5db1	-0.19859959
82	0x3df58a0d	0.11989222
83	0xbe4ee3ef	-0.20204137
84	0xbc3c7290	-0.011501923
85	0xbdc46ea2	-0.09591414
86	0xbe973c3d	-0.29538146
87	0xbd895e94	-0.067074925
88	0x3e005bb6	0.12534985
89	0x3de5579d	0.111983515
90	0xbdb47b10	-0.08812535
91	0x3e972312	0.29518944
92	0x3eaf4c21	0.3423777
93	0xbdf7c8cc	-0.12098846
94	0x3e734cfa	0.23759833
95	0x3e523ac7	0.20530234
96	0x3e80ebcf	0.25179908
97	0x3f13cd16	0.5773481
98	0xbd9392a3	-0.07205703
99	0xbd222c83	-0.03959323
100	0xbd4a82f9	-0.04944131
101	0x3ed41ac9	0.41426685
102	0x3e85dc3a	0.26144582
103	0xbe609c49	-0.21934618
104	0xbe97053c	-0.2949618
105	0xbf652c59	-0.89520794
106	0xbea9607f	-0.33081433
107	0x3d92af06	0.07162289
108	0x3e3e63e3	0.18592791
109	0xbd468544	-0.048466936
110	0xbe90ab5b	-0.28255734
111	0xbd34679b	-0.04404412
112	0xc003a387	-2.056856
113	0xbd46bd44	-0.04852034
114	0x3dd78340	0.10523081
115	0xbdbc3c2f	-0.091911666
116	0x3e44c054	0.19213992
117	0xbe33440c	-0.17506427
118	0xbd9f6c44	-0.07784322
119	0xbe72e1aa	-0.23718897
120	0xbe78b9a6	-0.2428957
121	0xbe23e894	-0.1600669
122	0x3d55853f	0.052129027
123	0xbe9e5507	-0.30924246
124	0x3eac8fdd	0.3370351
125	0x3e713eb6	0.23559079
126	0x3cd1530f	0.0255523
127	0xbda688fd	-0.08131597
128	0xbe84cd53	-0.259379
129	0xbe28e802	-0.16494754
130	0x3e54c291	0.20777346
131	0x3e06f3c1	0.13178922
132	0x3e1ae5cf	0.15126728
133	0xbedfa884	-0.43683255
134	0xbd8cd877	-0.06877225
135	0xbd936a1c	-0.07197973
136	0xbefa4e2e	-0.4888777
137	0x3d90e334	0.070745856
138	0x3e408521	0.18800785
139	0x3e45aed6	0.19304976
140	0x3e14c0e7	0.14526711
141	0x3ddc2637	0.107494764
142	0xbe50d209	-0.20392622
143	0xbe42cbc1	-0.19023038
144	0x3d9ff117	0.07809656
145	0xbe8bf35f	-0.27334115
146	0xbe033cf5	-0.12816222
147	0xbdbf7334	-0.09348145
148	0xbe11bc92	-0.1423209
149	0xbe21896c	-0.15775079
150	0x3ded6e0e	0.11593257
151	0xbd88cbad	-0.06679473
152	0x3ccb6f7a	0.02483343
153	0x3e485901	0.19565202
154	0x3d1e874d	0.03870325
155	0x3e3affeb	0.18261687
156	0xbe548972	-0.20755556
157	0xbe0175e4	-0.12642628
158	0xbe4b149c	-0.1983208
159	0x3dd66cb2	0.10469951
160	0x3d724d5a	0.0591558
161	0x3dd0631b	0.10175153
162	0x3e1a987d	0.15097232
163	0xbd8471ff	-0.064670555
164	0x3e4fe9d6	0.20304045
165	0xbe0dc3da	-0.13844243
166	0x3d75811e	0.05993759
167	0x3cffb669	0.03121491
168	0xbe810df6	-0.25205964
169	0x3e2b0ace	0.1670334
170	0x3c9dc9e8	0.019261315
171	0x3dd51071	0.104035266
172	0x3c9748bb	0.018467298
173	0x3e9df16d	0.30848256
174	0x3d19e208	0.037569076
175	0x3e932c3e	0.28744692
176	0xbf35dc49	-0.71039253
177	0xbda81618	-0.08207339
178	0x3e018dbb	0.12651722
179	0xbddd39a1	-0.108020075
180	0xbd951abf	-0.07280492
181	0xbe3f5f3c	-0.18688673
182	0xbe07095b	-0.13187163
183	0xbe11f406	-0.14253244
184	0x3cf8f8b8	0.030392036
185	0xbdf8d6a9	-0.12150318
186	0x3dd892bf	0.105748646
187	0x3e75ea1e	0.2401509
188	0xbd65c3c3	-0.056094896
189	0xbe67fb07	-0.22654353
190	0x3e33ff07	0.17577754
191	0x3d17e911	0.037087504
192	0xbdb2fcee	-0.08739649
193	0xbda26951	-0.07930244
194	0x3e0937cc	0.13400191
195	0xbcb94a5b	-0.022618463
196	0xbb0e31fd	-0.0021697276
197	0x3e96f000	0.2947998
198	0x3e220874	0.15823537
199	0xbea1c852	-0.31598145
200	0x3e6cec8a	0.23137107
201	0xbd27161f	-0.04079258
202	0xbd8b6477	-0.068062715
203	0xbf1e8430	-0.6192045
204	0x3ed38e3d	0.41319457
205	0x3f645a87	0.89200634
206	0x3f2798a9	0.65467316
207	0xbe38cb5d	-0.18046327
208	0x3c334ab8	0.010943107
209	0xbe2694b1	-0.16267659
210	0x3dc2d6cb	0.09513625
211	0xbf91eb71	-1.1399976
212	0x3ffadd36	1.9598758
213	0xbe25dde8	-0.16197932
214	0xbd34ad8c	-0.04411082
215	0x3d8526ff	0.065015785
216	0x3d6d6b21	0.057963494
217	0xbe9210c5	-0.2852842
218	0x3d585717	0.05281743
219	0x3e589e28	0.21154082
220	0xbd990c5c	-0.074730605
221	0x3d0b0df9	0.033948872
222	0x3eb2132e	0.34780258
223	0x3df3f537	0.119120054
224	0xbe0c67ce	-0.13711473
225	0x3dbb4d7c	0.09145638
226	0xbf1c2e13	-0.61007804
227	0xbe170f9f	-0.14752053
228	0xbdff8c0c	-0.12477884
229	0xbe9f8a58	-0.31160235
230	0x3d91dfb1	0.07122744
231	0xbdfa43b4	-0.122199446
232	0x3c0e4d83	0.008685472
233	0x3d26e7b1	0.040748302
234	0x3e08fcdd	0.1337771
235	0xbe6d80fc	-0.23193735
236	0x3dc30bfe	0.09523772
237	0x3d2ef0e0	0.042710185
238	0xbf30ec68	-0.6911073
239	0xbef0e413	-0.47049007
240	0xbe47e6bf	-0.19521616
241	0xbe053268	-0.1300751
242	0x3d67d739	0.056601737
243	0x3e3f39de	0.18674418
244	0x3e7508fa	0.23929206
245	0x3e1bc793	0.1521285
246	0x3e801637	0.2501695
247	0x3d489172	0.048966832
248	0x3df43dc4	0.11925843
249	0x3de1de1e	0.110286936
250	0xbe673a51	-0.2258084
251	0xbbf59366	-0.007494378
252	0xbc1f3ac0	-0.009718597
253	0xbdbdf428	-0.09275085
254	0x3ea259a4	0.31709015
255	0x3db47ea4	0.08813217

val.bias f4 [100]
0	0xba9a49e1	-0.0011771285
1	0x3e67c357	0.2263311
2	0xbd0458b3	-0.032311153
3	0xbd1a4073	-0.03765912
4	0xbe4a1862	-0.19735864
5	0x3e46c968	0.19412768
6	0xbe0b0a42	-0.13578132
7	0x3e41b46b	0.1891648
8	0xbd709179	-0.058732484
9	0xbe3bd4e5	-0.18342932
10	0x3eb06406	0.34451312
11	0xbd34c5ad	-0.04413383
12	0x3e0367e0	0.12832594
13	0x3e96426c	0.2934755
14	0x3db4d9b2	0.088305846
15	0xbdee6928	-0.11641151
16	0xbd0d022b	-0.034425896
17	0x3e3e2f89	0.1857282
18	0x3e200ae6	0.15629157
19	0x3d7fec58	0.062481254
20	0x3e38743c	0.1801309
21	0x3d74a59a	0.059728242
22	0xbd518993	-0.05115659
23	0xbddf7e8e	-0.1091281
24	0x3c91b504	0.01778651
25	0xbc924978	-0.017857298
26	0x3e2486be	0.16067025
27	0x3dcf0e4e	0.1011015
28	0x3e13197b	0.14365189
29	0x3e3e58f3	0.18588619
30	0xbb4b1c37	-0.003099216
31	0x3d92be1c	0.07165167
32	0xbdc8af63	-0.09799077
33	0x3de3ae3a	0.111172155
34	0x3e37934f	0.17927288
35	0x3d381a35	0.044946868
36	0x3e122b1e	0.1427426
37	0xbe105417	-0.14094578
38	0x3dabc583	0.08387282
39	0xbd1227f2	-0.035682626
40	0x3e47234a	0.19447055
41	0x3e40df3b	0.18835156
42	0x3e621638	0.22078788
43	0xbe1adc1a	-0.15123025
44	0x3e3cb906	0.18429956
45	0xbe0d9a5c	-0.13828415
46	0x3d889ef1	0.06670941
47	0xbeb46c31	-0.35238793
48	0x3e697217	0.22797428
49	0x3ca630f5	0.020287016
50	0x3d81faf6	0.06346695
51	0x3e4b8c2e	0.19877693
52	0xbe9c0d45	-0.30478874
53	0xbd19af2c	-0.037520573
54	0xbdaca76b	-0.0843037
55	0x3e6f3ffc	0.23364252
56	0x3da38240	0.079838276
57	0xbd32f891	-0.043694083
58	0xbcdd67e6	-0.027027082
59	0xbd8864ed	-0.06659875
60	0xbc863d89	-0.016386764
61	0x3eb0ec32	0.34555203
62	0xbc337def	-0.010955318
63	0xbdbb23f3	-0.09137716
64	0xbc85fad0	-0.016354948
65	0xbe216123	-0.15759711
66	0xbdaf6c70	-0.08565605
67	0x3d1ff269	0.03904954
68	0xbe101db1	-0.14073826
69	0x3e805902	0.25067908
70	0x3dcf8cb2	0.101342574
71	0x3e3d75a3	0.18501906
72	0xbdc2ed99	-0.095179744
73	0x3df79ff3	0.12091055
74	0x3c3617d1	0.011114077
75	0xbef31cbc	-0.4748286
76	0xbd4bd4f0	-0.04976362
77	0x3e5c6765	0.21523817
78	0x3db79145	0.08963255
79	0xbd8707b8	-0.06593269
80	0xbe47108b	-0.19439904
81	0x3d9bbb9f	0.07604145
82	0xbce6de98	-0.028182313
83	0xbdd9eba0	-0.10640645
84	0x3e1d089d	0.15335317
85	0xbe23355c	-0.15938324
86	0x3e0e4d74	0.13896734
87	0x3e0586fa	0.1303977
88	0x3c9f65b4	0.019457676
89	0xbd0625e7	-0.03275099
90	0xbbb26417	-0.0054440605
91	0xbcdf6bf9	-0.027273165
92	0xbdd89bf8	-0.10576624
93	0x3e178881	0.14798166
94	0x3dd7eaa4	0.10542801
95	0xbda0080b	-0.07814034
96	0x3dcb5d39	0.0992989
97	0x3e73482f	0.23758005
98	0x3c97b4c0	0.018518806
99	0x3df77769	0.120833226

val_out.weight f4 [1, 100]
0	0x3eb659e2	0.3561545
1	0x3e65228e	0.22376463
2	0xbf3751d9	-0.71609265
3	0xbe3036f0	-0.17208457
4	0xbf1f8cdc	-0.6232431
5	0x3eb75b65	0.35811916
6	0xbebf09c3	-0.37312135
7	0x3dbda314	0.0925962
8	0xbe68f436	-0.22749409
9	0xbf841a41	-1.0320512
10	0x3dca9f38	0.0989365
11	0xbe2309ad	-0.1592166
12	0x3ed092d3	0.40737018
13	0x3ea1b23e	0.315813
14	0x3effed6a	0.4998582
15	0xbf202954	-0.6256306
16	0xbe501214	-0.20319396
17	0x3e9c459b	0.30521855
18	0x3e5a1cdd	0.21300073
19	0xbeaeee10	-0.34166002
20	0x3e506422	0.20350698
21	0xbe52126c	-0.2051484
22	0xbe6e5411	-0.23274256
23	0xbe5b31f7	-0.21405779
24	0xbefa79ee	-0.4892115
25	0x3e76c2fa	0.24097815
26	0x3e8f0d13	0.27939662
27	0x3df4c44b	0.119515024
28	0x3e6075ab	0.21919887
29	0x3e9497a2	0.29021937
30	0x3e9d184c	0.306826
31	0x3d9d950f	0.07694446
32	0xbe94aa22	-0.2903605
33	0x3e52ac04	0.20573431
34	0x3eb41548	0.35172486
35	0x3d0b96f3	0.034079503
36	0xbeba4196	-0.36378163
37	0xbed6dea3	-0.41966733
38	0x3d3d56ed	0.046225477
39	0x3f07c76e	0.5303868
40	0x3dbba1af	0.09161698
41	0x3eafe3a7	0.34353372
42	0x3e28b5dd	0.16475625
43	0xbec8e262	-0.39235216
44	0xbef090b2	-0.46985394
45	0xbeaec81d	-0.3413705
46	0xbf78777c	-0.9705732
47	0xbf3bcb49	-0.73357064
48	0x3dd5dfbd	0.10443065
49	0xbee23bf3	-0.44186363
50	0x3da12009	0.07867438
51	0x3eab30aa	0.33435565
52	0xbefa8eed	-0.4893717
53	0x3ccdf3cb	0.025140664
54	0xbe39452f	-0.18092798
55	0x3e765726	0.24056682
56	0xbefa4773	-0.48882636
57	0xbf08ad1d	-0.5338915
58	0xbeefe6d6	-0.468558
59	0x3f2dce4d	0.67892915
60	0xbe53a936	-0.20670018
61	0x3f82c520	1.0216408
62	0x3e82507a	0.25452024
63	0x3e5654d0	0.20930791
64	0x3dbb1845	0.091354884
65	0xbe53c3a3	-0.20680098
66	0xbea2475f	-0.31695077
67	0x3ef510d9	0.47864416
68	0xbeb0f20c	-0.34559667
69	0x3e77646b	0.241594
70	0x3eb9997e	0.36249918
71	0x3dd30005	0.10302738
72	0xbe37877d	-0.17922778
73	0x3eac23fc	0.33621204
74	0xbe9c7aad	-0.30562344
75	0xbf3b03b9	-0.73052555
76	0xbf49ee8e	-0.7887963
77	0x3e9cb423	0.30606183
78	0x3eff186e	0.49823326
79	0x3c944340	0.018098474
80	0xbf884624	-1.0646405
81	0x3e378cd4	0.17924815
82	0xbe4b9f0d	-0.19884892
83	0xbe97915b	-0.29603085
84	0x3f478e99	0.7795196
85	0xbe430a6d	-0.19046946
86	0x3e8ce440	0.2751789
87	0x3e9160b7	0.283941
88	0x3efe1a1b	0.49629292
89	0x3ee903e3	0.45510778
90	0xbf0f4150	-0.55959034
91	0xbefdccb1	-0.4957023
92	0xbe818b89	-0.2530177
93	0x3d63f5ef	0.055654462
94	0x3f734454	0.95026135
95	0x3eb02775	0.34405103
96	0xbc1eba60	-0.00968799
97	0x3e804e43	0.2505971
98	0x3e61ed66	0.22063217
99	0x3e8aafd1	0.27087262
