models/demo_C0_TOKYO_230.pt (torch_old, 4191 bytes, 5 tensors)

fc1.weight f4 [50, 4]
0.77229416 -0.95903575 0.42686173 -0.012317372 1.7185138 0.8761727 0.2962216 0.6718165
-0.27610916 -0.075616114 0.5992203 0.5034523 0.44556877 -0.67427677 0.86258495 0.11801729
0.7869406 0.77139485 0.203537 1.1283513 1.2512652 -0.8827696 0.40720323 -0.5499463
0.83144677 1.6100184 0.8747811 0.9785821 -0.96837837 -1.2914819 1.0132104 -0.70917714
-1.3482118 -0.5793374 -0.7621963 -0.71572787 -0.569889 -0.73475784 0.042511847 0.046015456
-1.0325123 0.1480149 -0.3477782 -0.53620875 -0.6140403 1.7125505 -0.33348256 -0.23988374
1.5269318 0.4096025 0.81710213 -0.21280818 0.65435934 -0.98429394 -0.24271016 -0.2591444
1.3064892 0.44710794 0.62850654 0.6008276 0.5009689 0.81294703 -0.25069764 0.9968993
1.0425308 -0.2405249 -0.6146487 1.080736 1.144725 1.0475038 -0.23986484 0.47273427
0.5484319 0.14184496 -0.25620893 1.0466822 1.2187635 -0.15547715 0.6320177 0.46919024
-1.6872938 -0.42573336 0.683487 0.33464333 -0.68837804 -1.60147 1.0609015 -0.3086409
-0.76003367 -1.6220586 0.07391442 -1.0273616 0.17918186 0.79851663 0.7740667 1.1000248
-0.8913618 1.412511 0.00665316 -1.1765188 1.0567051 0.16464889 -0.81977224 0.14206472
-1.486253 -0.95522237 -0.93355864 0.4064658 0.20569175 -0.95488185 0.022951806 -0.7622937
1.2604058 0.12427745 1.0619301 -0.49976766 0.36962122 0.13052711 -0.25914568 0.431832
0.79070735 -0.5953018 -0.40025437 -0.85216457 0.46674344 1.3695079 -0.24169454 0.27970627
1.121537 -1.3678294 0.13339084 -0.11405382 0.13842665 -1.6983507 -1.0332997 -0.11635493
1.0447099 1.3038123 -0.55180794 0.20451051 0.4967485 -0.41758862 -0.40777355 0.51768714
-0.09792183 1.0236077 -0.5405585 0.6614332 0.033597287 -2.007659 -0.74071467 0.9769599
1.4163289 0.6941657 0.52809143 0.8319216 0.8030158 -0.23242131 -0.14346994 1.0388405
0.7718024 -0.65788656 -0.64105964 0.5019798 -0.55088204 -0.2957664 -1.1206435 0.43703666
1.505412 0.95197254 -0.70203567 0.07953093 0.31915337 0.90246236 0.15655175 1.1723824
-1.1091776 -1.145421 -0.5836458 -0.9997489 0.08010626 0.034973383 0.15761256 -0.9474879
0.077298954 0.27986366 0.34742913 -0.85141814 0.18679093 -0.42802572 1.2133294 0.078946866
1.4368371 0.3513818 -0.15424468 0.3946639 -0.123168506 -0.5490051 1.2418687 0.7645568
00000000: 12b5 453f 5e83 75bf 9f8d da3e cdce 49bc
00000010: 43f8 db3f db4c 603f 5caa 973e 2bfc 2b3f
00000020: 2e5e 8dbe 9fdc 9abd 8066 193f 40e2 003f
00000030: 9721 e43e 679d 2cbf 5ed2 5c3f 0db3 f13d
00000040: f074 493f 227a 453f 016c 503e d16d 903f
00000050: 7529 a03f 30fd 61bf f17c d03e 48c9 0cbf
00000060: b2d9 543f 1515 ce3f a7f1 5f3f 5b84 7a3f
00000070: a5e7 77bf 474f a5bf e1b0 813f a28c 35bf
00000080: 3492 acbf 754f 14bf 4c1f 43bf f139 37bf
00000090: 3fe4 11bf 1719 3cbf e720 2e3d b47a 3c3d
000000a0: 5d29 84bf 3891 173e fc0f b2be fa44 09bf
000000b0: bf31 1dbf db34 db3f 3abe aabe 15a4 75be
000000c0: 8072 c33f 6bb7 d13e 9b2d 513f 63ea 59be
000000d0: 1884 273f b0fa 7bbf 0389 78be 93ae 84be
000000e0: 0a3b a73f 55eb e43e cee5 203f d6cf 193f
000000f0: 7f3f 003f 4c1d 503f 715b 80be cb34 7f3f
00000100: a671 853f 294c 76be 9e59 1dbf 8f55 8a3f
00000110: 5986 923f 9b14 863f 219f 75be 3a0a f23e
00000120: 0866 0c3f ce3f 113e d12d 83be aff9 853f
00000130: 7100 9c3f 6735 1fbe e9cb 213f b439 f03e
00000140: 3ef9 d7bf b9f9 d9be 01f9 2e3f 5f56 ab3e
00000150: 8b39 30bf f8fc ccbf 9fcb 873f 2e06 9ebe
00000160: 9191 42bf 9e9f cfbf 7260 973d 9680 83bf
00000170: 737b 373e 966b 4c3f 3c29 463f 9dcd 8c3f
00000180: 4930 64bf 29cd b43f c002 da3b 2b98 96bf
00000190: 1d42 873f b899 283e 98dc 51bf 6a79 113e
000001a0: 8a3d bebf 7489 74bf b3fd 6ebf 491c d03e
000001b0: dca0 523e 2373 74bf 6d05 bc3c ae25 43bf
000001c0: fa54 a13f 2d85 fe3d 53ed 873f 8ce1 ffbe
000001d0: fe3e bd3e e6a8 053e beae 84be 1519 dd3e
000001e0: cc6b 4a3f b365 18bf 24ee ccbe 7527 5abf
000001f0: fff8 ee3e 094c af3f c67e 77be a935 8f3e
00000200: 868e 8f3f 0915 afbf 9c97 083e 0d95 e9bd
00000210: b7bf 0d3e 8e63 d9bf 2a43 84bf 7e4b eebd
00000220: 0eb9 853f 52e3 a63f 4943 0dbf 346b 513e
00000230: d255 fe3e 2dce d5be b2c7 d0be 2587 043f
00000240: 3e8b c8bd 9405 833f 0b62 0abf b053 293f
00000250: 4f9d 093d 7c7d 00c0 7a9f 3dbf 0b1a 7a3f
00000260: 444a b53f d8b4 313f 0031 073f d0f8 543f
00000270: 7292 4d3f daff 6dbe c9e9 12be baf8 843f
00000280: d894 453f 416b 28bf 7c1c 24bf c081 003f
00000290: 9b06 0dbf b26e 97be 3f71 8fbf 45c3 df3e
000002a0: 57b1 c03f 79b4 733f 9cb8 33bf 1de1 a23d
000002b0: 1268 a33e c607 673f 1a4f 203e a010 963f
000002c0: 88f9 8dbf 289d 92bf d069 15bf 8bef 7fbf
000002d0: c00e a43d 4040 0f3d 3065 213e 918e 72bf
000002e0: ea4e 9e3d 4a4a 8f3e 3be2 b13e 8af6 59bf
000002f0: 1f46 3f3e 3026 dbbe 614e 9b3f e5ae a13d
00000300: 47ea b73f 51e8 b33e 51f2 1dbe 6311 ca3e
00000310: c53f fcbd 998b 0cbf 8ef5 9e3f ffb9 433f

fc1.bias f4 [50]
0.25096974 0.21931364 0.4998225 -0.71082747 0.7326672 0.25889087 0.70835567 -0.45336083
-0.31797257 0.4145887 0.2241979 -0.57978594 0.81083494 0.19538087 0.74425083 0.47712934
1.1583803 0.82539785 -0.20396553 -0.44137675 -0.41626224 0.013708384 0.35130465 0.56776524
-0.28633568 -0.26824683 -0.46572486 -0.56811893 0.119933814 1.0179316 -0.50021476 0.08213146
0.27048013 -0.15084475 -0.22409616 0.689182 0.23392648 -0.093688816 0.69383204 0.601368
0.57833064 -0.046274103 0.7486017 -0.055140816 0.5492472 0.09204614 0.077109754 0.36694258
0.70064384 0.4803271
00000000: 1b7f 803e c193 603e bce8 ff3e caf8 35bf
00000010: 1490 3b3f 588d 843e cc56 353f e91e e8be
00000020: 4dcd a2be f844 d43e 2294 653e da6c 14bf
00000030: e192 4f3f ec11 483e 3987 3e3f 4c4a f43e
00000040: ce45 943f 464d 533f 57dc 50be 22fc e1be
00000050: 5320 d5be 2199 603c 34de b33e 1059 113f
00000060: 979a 92be a657 89be 7d73 eebe 3e70 11bf
00000070: dc9f f53d 954b 823f 130e 00bf 8a34 a83d
00000080: 5f7c 8a3e 0c77 1abe 7779 65be 3b6e 303f
00000090: 6c8a 6f3e ecdf bfbd fa9e 313f 41f3 193f
000000a0: 7a0d 143f ea89 3dbd 5ca4 3f3f 56db 61bd
000000b0: 779b 0c3f b082 bc3d b8eb 9d3d e6df bb3e
000000c0: 655d 333f 6fed f53e

adv_out.weight f4 [10, 50]
0.36281323 -0.27472258 0.6397449 0.582314 0.51213 -0.3889776 0.05533975 0.035141733
0.5467641 0.91601026 0.1296475 1.2435004 -0.22483692 0.6127913 -0.22119537 0.4522832
0.44744834 -0.81100416 -0.035175662 -0.33554783 0.32874686 -0.13560398 -0.59687924 0.41348535
0.23352876 0.23511091 -0.011403771 0.20614111 -0.24216464 0.35320514 -0.115689665 -0.3306795
0.2761653 -0.10724732 0.71615106 0.07303766 0.44975325 0.13946263 -1.1204232 0.3397047
0.7216873 0.38753325 -0.7283585 0.555228 -0.2955934 0.28666833 0.20862912 0.5406141
-0.62001437 0.4327709 0.451919 -0.29405406 0.3238879 -0.25234038 0.5018663 -0.53346694
0.18495256 -0.2663717 -0.06887369 0.46506375 -0.41762838 1.1155074 -0.413268 0.23791768
-0.69026417 0.20713831 0.18498659 -0.18404901 0.20379622 -0.028767135 0.020613331 0.5545156
-0.799985 0.83744293 -0.16564158 0.21753632 -0.022002034 -0.024769044 -0.53808385 0.26705268
0.11947003 0.2546483 0.63457733 -0.027652733 -0.60731465 0.7683644 0.47793272 -0.18854524
-0.34702918 0.5206179 0.34639567 0.12250747 0.021280784 0.7198923 0.1818599 -0.31429863
0.108223185 0.7230103 -0.52105176 -0.103951335 0.53349024 -0.36458826 0.445717 0.16486949
0.5363129 -0.045911416 0.38538098 0.09879602 0.11856007 0.2080445 0.57098573 0.8664544
-0.7355105 0.4374424 -0.12964132 0.39575633 0.43808946 -0.05659803 0.34252375 -0.45226252
-0.26543483 0.28967983 -0.67424566 0.50893533 -0.07540935 0.5362141 0.08178755 -0.19761194
-0.24276492 -0.11681985 0.020345183 -0.8243371 0.08509631 0.055758566 -0.57985824 0.17874077
0.5492178 0.2617092 -0.5255142 0.6503149 0.36374125 0.011858965 -0.27194676 0.48386714
0.043854453 0.2992635 -0.19741295 1.0389237 -0.10664161 0.75119686 0.15770748 -0.7067864
-0.10755811 0.28863743 0.70369005 0.1257209 -0.06433345 -0.20971903 -0.2512321 -0.03606088
-0.32070777 0.42031792 -0.60183793 -0.024571128 -0.3439464 0.24677002 0.64028805 -0.13490959
0.14935093 -0.12286592 -0.14312297 0.06871289 -0.38832766 0.37482366 -0.00091391953 0.15905398
0.3378721 -0.06199514 -0.55420136 0.24983765 0.51022446 -0.57480836 -0.15272455 0.4829738
-1.2124152 0.6640247 0.3607517 0.09603885 -0.06600518 0.82938796 0.05744406 0.10134037
-0.17419519 0.30580506 -0.51823586 0.27704546 -0.07378682 0.15232354 -0.06693025 0.25775865
0.48630258 -0.41565934 0.70450366 0.30828115 0.5613123 -0.03560056 0.49759895 0.25391814
0.23304732 -0.021360183 -0.20860563 0.054229684 -0.31355277 -0.17391272 -0.23488902 0.49239314
0.30489233 -0.5907738 0.18126017 0.15691616 0.32001394 -0.037309896 -0.40089902 0.18824013
0.47930127 0.31467092 0.17014478 0.10953486 0.12938562 0.5679167 0.23925789 -0.2521277
-0.040003132 0.5164954 -0.423384 0.038919408 0.5802532 0.14795834 -0.6751601 0.46753734
0.028134301 0.07169911 -0.21756464 0.52998424 0.23629712 -0.18552482 0.08775192 0.28723246
-0.061539188 0.60723335 -0.041716184 -0.41942585 0.3675512 -0.06213734 0.7886705 0.03157625
00000000: a8c2 b93e 70a8 8cbe 52c6 233f 8812 153f
00000010: f41a 033f 1228 c7be efab 623d c7f0 0f3d
00000020: bbf8 0b3f a67f 6a3f 50c2 043e 052b 9f3f
00000030: a63b 66be e4df 1c3f 0a81 62be aa91 e73e
00000040: f317 e53e f89d 4fbf 5b14 10bd edcc abbe
00000050: 8251 a83e c5db 0abe 14cd 18bf 5ab4 d33e
00000060: 2a22 6f3e eac0 703e e2d6 3abc a816 533e
00000070: 02fa 77be 4ed7 b43e b4ee ecbd d34e a9be
00000080: 8a65 8d3e 7ca4 dbbd ad55 373f c594 953d
00000090: 0f46 e63e 4bcf 0e3e 076a 8fbf c6ed ad3e
000000a0: 80c0 383f c26a c63e b475 3abf 6c23 0e3f
000000b0: 0558 97be 31c6 923e dfa2 553e b065 0a3f
000000c0: 43b9 1ebf 2694 dd3e ed61 e73e 418e 96be
000000d0: a3d4 a53e c232 81be 4f7a 003f 4a91 08bf
000000e0: 3464 3d3e df61 88be a60d 8dbd d61c ee3e
000000f0: 63d3 d5be f2c8 8e3f dd97 d3be b1a0 733e
00000100: 27b5 30bf 111c 543e 206d 3d3e 5877 3cbe
00000110: f5af 503e 0ea9 ebbc 4add a83c bcf4 0d3f
00000120: d1cb 4cbf a962 563f f29d 29be d7c1 5e3e
00000130: 9c3d b4bc 73e8 cabc ddbf 09bf 21bb 883e
00000140: b4ac f43d 4361 823e a973 223f fc87 e2bc
00000150: f978 1bbf 88b3 443f 99b3 f43e 0112 41be
00000160: cfad b1be 3747 053f c65a b13e 32e5 fa3d
00000170: 0a55 ae3c dd4a 383f 7b39 3a3e c0eb a0be
00000180: 1ea4 dd3d 3417 393f a663 05bf 70e4 d4bd
00000190: d192 083f 50ab babe 0535 e43e 8cd3 283e
000001a0: cd4b 093f 9c0d 3cbd a850 c53e 9155 ca3d
000001b0: 9fcf f23d 9e09 553e 1f2c 123f f5cf 5d3f
000001c0: 6b4a 3cbf 73f8 df3e b2c0 04be 93a0 ca3e
000001d0: 434d e03e 56d3 67bd 465f af3e f48e e7be
000001e0: 13e7 87be ea50 943e 5d9b 2cbf 9649 023f
000001f0: 3870 9abd 5445 093f 3b80 a73d c95a 4abe
00000200: 5e97 78be 3f3f efbd f1aa a63c c207 53bf
00000210: f946 ae3d 1863 643d 9771 14bf d207 373e
00000220: 8a99 0c3f c0fe 853e 1988 06bf 0a7b 263f
00000230: 4b3c ba3e 1b4c 423c 9b3c 8bbe 6fbd f73e
00000240: baa0 333d 1139 993e 9f26 4abe 74fb 843f
00000250: eb66 dabd 704e 403f 127e 213e f4ef 34bf
00000260: 6d47 dcbd 49c8 933e 0825 343f fbbc 003e
00000270: 41c1 83bd 96c0 56be 7ea1 80be 93b4 13bd
00000280: cf33 a4be e933 d73e 0d12 1abf 6449 c9bc
00000290: be19 b0be 48b1 7c3e ebe9 233f bd25 0abe
000002a0: 73ef 183e 21a1 fbbd d48e 12be 58b9 8c3d
000002b0: e2d2 c6be e3e8 bf3e 1a94 6fba 0cdf 223e
000002c0: 92fd ac3e 9eee 7dbd 24e0 0dbf 71d5 7f3e
000002d0: 129e 023f a426 13bf d363 1cbe 5848 f73e
000002e0: 6c30 9bbf 86fd 293f 72b4 b83e 04b0 c43d
000002f0: b92d 87bd c552 543f 764a 6b3d 8a8b cf3d
00000300: 3960 32be 7b92 9c3e 1bab 04bf e7d8 8d3e
00000310: 8b1d 97bd b4fa 1b3e ba12 89bd f1f8 833e
00000320: a7fc f83e 4dd1 d4be 5a5a 343f 07d7 9d3e
00000330: 2ab2 0f3f e5d1 11bd 4ac5 fe3e 8f01 823e
00000340: f5a3 6e3e 8dfb aebc b79c 55be f21f 5e3d
00000350: fd89 a0be 2d16 32be bf86 70be f41a fc3e
00000360: d91a 9c3e f43c 17bf 449c 393e a1ae 203e
00000370: ded8 a33e 43d2 18bd a342 cdbe 05c2 403e
00000380: fa66 f53e 8c1c a13e 6f3a 2e3e d053 e03d
00000390: aa7d 043e fd62 113f 0500 753e e216 81be
000003a0: 53da 23bd 0b39 043f cac5 d8be f569 1f3d
000003b0: 798b 143f 6482 173e 4bd7 2cbf 0e61 ef3e
000003c0: e879 e63c fcd6 923d 44c9 5ebe 0cad 073f
000003d0: dff7 713e 38fa 3dbe 47b7 b33d 2210 933e
000003e0: 8410 7cbd a573 1b3f 97de 2abd fcbe d6be
000003f0: ac2f bc3e b983 7ebd 4fe6 493f 1956 013d

adv_out.bias f4 [10]
0.23642567 0.37026656 -0.014729591 0.061693594 0.10564695 0.26392823 0.18766178 0.20339905
0.3049682 0.15887183
00000000: 9219 723e 9493 bd3e 6254 71bc 6cb2 7c3d
00000010: 6e5d d83d 9a21 873e 692a 403e d747 503e
00000020: cb24 9c3e 4caf 223e

val_out.weight f4 [1, 50]
0.25400448 -0.8836566 -0.12004807 0.734637 1.1822383 -0.6104607 0.79782945 -0.9028579
-0.87033606 -0.048966486 -0.8359653 0.6855297 -0.861084 0.13634028 -0.5589831 0.21977167
1.176945 -1.071023 0.41934958 -0.8004733 -0.61393857 -1.184084 -1.7312357 0.38351855
-1.2273921 1.0012026 -0.24670716 0.5266532 -0.15140249 0.21951821 -0.26965538 -1.3769208
0.5381508 -0.71466774 -0.3129294 0.6639149 0.4368478 -0.27944264 -1.0251057 0.8679629
0.44401723 -0.5720214 -0.86851764 0.11593152 -1.2281337 -0.1292822 -0.00015134846 0.09067214
-1.100425 0.21239027
00000000: e00c 823e 5237 62bf c3db f5bd 2c11 3c3f
00000010: 9653 973f 2747 1cbf 8d3e 4c3f b221 67bf
00000020: 58ce 5ebf 1591 48bd d201 56bf e07e 2f3f
00000030: 0070 5cbf c99c 0b3e 8419 0fbf d30b 613e
00000040: 22a6 963f 4817 89bf fdb4 d63e d1eb 4cbf
00000050: 142b 1dbf 1190 97bf 2299 ddbf 8b5c c43e
00000060: 2f1b 9dbf 6827 803f cda0 7cbe bed2 063f
00000070: 4109 1bbe 62c9 603e 4510 8abe f13e b0bf
00000080: 40c4 093f 77f4 36bf 4838 a0be 54f6 293f
00000090: 84aa df3e 1b13 8fbe aa36 83bf d132 5e3f
000000a0: 3a56 e33e ff6f 12bf 2c57 5ebf 816d ed3d
000000b0: 7c33 9dbf 8e62 04be 4bb3 1eb9 51b2 b93d
000000c0: bada 8cbf d67c 593e
