models/demo_C0_2cTOKYO_314.pt (torch_old, 4191 bytes, 5 tensors)

fc1.weight f4 [50, 4]
0	0xbecd5ae0	-0.40108395
1	0xbdc56910	-0.0963918
2	0xbf230b0e	-0.63688743
3	0x3f32916e	0.6975316
4	0x3ee45bde	0.4460134
5	0xbf15bcad	-0.5849102
6	0xbf3abd9c	-0.7294557
7	0x3f563361	0.8367215
8	0x3da79a5e	0.0818374
9	0x3eae2570	0.34012938
10	0xbf2375b7	-0.63851494
11	0x3f98acf9	1.1927787
12	0xbf8557cd	-1.041742
13	0xbf9213bd	-1.1412274
14	0xbf17d71e	-0.5931262
15	0x3e28cc05	0.16484077
16	0xbe3c4dcd	-0.18389054
17	0xbf63e9c3	-0.8902857
18	0xbf2a0bbc	-0.66424155
19	0x3f90a79d	1.1301152
20	0x3fa8f789	1.3200542
21	0xbf43cb91	-0.7648249
22	0x3e4c24d0	0.19935918
23	0xbf83c1aa	-1.0293477
24	0x3d143f0b	0.036192935
25	0xbf9baae9	-1.2161533
26	0xbf827ad3	-1.0193733
27	0xbed94298	-0.4243362
28	0xbf90c3ea	-1.1309788
29	0x3f49669c	0.78672194
30	0x3ea9117f	0.3302116
31	0x3f2ced42	0.67549527
32	0xbe4415a3	-0.19148879
33	0xbda5ca1a	-0.080951884
34	0xbfc91da6	-1.5712173
35	0xbf6d9743	-0.9280893
36	0x3f63ebb1	0.8903151
37	0xbf163518	-0.58674765
38	0xbe64cebe	-0.22344491
39	0x3f7e9fa3	0.99462336
40	0x3e2a23fc	0.1661529
41	0x3fe19941	1.7624894
42	0x3f8cfdcf	1.1014956
43	0x3d071105	0.032975215
44	0xbf3e8e0a	-0.74435484
45	0xbeef074e	-0.4668526
46	0x3f75c9f1	0.96011263
47	0xbeec2fe7	-0.46130297
48	0xbf84dbbf	-1.0379561
49	0xbf1babed	-0.6080921
50	0x3db0f94d	0.086413
51	0xbf65778f	-0.89635557
52	0x3fab8a9a	1.3401673
53	0x3f8eeb31	1.1165525
54	0x3eeb2a75	0.4593083
55	0xbf596531	-0.8492003
56	0xbf3dfebd	-0.74216825
57	0xbf4629fe	-0.77407825
58	0xbd72057d	-0.059087265
59	0x3edfff71	0.43749574
60	0x3f7a1857	0.9769339
61	0xbe7e556c	-0.24837273
62	0x3fcbaa40	1.5911331
63	0xbf4d7acf	-0.80265516
64	0xbf90ff9a	-1.1328003
65	0xbe961637	-0.29313824
66	0xbf0764f0	-0.52888393
67	0xbe3bab55	-0.18327077
68	0xbf95ca9f	-1.170246
69	0xbf77f3d3	-0.9685642
70	0xbf2bc1af	-0.6709241
71	0xbbf0eff1	-0.007352822
72	0x3f91130b	1.1333936
73	0x3f12ae6a	0.57297385
74	0xbcc75b2d	-0.024335468
75	0x3f25543e	0.6458167
76	0xbeee8aa1	-0.4659014
77	0xbf06e7da	-0.5269753
78	0xbf60cc87	-0.87812084
79	0xbe88d511	-0.26725057
80	0xbf6343bf	-0.8877525
81	0x3f97165c	1.1803699
82	0x3ecc7ad7	0.3993747
83	0xbf534196	-0.8252195
84	0x3fa94516	1.3224208
85	0x3e88ea20	0.26741123
86	0xbf21f1cc	-0.6325958
87	0x3f6d6324	0.927294
88	0xbe9d5723	-0.30730543
89	0xbf0e3e89	-0.5556417
90	0x3f9530aa	1.1655476
91	0x3f95b697	1.1696347
92	0x3f56a7d6	0.8384985
93	0x3f27b062	0.65503514
94	0x3f2f4506	0.68464696
95	0x3f42bbcf	0.76067823
96	0xbe85ef32	-0.26159054
97	0x3f9cd83c	1.225349
98	0xbfacc1d5	-1.3496653
99	0xbf5868bd	-0.8453482
100	0x3dd1eb73	0.102499865
101	0xbe528a44	-0.20560557
102	0xbf545070	-0.8293524
103	0x3e02e681	0.12783243
104	0x3f994522	1.1974223
105	0x3e094c29	0.13407959
106	0x3d88c05e	0.06677316
107	0x3f8bbe71	1.0917493
108	0x3fae0dca	1.3597958
109	0xbf3dcee7	-0.7414383
110	0x3f642d56	0.8913168
111	0xbf769d73	-0.96334
112	0xbec51773	-0.38494453
113	0x3f3a77ac	0.72838855
114	0xbe05457d	-0.13014789
115	0x3f8bf3fd	1.0933834
116	0xbe8dd2cc	-0.27699888
117	0xbecc9b0e	-0.39962047
118	0xbf77e4d3	-0.96833533
119	0x3e9cfe95	0.3066298
120	0x3f5ae141	0.8549996
121	0xbfe1deec	-1.7646155
122	0x3df36a4c	0.11885509
123	0x3edf0ba3	0.43563566
124	0x3e48ab58	0.19596612
125	0xbe307f98	-0.17236173
126	0x3d3813a0	0.04494059
127	0xbf371aec	-0.71525455
128	0x3e1db0de	0.153995
129	0xbfbcba83	-1.4744419
130	0xbefd1531	-0.4943023
131	0xbf291edf	-0.6606273
132	0xbf28ca86	-0.65934026
133	0x400b12e5	2.1730282
134	0x3d12d890	0.03585106
135	0xbda34ced	-0.07973657
136	0x3e9bc5f2	0.30424458
137	0x3fe2c443	1.7716144
138	0xbebffdec	-0.37498415
139	0x3d965c6b	0.07341846
140	0xbde3317f	-0.11093425
141	0x3ae4607b	0.0017423773
142	0xbf3c9ccf	-0.7367677
143	0x3fa3049c	1.2735782
144	0xbf225f28	-0.63426447
145	0xbdbc6c6a	-0.09200366
146	0xbfb48f0b	-1.4106153
147	0xbf78da5d	-0.97208196
148	0xbf70e82f	-0.94104284
149	0xbf9382a9	-1.1524249
150	0x3f73faae	0.9530438
151	0x3fb8dfcf	1.4443301
152	0x3ec26442	0.37967116
153	0xbec761e9	-0.38941887
154	0x3f48ac07	0.7838749
155	0x3fb4a085	1.4111487
156	0x3f9607fd	1.1721188
157	0x3f3c8d6a	0.7365328
158	0xbf8636c1	-1.048546
159	0xbe94bcd3	-0.2905031
160	0xbfb1db5f	-1.3895072
161	0xbf86ad0d	-1.0521561
162	0x3d8ce459	0.06879491
163	0xbcbd9f92	-0.023147378
164	0x3e18040c	0.14845294
165	0x3ed058a7	0.40692636
166	0xbe1d87e3	-0.15383868
167	0xbf8c3273	-1.0952896
168	0x3e898d50	0.26865625
169	0xbfe6f688	-1.8043985
170	0x3ee7f96d	0.45307484
171	0xbe240045	-0.16015728
172	0xbfd322cd	-1.6494995
173	0xbee4d993	-0.44697246
174	0x3c85b33f	0.016320823
175	0x3f7877e5	0.97057945
176	0xbd098d7b	-0.033582192
177	0xbfa58067	-1.292981
178	0xbd4b1a72	-0.049585767
179	0x3e934097	0.28760216
180	0x3e3120cf	0.17297672
181	0xbe634d6b	-0.22197501
182	0xbf87ea49	-1.0618373
183	0xbe06d087	-0.13165484
184	0xbefc34bc	-0.49258983
185	0xbeb1bbc5	-0.3471357
186	0xbf31ab22	-0.6940175
187	0x3f286b78	0.65788984
188	0xbfec4a97	-1.8460263
189	0xbed42214	-0.4143225
190	0x3d60af59	0.054854725
191	0xbf0f522a	-0.5598475
192	0xbe6a19d9	-0.22861423
193	0x3fe7312a	1.8061879
194	0x3f4c77f9	0.79870564
195	0xbf066a20	-0.52505684
196	0x3f80a082	1.0048983
197	0x3e9af406	0.302643
198	0xbf346e97	-0.70481247
199	0xbf9cc914	-1.2248864

fc1.bias f4 [50]
0	0x3f0c8963	0.54897135
1	0xbe0ed236	-0.13947377
2	0x3e160419	0.1465
3	0xbd8192f2	-0.06326856
4	0x3efa823d	0.4892749
5	0xbce1ef42	-0.027579907
6	0xbee78b09	-0.45223263
7	0x3ead3df1	0.3383632
8	0xbe93e806	-0.28887957
9	0x3eaed3bb	0.34145913
10	0x3f3bb296	0.73319376
11	0x3f50f67e	0.8162612
12	0x3cf7eab5	0.030263284
13	0x3e134ff2	0.14385965
14	0x3f0a8207	0.54104656
15	0x3f059e50	0.5219469
16	0xbeba4b5e	-0.36385626
17	0x3ed922a3	0.42409238
18	0xbe9bdee6	-0.30443496
19	0xbe339e53	-0.17540865
20	0xbea4f035	-0.32214513
21	0x3e83ff5d	0.25780764
22	0xbe417a8e	-0.18894407
23	0xbe9fd708	-0.31218743
24	0xbe588f4c	-0.21148413
25	0x3eba99df	0.3644552
26	0x3eeb11ca	0.4591201
27	0xbeb7614c	-0.3581642
28	0x3e6e3905	0.23263939
29	0x3e09e30b	0.13465516
30	0xbb47c88f	-0.0030484532
31	0xbdf02988	-0.117266715
32	0xbf011dd2	-0.5043613
33	0x3f4018e1	0.7503796
34	0x3f15eb5a	0.58562243
35	0xbdce6459	-0.100777335
36	0x3dc6458e	0.09681235
37	0x3d038a11	0.032114092
38	0x3dc6b2ce	0.09702073
39	0xbbc0b92a	-0.0058814483
40	0xbe3a9631	-0.18221356
41	0xbd9b52ec	-0.075841755
42	0xbe689b7b	-0.22715561
43	0x3e5bd808	0.21469128
44	0x3da993f8	0.08280176
45	0x3ea9946f	0.33121058
46	0x3f321df8	0.6957698
47	0x3d2c71f1	0.04210085
48	0x3f639898	0.88904715
49	0x3e9f9e2c	0.31175363

adv_out.weight f4 [10, 50]
0	0xbd9a5c09	-0.075370856
1	0x3c5a0d6c	0.013308864
2	0x3e55235d	0.20814271
3	0xbf333923	-0.7000906
4	0xbde550ba	-0.11197038
5	0xbf173150	-0.5905962
6	0x3f8bf320	1.0933571
7	0x3ee0f586	0.4393732
8	0xbf1103ef	-0.5664663
9	0xbe8d5875	-0.2760655
10	0xbf1615ab	-0.5862681
11	0xbd459d69	-0.04824582
12	0xbee95596	-0.4557311
13	0xbf80d3b6	-1.0064609
14	0x3defacba	0.11702867
15	0xbe849f47	-0.2590277
16	0x3f02b181	0.510521
17	0xbe945831	-0.28973535
18	0x3d8d7c33	0.06908455
19	0xbe976f0c	-0.2957691
20	0x3f019dfa	0.5063168
21	0x3e949d96	0.2902648
22	0x3ecd8f9b	0.40148625
23	0x3e2ba0f8	0.16760623
24	0x3eb68f5b	0.35656247
25	0xba61e2f4	-0.00086168875
26	0xbd9766c5	-0.073926486
27	0xbf14efe9	-0.58178574
28	0xbc57b9d6	-0.013166865
29	0xbcb6632b	-0.022264084
30	0x3efe68e2	0.49689394
31	0xbe8c9942	-0.27460676
32	0xbef313b1	-0.4747596
33	0x3f76c944	0.96400857
34	0xbeacc87d	-0.3374671
35	0x3dde4a7d	0.10854051
36	0xbf10347a	-0.5633007
37	0x3eb1514f	0.34632346
38	0xbe79a98b	-0.24381082
39	0xbe314059	-0.17309703
40	0x3ea016ca	0.31267387
41	0x3e2d50e3	0.16925387
42	0xbf237ba6	-0.6386055
43	0xbdda7e9b	-0.10668679
44	0x3c63be03	0.013900283
45	0x3e1fa2fd	0.15589519
46	0x3ec4ecb9	0.38461855
47	0xbf0a8163	-0.5410368
48	0x3cfda916	0.030964416
49	0xbf8380a7	-1.0273637
50	0x3e868e7a	0.26280576
51	0x3eac5841	0.33661082
52	0x3c627061	0.0138207385
53	0xbe0ada50	-0.13559842
54	0xbe72a52f	-0.23695825
55	0xbe290412	-0.16505459
56	0x3f4c456a	0.7979342
57	0x3f2a09c7	0.6642117
58	0xbfd6dc4f	-1.6785983
59	0x3e6a5464	0.22883755
60	0xbf379c34	-0.7172272
61	0x3d972450	0.07379973
62	0x3f50bb0a	0.815354
63	0xbf5adbd2	-0.8549167
64	0xbc5009ef	-0.012697681
65	0x3e198f86	0.14996156
66	0xbf056e46	-0.5212139
67	0x3dfd9ebf	0.12383794
68	0xbe7f522e	-0.24933693
69	0xbef6857c	-0.48148715
70	0x3d9d5895	0.07682911
71	0xbe62baed	-0.22141619
72	0x3ea27626	0.31730765
73	0xbea1e81b	-0.31622395
74	0x3f140a4f	0.5782823
75	0xbd9e8a74	-0.077412516
76	0x3e7bd048	0.24591172
77	0xbd8ce234	-0.06879082
78	0x3e4fc604	0.2029038
79	0x3d70e764	0.05881442
80	0x3e2d4190	0.16919541
81	0x3da12534	0.07868424
82	0x3e74f121	0.23920108
83	0x3f77d3be	0.9680747
84	0xbf0eab97	-0.55730575
85	0x3e8d4280	0.27589798
86	0x3e545988	0.20737278
87	0x3da73c2a	0.08165772
88	0x3e8931e3	0.26795873
89	0xbf047ce7	-0.51753086
90	0xbc5e8b16	-0.013582965
91	0xbc864291	-0.016389163
92	0xbf27e659	-0.6558586
93	0xbe39cb04	-0.1814385
94	0x3f023759	0.50865704
95	0x3ea34350	0.31887293
96	0x3dab51c8	0.08365208
97	0xbed6c118	-0.41944194
98	0xbe83e6d7	-0.25762054
99	0xbf36a9cf	-0.7135286
100	0x3dc77615	0.09739319
101	0xbc790e43	-0.015201154
102	0x3ea5ca27	0.32380792
103	0xbe15d3e0	-0.14631605
104	0xbe8bcd8b	-0.27305254
105	0x3ee95f9e	0.45580763
106	0x3f00ee95	0.5036405
107	0x3e6ee24c	0.23328513
108	0x3d93dd33	0.07219925
109	0xbe7620c0	-0.2403593
110	0xbe952cca	-0.29135734
111	0x3dedf7f7	0.11619561
112	0xbc60170b	-0.013677369
113	0xbe806ca0	-0.25082874
114	0x3e84f43a	0.2596758
115	0x3badfa81	0.0053094034
116	0xbf0573f7	-0.52130073
117	0x3deb3dc9	0.11486394
118	0xbee913d1	-0.4552293
119	0xbe65016b	-0.22363822
120	0x3e15030c	0.14551944
121	0x3eab96bf	0.33513448
122	0xbe6b30a6	-0.22967777
123	0x3e951023	0.29113874
124	0x3f3c3210	0.7351389
125	0x3d595acd	0.05306511
126	0x3c62626a	0.013817409
127	0xbf151ff6	-0.58251894
128	0xbc9a2d1d	-0.01882034
129	0xbc2757d0	-0.010213807
130	0x3ed1d1fc	0.40980518
131	0x3c2ebe00	0.010665417
132	0x3dd03f34	0.10168305
133	0x3effb13b	0.49939904
134	0xbf15d596	-0.5852903
135	0x3e9dc97b	0.3081778
136	0xbf4891de	-0.78347576
137	0x3e45d2b7	0.19318663
138	0x3c852f41	0.016257884
139	0xbe7b4b6f	-0.24540494
140	0x3e834e9d	0.25645915
141	0x3e7e3cb8	0.2482785
142	0xbea2c8c6	-0.31793803
143	0xbe06d914	-0.13168746
144	0xbe3833cb	-0.17988507
145	0x3e64c626	0.22341213
146	0x3e6fcdf7	0.23418413
147	0xbe392986	-0.18082246
148	0xbf2d05f8	-0.6758723
149	0xbf3cf16c	-0.7380588
150	0x3de28b13	0.110616826
151	0x3e9178f0	0.2841258
152	0x3e8602a0	0.26173878
153	0xbe8e0587	-0.27738592
154	0x3d348e2e	0.044080906
155	0xbd9dde94	-0.07708469
156	0x3eb474e9	0.35245445
157	0x3e82467b	0.25444397
158	0xbe9c2feb	-0.30505309
159	0xbdf4e18a	-0.11957081
160	0xbe5e1a67	-0.21689759
161	0xbe137886	-0.14401445
162	0xbec74292	-0.38917977
163	0xbe36231d	-0.17786832
164	0x3f03dcf6	0.51509035
165	0x3d6d2a2b	0.057901543
166	0x3d33c355	0.043887455
167	0x3e0929de	0.13394877
168	0xbe949eb0	-0.2902732
169	0xbe963800	-0.293396
170	0x3e24cdaa	0.1609408
171	0xbe37bc70	-0.17942977
172	0x3e388756	0.18020377
173	0x3e1567b8	0.14590347
174	0x3ebe36ca	0.37151176
175	0x3e53e454	0.20692569
176	0x3ebac5bf	0.36478993
177	0xbf24ce98	-0.6437774
178	0xbe1809d7	-0.14847504
179	0xbe018dfe	-0.12651822
180	0xbcee2d10	-0.029074222
181	0x3e95678f	0.2918057
182	0xbea31af5	-0.31856504
183	0x3f460f95	0.77367526
184	0xbe516d8e	-0.20451948
185	0xbd2fd743	-0.0429299
186	0xbee261b2	-0.4421516
187	0xbe3a9bf8	-0.1822356
188	0x3e5610f6	0.20904908
189	0xbe9e8b93	-0.30965862
190	0xbdd0af1e	-0.10189651
191	0xbe984364	-0.29738915
192	0xbcb9fb71	-0.022702904
193	0xbdce8e1d	-0.100857
194	0xbe801b22	-0.250207
195	0x3d96146a	0.073281124
196	0xbb46995f	-0.0030303819
197	0x3e7126ee	0.23550007
198	0xbe8f5383	-0.27993402
199	0xbece416d	-0.4028429
200	0xbcc5d461	-0.024149122
201	0xbe3c5098	-0.18390119
202	0xbd998484	-0.074959785
203	0x3e4f4156	0.20239767
204	0x3d6bcf22	0.057570584
205	0xbe9ac06a	-0.30224925
206	0xbc8b6f90	-0.01702097
207	0x3e0f2ede	0.13982722
208	0x3f0a6ad2	0.54069245
209	0xbe69b4c8	-0.22822869
210	0x3ec0c64a	0.37651283
211	0xbdb02c1f	-0.086021654
212	0xbf255add	-0.6459177
213	0xbe653dba	-0.22386828
214	0xbe2c0220	-0.16797686
215	0xbeefcc50	-0.46835566
216	0xbec3be2c	-0.38231027
217	0x3d9cbd61	0.07653309
218	0xbdac82d9	-0.08423395
219	0x3e520adb	0.20511954
220	0x3ed32e8a	0.41246444
221	0xbd6f76c7	-0.058462884
222	0x3ec2bbaf	0.38033816
223	0xbe8bacc9	-0.27280262
224	0xbdd3ce2c	-0.103420585
225	0x3e5d8c73	0.21635608
226	0x3f007852	0.50183594
227	0xbe805530	-0.25064993
228	0xbe38c746	-0.18044767
229	0x3dcf28ea	0.101152256
230	0x3dc2aa62	0.09505154
231	0xbd7b0f70	-0.06129402
232	0xbe73e3c8	-0.2381736
233	0x3dcfbc0e	0.101432905
234	0x3c293af0	0.010328993
235	0x3e015207	0.12628947
236	0xbe692793	-0.22769003
237	0xbe14e8bf	-0.1454191
238	0x3e6e44dc	0.23268455
239	0xbd0a3dbb	-0.033750277
240	0xbe499c4a	-0.19688526
241	0x3e1e4117	0.15454517
242	0xbd79dfa4	-0.061004296
243	0x3db85773	0.090010546
244	0x3db910f3	0.09036436
245	0xbe1094aa	-0.14119211
246	0x3d4b1b4c	0.04958658
247	0xbdad59b6	-0.08464377
248	0xbf1dd4ce	-0.6165284
249	0xbe8cd7a5	-0.27508274
250	0xbdc5ef4b	-0.09664782
251	0x3e8bfed4	0.27342856
252	0x3d74064f	0.05957633
253	0x3d91bb5e	0.071158156
254	0xbdda385d	-0.10655282
255	0xbf110cde	-0.5666026

adv_out.bias f4 [10]
0	0x3e510853	0.20413332
1	0x3cce2b36	0.025167089
2	0xbdce253c	-0.10065696
3	0x3d7fe363	0.062472712
4	0xbe067418	-0.13130224
5	0x3c185d6a	0.009299615
6	0xbbd3347b	-0.006445465
7	0xbdd1222c	-0.10211596
8	0x3e04302f	0.12909006
9	0xbde4452f	-0.11146008

val_out.weight f4 [1, 50]
0	0x3e4fd5ff	0.20296477
1	0x3df16418	0.117866695
2	0x3e850d1e	0.2598657
3	0xbf3a8a6d	-0.7286747
4	0x3eb41a42	0.35176283
5	0xbf9d0ae4	-1.2268949
6	0x3f99c514	1.2013268
7	0x3f07c4eb	0.5303485
8	0xbea3f8fd	-0.320259
9	0xbe353971	-0.17697693
10	0xbf0e1c94	-0.55512357
11	0xbfc06e6c	-1.5033698
12	0xbbe16bcd	-0.006879306
13	0xbf5ee4b8	-0.8706775
14	0x3d94f7b3	0.072738074
15	0xbde44e3e	-0.11147736
16	0xbed4a7c0	-0.41534233
17	0xbf38c8c4	-0.72181344
18	0xbf57ffbf	-0.8437461
19	0xbf12f4f8	-0.5740504
20	0xbf0aa81c	-0.54162765
21	0x3efdc871	0.49566987
22	0x3f4b0499	0.7930389
23	0xbe20aaef	-0.15690206
24	0x3fec12d2	1.8443244
25	0xbec68627	-0.38774225
26	0x3f0e9b36	0.55705583
27	0xbfaa29e3	-1.3294033
28	0x3e46db5e	0.1941962
29	0xbe98a66e	-0.29814476
30	0x3eb724a6	0.35770148
31	0x3d0b0e58	0.033949226
32	0xbf71055b	-0.94148797
33	0x3f4fc475	0.81159145
34	0xbf704485	-0.9385455
35	0x3ee366a4	0.44414246
36	0xbf50d2b1	-0.8157149
37	0x3ef0397f	0.46918866
38	0x3f2fe15c	0.68703246
39	0xbf1890e2	-0.59596074
40	0xbf04968d	-0.5179222
41	0xbea344f0	-0.31888533
42	0xbf8e07d4	-1.1096139
43	0xbf7ca672	-0.98691475
44	0xbed86e66	-0.42271727
45	0x3ee289d0	0.44245768
46	0x3eb71e9a	0.35765535
47	0xbf564b79	-0.8370891
48	0xbf32275b	-0.695913
49	0xc004c810	-2.0747108
