models/demo_B2_TOKYO_314.pt (torch_old, 88602 bytes, 9 tensors)

fc1.weight f4 [100, 4]
-0.73904115 -0.016909506 -0.5480083 -0.51314116 0.14112444 -0.20454478 0.21418165 -0.53997445
0.41305697 -0.5201914 -0.22699423 -0.05451424 0.61433524 -0.35351282 0.003199291 1.0859044
-0.9527619 -1.1552615 0.39278588 -0.9703778 -0.772959 -0.80138415 0.054634653 -1.1667262
-0.7384444 1.8296978 0.27235472 -0.60116684 -0.8806527 -1.2007078 -0.40792602 0.22564846
-1.104293 -0.74314535 0.32610106 -0.0432121 1.0742917 0.8211057 -1.3584754 -0.055879693
0.956994 0.18737093 -0.9657343 0.25546515 0.6939029 0.4235851 -0.79346925 0.57662624
-0.21152695 0.36753845 -0.13903742 -0.3884884 0.5656126 0.57577294 -0.39297968 0.8856224
-0.7745953 -0.2678284 -1.1608158 0.34798503 1.1460832 -0.3253746 0.8530578 -0.63307756
0.882482 -1.3682686 -0.87276655 0.7874913 0.15474923 1.2501535 -0.1866308 0.6197063
-0.70463514 -1.2452272 1.4311434 0.54157186 1.0585126 0.21172385 0.33978993 0.052227
-0.12089877 0.2074821 -1.0273893 0.5845678 0.2693742 -0.48441923 0.76153105 -0.18372364
0.34840208 -0.7174164 0.88132095 0.3930414 -0.6044754 1.3074291 0.001794104 -0.45977655
0.04836835 0.025713371 0.3223669 -0.6496469 -0.4534142 -0.51670337 0.94432145 0.70460504
0.9310846 0.30004203 0.45880345 0.962318 0.90049016 -0.98377126 1.25123 0.5181882
0.6655115 0.5301188 0.9155269 -0.67904335 0.9276267 0.38958097 0.40671134 0.8666435
0.6385034 0.027122114 0.7764102 0.46428353 -0.3219639 0.47800854 -0.45138532 -0.809281
-0.9764278 -1.2062079 -0.25398925 0.3199597 0.09221325 1.1999804 -1.223931 -0.91441286
0.68023545 -1.1596751 0.2139971 -0.2718359 0.6860237 -0.95015144 0.9027635 1.4267259
0.56735504 0.6908668 -0.05048543 -0.52718496 -0.07522456 1.051354 1.1384892 -0.39823693
0.20610571 1.3759238 0.59470564 0.5038521 -0.3102825 -0.18185508 0.75154513 0.30287644
0.51725006 -0.73797137 0.8616254 -1.1208179 -0.005251564 -0.06514926 0.6762277 1.1621335
0.33588973 0.97555524 1.0265296 -1.2149482 -0.78278726 -0.7184581 0.6290098 0.104561806
0.9182313 -1.0545107 -0.94700843 -0.28384954 -0.6533221 -1.2651749 0.075727865 -0.13228478
-0.011836974 -0.65664107 -0.1465509 -0.07042943 -0.23250058 -0.6666439 0.702583 0.56580126
0.29589063 1.1123394 0.17686644 -0.2055792 0.72739697 0.27650943 -0.015170107 -0.44262642
-0.4746006 1.2673603 -0.8237457 0.5086849 -0.5993893 -0.6652215 -0.8225739 -0.35902163
0.7596335 -0.38412178 -0.20532088 -1.1678741 -0.8758203 -1.0020558 0.2750906 0.32785514
-1.067059 -1.2023431 -0.9713214 -0.4307038 -0.5034011 -0.6787222 0.23059605 0.17883979
-0.87527287 -0.40374544 0.5195374 0.20993453 -0.2587857 0.19159766 -1.0476053 0.6178485
-0.6247824 0.611592 -0.55703753 -0.83509105 0.043223143 -0.23834223 -0.04281175 -1.1641443
-0.6899273 -0.668115 0.017567182 0.7218759 -0.16299058 -0.59484917 -0.8042371 0.80562806
-0.012444068 -0.20501459 0.09175059 0.9812904 -0.83186454 -1.2132323 -0.45276913 0.79855263
00000000: cd31 3dbf ce85 8abc 464a 0cbf 385d 03bf
00000010: ed82 103e 3074 51be 6f52 5b3e c43b 0abf
00000020: 347c d33e 432b 05bf 2d71 68be 534a 5fbd
00000030: 1345 1d3f a2ff b4be 32ab 513b eafe 8a3f
00000040: 34e8 73bf 9cdf 93bf 3b1b c93e ae6a 78bf
00000050: a4e0 45bf 8327 4dbf 96c8 5f3d 4957 95bf
00000060: b10a 3dbf 8a33 ea3f 1472 8b3e 12e6 19bf
00000070: 7572 61bf cbb0 99bf aedb d0be 6410 673e
00000080: 7959 8dbf c63e 3ebf b8f6 a63e 2cff 30bd
00000090: 6482 893f fc33 523f 86e2 adbf 1be2 64bd
000000a0: 8ffd 743f 2ade 3f3e 5d3a 77bf 54cc 823e
000000b0: 9fa3 313f 25e0 d83e cd20 4bbf c79d 133f
000000c0: 859a 58be 002e bc3e d35f 0ebe f4e7 c6be
000000d0: fdcb 103f db65 133f a234 c9be 26b8 623f
000000e0: e14b 46bf ce20 89be 9d95 94bf 182b b23e
000000f0: dbb2 923f 8097 a6be ff61 5a3f 5f11 22bf
00000100: 57ea 613f 6d23 afbf a16d 5fbf 0899 493f
00000110: 9576 1e3e 0805 a03f 251c 3fbe 12a5 1e3f
00000120: f862 34bf 9b63 9fbf b52f b73f 74a4 0a3f
00000130: 577d 873f 23ce 583e f2f8 ad3e fbeb 553d
00000140: c699 f7bd 3076 543e 7e81 83bf 3ca6 153f
00000150: 6aeb 893e cc05 f8be b3f3 423f 0d22 3cbe
00000160: c261 b23e 9aa8 37bf 409e 613f b93c c93e
00000170: e6be 1abf d659 a73f 2428 eb3a d567 ebbe
00000180: e41d 463d d9a4 d23c 460d a53e 424f 26bf
00000190: e825 e8be ac46 04bf 0dbf 713f ff60 343f
000001a0: 8f5b 6e3f 1c9f 993e 49e8 ea3e 795a 763f
000001b0: 8686 663f 6fd8 7bbf 4e28 a03f fba7 043f
000001c0: f65e 2a3f deb5 073f f95f 6a3f c9d5 2dbf
000001d0: f278 6d3f 2877 c73e 783c d03e 59dc 5d3f
000001e0: f574 233f 322f de3c d2c2 463f 92b6 ed3e
000001f0: 74d8 a4be 89bd f43e fa1b e7be 0a2d 4fbf
00000200: 2cf7 79bf 0565 9abf e10a 82be c2d1 a33e
00000210: 4dda bc3d f598 993f c5a9 9cbf f616 6abf
00000220: e923 2e3f 3c70 94bf 0e22 5b3e 132e 8bbe
00000230: 409f 2f3f 203d 73bf 821b 673f f49e b63f
00000240: 2e3e 113f a6dc 303f cfc9 4ebd 98f5 06bf
00000250: 560f 9abd c592 863f 04ba 913f b6e5 cbbe
00000260: 600d 533e 451e b03f a13e 183f 74fc 003f
00000270: 59dd 9ebe 3838 3abe 4365 403f 9f12 9b3e
00000280: 806a 043f b1eb 3cbf 7b93 5c3f f676 8fbf
00000290: 5015 acbb fa6c 85bd 421d 2d3f cac0 943f
000002a0: bdf9 ab3e fdbd 793f 5265 833f 6c83 9bbf
000002b0: bf64 48bf dfec 37bf c906 213f 8024 d63d
000002c0: 3511 6b3f 35fa 86bf 256f 72bf ba54 91be
000002d0: 1e40 27bf 40f1 a1bf 3617 9b3d a975 07be
000002e0: deef 41bc a119 28bf 7011 16be 4e3d 90bd
000002f0: a214 6ebe 2da9 2abf 7bdc 333f 5ad8 103f
00000300: fa7e 973e 2361 8e3f 7a1c 353e 5b83 52be
00000310: b036 3a3f a592 8d3e 0a8c 78bc ee9f e2be
00000320: dafe f2be dd38 a23f 00e1 52bf 2c39 023f
00000330: 9471 19bf f54b 2abf 3494 52bf afd1 b7be
00000340: 5777 423f 9cab c4be a33f 52be e67c 95bf
00000350: c235 60bf 5d43 80bf add8 8c3e a1dc a73e
00000360: 6495 88bf 61e6 99bf 85a8 78bf 3585 dcbe
00000370: e5de 00bf bdc0 2dbf 5f21 6c3e c721 373e
00000380: e211 60bf b9b7 cebe 6700 053f 14f9 563e
00000390: 8f7f 84be 2d32 443e ee17 86bf 522b 1e3f
000003a0: bdf1 1fbf 4b91 1c3f 039a 0ebf 87c8 55bf
000003b0: c00a 313d fc0f 74be 605b 2fbd ae02 95bf
000003c0: 139f 30bf 9609 2bbf 0de9 8f3c dccc 383f
000003d0: 01e7 26be 0948 18bf 7ce2 4dbf a43d 4e3f
000003e0: 34e2 4bbc 58ef 51be bce7 bb3d d935 7b3f
000003f0: 13f5 54bf 324b 9bbf 5bd1 e7be f26d 4c3f

fc1.bias f4 [100]
0.19843104 0.6452914 0.3934186 -0.08527344 0.031375494 0.21691442 0.028617801 -0.047065116
-0.76198703 -0.084129505 -0.35780352 -0.31658137 -0.078728005 0.3390887 -0.15788543 0.35965136
0.008917301 -0.42916128 0.16285439 -0.66093886 -0.32340664 -0.40804476 -0.4318682 -0.17430724
0.48513317 0.5795999 0.22457492 -0.76779413 -0.37921166 0.3186382 0.18526946 -0.16024388
-0.43942314 0.0861814 -0.34702027 0.33602375 -0.26273707 0.2674067 -0.25350943 -0.14536938
0.20958824 -0.11341038 -0.008560071 0.2539233 0.6688162 -0.45796242 0.04316147 0.2448347
-0.43739498 -0.5501659 0.041832134 -0.031378552 -0.5523647 -0.30639747 -0.45955002 -0.6154591
-0.58571637 -0.73763 -0.08090554 0.2249819 0.59284514 0.035297655 0.40786776 -0.27640077
0.12702966 0.44327417 0.3088637 0.056475893 -0.02844028 0.08729478 -0.3012042 0.26476824
-0.7753429 0.7251509 -0.69954044 0.4893994 -0.5444396 -0.3880264 -0.29646978 0.035606593
-0.26153183 0.59211326 0.12019398 -0.104709566 -0.32482153 -0.2217742 0.6606806 -0.4194525
-0.2667779 0.21192792 0.19315556 -0.14002693 -0.18940045 -0.19604957 -0.17284776 -0.22292882
-0.6062284 0.17003022 0.7116104 -0.62796605
00000000: 8231 4b3e d131 253f 2a6e c93e d7a3 aebd
00000010: 9783 003d d01e 5e3e e16f ea3c 5ac7 40bd
00000020: 9511 43bf 174c acbd 0632 b7be f416 a2be
00000030: 263c a1bd 099d ad3e b8ac 21be 3924 b83e
00000040: df19 123c 07bb dbbe 4dc3 263e 4a33 29bf
00000050: 8e95 a5be 3eeb d0be d41d ddbe 997d 32be
00000060: 6063 f83e a960 143f f8f6 653e 288e 44bf
00000070: 0828 c2be 8c24 a33e 47b7 3d3e f916 24be
00000080: 12fc e0be e07f b03d a4ac b1be 4e0b ac3e
00000090: 7985 86be 88e9 883e fdcb 81be b6db 14be
000000a0: 4d9e 563e b443 e8bd 8a3f 0cbc 3c02 823e
000000b0: 8a37 2b3f 0d7a eabe 15ca 303d f3b5 7a3e
000000c0: 3cf2 dfbe acd7 0cbf 2c58 2b3d cc86 00bd
000000d0: c667 0dbf 21e0 9cbe 244a ebbe ba8e 1dbf
000000e0: 82f1 15bf 52d5 3cbf ceb1 a5bd a861 663e
000000f0: b3c4 173f 4694 103d 0bd4 d03e 6784 8dbe
00000100: 1014 023e d5f4 e23e 6223 9e3e 4453 673d
00000110: 97fb e8bc 9bc7 b23d 7037 9abe b48f 873e
00000120: df7c 46bf 7da3 393f 1515 33bf 8f92 fa3e
00000130: 6560 0bbf 65ab c6be e3ca 97be 38d8 113d
00000140: 80e7 85be bc94 173f 4328 f63d f871 d6bd
00000150: 024f a6be c718 63be 5d22 293f 7ac2 d6be
00000160: 1d97 88be a203 593e 92ca 453e 3863 0fbe
00000170: 31f2 41be 38c1 48be 01ff 30be 7447 64be
00000180: c931 1bbf 671c 2e3e 192c 363f 62c2 20bf

adv.weight f4 [100, 100]
0.049025066 0.1733277 -0.26607484 -0.06613492 -0.17226483 -0.34209245 -0.03125572 0.008503645
0.15006542 0.054393526 -0.08680143 0.067559056 -0.2789766 0.18616308 0.24350259 -0.12551762
-0.11953934 0.2154986 0.13926128 0.12296464 -0.05555542 0.11804088 -0.09100625 -0.07109885
0.18057199 0.14815634 0.037485324 -0.10022937 -0.21007523 -0.12074064 -0.23020972 0.124752484
-0.07817015 0.24093646 0.20010154 -0.07837481 -0.366227 -0.08766154 -0.3009562 0.12577689
-0.041980367 -0.19496736 -0.08652523 -0.095473066 -0.107253715 0.12693687 -0.048637174 -0.0999583
0.0029336356 0.07678465 -0.042085063 0.17035368 0.16185753 -0.18750381 -0.19988468 0.00079350034
-0.17451888 0.10857803 -0.0029483072 -0.21731788 -0.13721219 0.13079752 -0.07787088 0.13818549
-0.23451808 0.19665366 0.086032584 0.03571097 0.16461422 0.032573402 0.053306922 0.19729583
-0.16927592 -0.2318073 -0.121510744 -0.03042259 -0.45672408 -0.077505104 -0.13707796 0.0030032974
-0.15563056 -0.00440338 -0.1469507 0.051955957 0.013545826 0.018814981 -0.272347 0.11895822
-0.15590823 -0.07759005 -0.111702114 0.08052604 -0.10977586 0.31759986 0.25491136 0.07947724
-0.011974394 0.25039536 -0.21844354 0.009485482 -0.032399442 0.03671207 -0.106513835 -0.2608645
0.42806146 0.23673314 -0.029885175 0.16786611 -0.100409135 0.05115248 -0.077819526 -0.031845283
-0.16865164 -0.15547289 -0.06735912 0.035424516 0.1174341 0.027824791 -0.13550113 -0.14445211
-0.066440694 -0.20425238 -0.07987687 0.19570814 0.35591468 0.09595511 -0.23547491 -0.19851933
-0.0037339139 0.11504892 -0.3914657 0.36086458 -0.1892314 -0.13961852 -0.25807345 0.18521167
-0.18065803 0.081739455 0.13034853 0.24412093 -0.14697726 0.18683466 0.30444157 0.031697184
0.10369279 0.33845827 0.15108968 0.02617237 -0.2915143 -0.24321347 0.101367556 -0.032001518
0.0075628962 0.04121711 0.025545245 -0.18122801 -0.04012587 -0.10952157 0.0056695794 0.021501198
-0.13526174 -0.09657652 -0.23117632 -0.001878555 0.054410424 -0.22408462 -0.250488 0.070675895
-0.17942339 0.13320199 0.066386804 0.013277214 -0.3247161 0.58555996 -0.12120532 0.092394195
-0.19018872 0.0036059618 0.13151291 0.0042843106 0.20961468 0.1140385 0.17314063 -0.19964324
-0.054892093 -0.17670305 0.023949798 0.00018296832 0.119826265 -0.22202589 -0.17954041 -0.07862312
0.027460873 0.35098428 0.25886524 0.047891565 -0.14773744 0.15185992 0.14407097 -0.15529312
-0.14983429 -0.3645883 -0.05934385 -0.059329372 0.4901512 0.32950795 0.33984175 0.045450162
0.18388276 -0.40286103 -0.35139754 -0.08424197 0.34095913 -0.24542688 0.075680755 -0.22145838
0.105709985 -0.105765976 -0.0425265 0.19200113 -0.19512348 -0.3119306 0.11275349 0.087823324
-0.22551918 -0.061015498 -0.21235403 -0.26107565 0.15851045 -0.296938 0.08469724 0.04949109
0.03816813 0.21453616 0.0937027 -0.20444238 0.37656114 0.297201 0.2141142 0.15537134
-0.47332424 -0.08280733 0.0057950495 -0.08633641 -0.028650248 0.2839083 -0.060393803 -0.22926332
-0.24054125 0.18540382 -0.0005491822 0.036321428 -0.08777024 0.05497272 -0.040540434 0.08982124
00000000: 82ce 483d d17c 313e f63a 88be bf71 87bd
00000010: 3166 30be be26 afbe ff05 00bd df52 0b3c
00000020: c0aa 193e bfcb 5e3d f3c4 b1bd 675c 8a3d
00000030: 05d6 8ebe 89a1 3e3e be58 793e b187 00be
00000040: 0bd1 f4bd aaab 5c3e 829a 0e3e e3d4 fb3d
00000050: 158e 63bd 6bbf f13d 7c61 babd 469c 91bd
00000060: dde7 383e 4cb6 173e 368a 193d 0e45 cdbd
00000070: f61d 57be de46 f7bd 19bc 6bbe 3b7e ff3d
00000080: ac17 a0bd 0cb8 763e 6be7 4c3e f982 a0bd
00000090: 1b82 bbbe e587 b3bd ee16 9abe a8cb 003e
000000a0: 9bf3 2bbd 86a5 47be 2434 b1bd 6287 c3bd
000000b0: d6a7 dbbd bdfb 013e c637 47bd f0b6 ccbd
000000c0: 3d42 403b 4541 9d3d 6361 2cbd 3271 2e3e
000000d0: fbbd 253e 0001 40be 92ae 4cbe e802 503a
000000e0: 14b5 32be 285e de3d 6338 41bb 9488 5ebe
000000f0: 5a81 0cbe c9ef 053e c57a 9fbd 7f80 0d3e
00000100: 8225 70be 945f 493e da31 b03d ab45 123d
00000110: a190 283e b06b 053d 5c58 5a3d eb07 4a3e
00000120: ab56 2dbe e55e 6dbe a0da f8bd cc38 f9bc
00000130: bdd7 e9be ffba 9ebd 2a5e 0cbe f8d2 443b
00000140: 9e5d 1fbe 3b4a 90bb 3f7a 16be c5cf 543d
00000150: 50ef 5d3c e021 9a3c 1171 8bbe 5ea0 f33d
00000160: 68a6 1fbe 88e7 9ebd 14c4 e4bd d6ea a43d
00000170: 2bd2 e0bd 739c a23e be83 823e f7c4 a23d
00000180: 4030 44bc d233 803e aaaf 5fbe ff68 1b3c
00000190: 47b5 04bd 655f 163d ed23 dabd 0890 85be
000001a0: df2a db3e 2c6a 723e c1d1 f4bc 18e5 2b3e
000001b0: 4ea3 cdbd 4385 513d d85f 9fbd 3370 02bd
000001c0: 04b3 2cbe 4934 1fbe 94f3 89bd 4c19 113d
000001d0: 4a81 f03d d1f0 e33c cfc0 0abe 41eb 13be
000001e0: 0f12 88bd 8927 51be 7c96 a3bd b767 483e
000001f0: 733a b63e 1d84 c43d 5620 71be a748 4bbe
00000200: aeb4 74bb c59e eb3d 316e c8be 3ec3 b83e
00000210: e0c5 41be 28f8 0ebe 3422 84be 21a8 3d3e
00000220: 6bfe 38be 0467 a73d 167a 053e d6fa 793e
00000230: 3581 16be 9651 3f3e c4df 9b3e e8d4 013d
00000240: e35c d43d 674a ad3e 41b7 1a3e 7067 d63c
00000250: 5d41 95be f40c 79be cb99 cf3d 0614 03bd
00000260: 2cd2 f73b 46d3 283d 4344 d13c d693 39be
00000270: 065b 24bd d84c e0bd e1c7 b93b 4823 b03c
00000280: 0e82 0abe e9c9 c5bd 7cb9 6cbe d939 f6ba
00000290: 77dd 5e3d 7076 65be f73f 80be 86be 903d
000002a0: c4ba 37be 1a66 083e cef5 873d ac88 593c
000002b0: 3041 a6be 42e7 153f 7f3a f8bd 2b39 bd3d
000002c0: d5c0 42be 0052 6c3b 52ab 063e 6763 8c3b
000002d0: 3ba5 563e 048d e93d c74b 313e 476f 4cbe
000002e0: 88d6 60bd a5f1 34be 5e32 c43c 2fdb 3f39
000002f0: 7967 f53d c15a 63be 71d9 37be 2905 a1bd
00000300: a0f5 e03c 36b4 b33e fc89 843e f229 443d
00000310: 7c48 17be 2b81 1b3e 5787 133e 2905 1fbe
00000320: 296e 19be 51ab babe 8912 73bd 5b03 73bd
00000330: 19f5 fa3e 44b5 a83e bdff ad3e f329 3a3d
00000340: c34b 3c3e cd43 cebe 61ea b3be 0e87 acbd
00000350: 3292 ae3e 2f51 7bbe 83fe 9a3d fcc5 62be
00000360: 7a7e d83d d59b d8bd 4430 2ebd f29b 443e
00000370: 73ce 47be 5eb5 9fbe 4deb e63d b7dc b33d
00000380: 80ee 66be 63eb 79bd 5673 59be b5ab 85be
00000390: 9050 223e 4208 98be bf75 ad3d 2bb7 4a3d
000003a0: 2f56 1c3d 5eaf 5b3e 34e7 bf3d 5859 51be
000003b0: 9fcc c03e bb2a 983e c140 5b3e aa19 1f3e
000003c0: 8e57 f2be e496 a9bd 66e4 bd3b 25d1 b0bd
000003d0: edb3 eabc 6e5c 913e 7e5f 77bd 01c4 6abe
000003e0: 7250 76be 80da 3d3e fef6 0fba c7c5 143d
000003f0: e2c0 b3bd 132b 613d ba0d 26bd 33f4 b73d

adv.bias f4 [100]
0.061045084 0.028783092 -0.0011467084 -0.060613953 -0.2224493 0.09982266 -0.056214057 -0.04289715
0.08456603 -0.19574536 -0.101309724 -0.18327416 -0.14601643 -0.023916727 0.034906518 -0.094841555
-0.0848702 0.050451964 -0.030805664 0.033271834 0.0060641626 -0.12360547 -0.10657091 -0.08505305
0.061536517 -0.0012668708 0.10843054 0.009959419 -0.031448737 -0.18698208 0.071903564 0.04244918
0.07820886 -0.13434562 -0.0812732 0.021907806 -0.08110213 -0.020288445 -0.06984551 0.008556861
-0.09779486 0.11669153 -0.07010664 0.034233008 -0.0267429 0.006030382 0.09892822 0.12548135
0.24633725 -0.04255713 -0.13208772 -0.16365658 -0.12957692 -0.03754571 0.010864556 0.014843457
-0.049196634 -0.03897568 -0.04747013 -0.07823788 -0.070018455 0.1202727 -0.0849074 -0.034620844
-0.21293566 0.041370198 -0.06576211 0.008674891 -0.102754906 0.010765326 -0.123795636 -0.12473183
0.07742977 0.029624006 -0.12687945 -0.066116646 -0.11475916 -0.0028032279 0.058708318 0.10927598
-0.099505424 0.11215279 -0.011250797 0.0043098815 0.07177271 -0.0071339193 0.036267277 -0.08351364
-0.06560249 0.09281949 0.064359814 -0.028512904 0.04929896 0.0271789 0.023756167 0.0067603406
-0.08392925 0.10906903 -0.014438766 -0.06879358
00000000: 690a 7a3d 85ca eb3c 264d 96ba 5646 78bd
00000010: c0c9 63be d36f cc3d b640 66bd ecb4 2fbd
00000020: f430 ad3d 7971 48be 797b cfbd 39ac 3bbe
00000030: 5585 15be 03ed c3bc 23fa 0e3d 4a3c c2bd
00000040: 6dd0 adbd b8a6 4e3d 295c fcbc 0c48 083d
00000050: e2b5 c63b dd24 fdbd d941 dabd 4b30 aebd
00000060: b70d 7c3d 210d a6ba d510 de3d d52c 233c
00000070: 64d0 00bd 3b78 3fbe 2d42 933d 31df 2d3d
00000080: f72b a03d e691 09be 9072 a6bd 0078 b33c
00000090: e018 a6bd f433 a6bc 2a0b 8fbd 1432 0c3c
000000a0: ac48 c8bd f8fb ee3d 1294 8fbd e937 0c3d
000000b0: ed13 dbbc 839a c53b e19a ca3d 2f7e 003e
000000c0: d53f 7c3e 6350 2ebd 0142 07be 9795 27be
000000d0: d0af 04be 88c9 19bd 4001 323c f931 733c
000000e0: 6982 49bd f6a4 1fbd 0a70 42bd 2e3b a0bd
000000f0: d665 8fbd 8951 f63d eee3 adbd 96ce 0dbd
00000100: ce0b 5abe cc73 293d 49ae 86bd 2121 0e3c
00000110: 2a71 d2bd 0d61 303c 9188 fdbd 6773 ffbd
00000120: 8093 9e3d 0bae f23c b0ec 01be 2a68 87bd
00000130: da06 ebbd 5cb6 37bb 2278 703d 16cc df3d
00000140: 80c9 cbbd 5db0 e53d 4355 38bc e839 8d3b
00000150: 92fd 923d a7c3 e9bb ff8c 143d 3309 abbd
00000160: 995a 86bd 2518 be3d 14cf 833d e593 e9bc
00000170: b5ed 493d 49a6 de3c 4b9c c23c d985 dd3b
00000180: 19e3 abbd 955f df3d 9390 6cbc a6e3 8cbd

adv_out.weight f4 [10, 100]
0.011301495 0.2062023 0.15077505 -0.047272194 -0.3296875 -0.15554385 0.11793611 0.1587864
0.0081227785 -0.06924632 -0.06896979 -0.43436572 -0.09300113 -0.041052908 0.3557928 -0.023647336
-0.43306533 0.13905056 0.40395206 0.097009204 0.14639048 -0.06661971 0.073734865 0.09295112
-0.13251099 0.09664536 0.5553266 0.32989106 0.028408773 -0.10253869 -0.09953141 -0.089130454
0.12086835 -0.0019586259 0.060024004 0.14788267 -0.09871265 0.08711436 0.17205265 0.36210918
-0.1424763 0.5510036 0.12045927 -0.10478175 0.13653786 0.04170331 0.23288333 0.24181826
0.21731178 -0.45225155 -0.03127859 -0.18213172 -0.17240925 -0.71548593 -0.1168677 0.03255501
-0.09471308 -0.18411933 0.01880345 -0.21066988 -0.20352633 0.1526534 0.20957822 0.23685466
-0.7545808 -0.0016272762 -0.15613762 0.24840938 -0.20327014 0.0098233875 -0.16319683 0.12842229
-0.015626626 -0.3541781 -0.49254265 0.006039232 0.027918737 0.2364918 0.15499255 -0.095630586
-0.038518183 0.3950189 0.22592436 -0.15594691 0.0716789 0.078991145 0.42299488 -0.017692612
0.10512805 0.07354398 -0.3235485 0.39394224 0.0668835 0.0070788153 0.09496704 -1.3679974
0.2951044 0.045197062 0.37713802 0.15783533 -0.03290443 0.1380231 -0.16743265 0.18589896
-0.12907599 -0.036486328 0.08946069 0.100507274 -0.15770671 -0.07525774 -0.17900209 0.07702834
-0.11135447 0.08403172 0.35124585 -0.16089344 0.025585858 -0.06374164 0.3566239 -0.033058234
0.15845995 0.053396843 0.08261716 0.10375872 -0.10393237 0.122954324 0.3899897 0.2048574
0.08385456 -0.03037782 -0.09553036 0.06073596 0.04165063 0.0675391 0.10036671 0.29874772
0.019775717 0.29711983 -0.02521645 0.37119982 -0.005169071 0.62579525 -0.0135907065 -0.08219631
0.011260723 0.091643564 -0.03283471 0.3226903 0.13399501 -0.27796546 -0.15992607 0.028606825
-0.3142958 -0.41747707 0.23302193 0.11587671 -0.42043796 -0.053226076 0.097798854 -0.067862645
-0.11957788 -0.063921794 -0.029297201 0.15094662 -0.62841046 -0.09104219 0.010433375 0.11996861
0.14116944 -0.029321196 -0.13549285 -0.0066687646 -0.05113896 -0.24414866 -0.21881214 -0.012741259
0.24614722 0.26701272 0.055065274 -0.07012297 -0.09561663 0.12474562 0.23523745 0.10884456
-0.033262633 0.21370265 0.26843545 0.31929323 -0.026064018 -0.060686767 -0.069946766 0.41600746
-0.05780857 -0.019009603 0.06741802 -0.6150789 0.12918139 0.03630309 0.23490007 -0.2253354
0.07062593 0.19101076 -0.018119449 0.094653465 -0.15283138 -0.04169915 0.0040307823 -0.15295622
-0.16584666 -0.13928486 0.05026585 0.19719261 -0.082541525 0.017297361 0.28659886 -0.14209042
-0.07350405 0.14494435 0.40060234 -0.14028011 -0.07462502 0.07902231 0.18959805 -0.14149112
0.122956485 0.2828665 0.48028368 0.09424218 0.13826159 -0.040921915 -0.21034694 -0.058221385
-0.11575824 0.17611027 -0.118107386 0.12510513 -0.19416915 0.08643925 -0.08553793 0.2732426
0.07314816 0.6658201 -0.17436576 0.108253404 0.15311855 -0.07735424 0.12907147 0.31728107
-0.09782774 -0.30104485 -0.08619927 0.09237405 -0.14566383 -0.39304727 -0.056102656 0.1502596
00000000: e829 393c b226 533e c664 1a3e 7da0 41bd
00000010: cdcc a8be e346 1fbe 7d88 f13d e798 223e
00000020: 6715 053c 04d1 8dbd 0940 8dbd 2f65 debe
00000030: 6077 bebd 1827 28bd 792a b63e 0fb8 c1bc
00000040: bdba ddbe 4563 0e3e ced2 ce3e c3ac c63d
00000050: 63e7 153e ea6f 88bd 4e02 973d 285d be3d
00000060: f6b0 07be 01ee c53d e229 0e3f 7be7 a83e
00000070: 84b9 e83c ceff d1bd 20d7 cbbd 078a b6bd
00000080: d389 f73d 4a5c 00bb bbdb 753d 8e6e 173e
00000090: dc29 cabd 0369 b23d 922e 303e 6066 b93e
000000a0: 4fe5 11be 920e 0d3f 5ab3 f63d d097 d6bd
000000b0: 95d0 0b3e 17d1 2a3d f878 6e3e 359f 773e
000000c0: fb86 5e3e 848d e7be fb1d 00bd bd80 3abe
000000d0: 0d8c 30be 162a 37bf 5558 efbd 6758 053d
000000e0: eef8 c1bd c789 3cbe b109 9a3c d8b9 57be
000000f0: 3569 50be 2c51 1c3e ac9b 563e 078a 723e
00000100: 352c 41bf 544a d5ba 8ae2 1fbe 075f 7e3e
00000110: 0c26 50be 46f2 203c 121d 27be 2281 033e
00000120: 6903 80bc d556 b5be 8d2e fcbe c0e4 c53b
00000130: d6b5 e43c e82a 723e 5eb6 1e3e f8d9 c3bd
00000140: 3ec5 1dbd eb3f ca3e b758 673e 8cb0 1fbe
00000150: 63cc 923d 1cc6 a13d c992 d83e 19f0 90bc
00000160: 604d d73d 3a9e 963d 26a8 a5be ccb2 c93e
00000170: 37fa 883d 68f5 e73b 147e c23d 8a1a afbf
00000180: ed17 973e 8e20 393d 3c18 c13e 969f 213e
00000190: ccc6 06bd ed55 0d3e 7773 2bbe 4c5c 3e3e
000001a0: 7f2c 04be b072 15bd 2b37 b73d c2d6 cd3d
000001b0: de7d 21be bb20 9abd 534c 37be 09c1 9d3d
000001c0: d00d e4bd d318 ac3d 7fd6 b33e 40c1 24be
000001d0: 6f99 d13c fa8a 82bd 6897 b63e 1268 07bd
000001e0: 5343 223e a6b6 5a3d 3033 a93d 747f d43d
000001f0: 7fda d4bd 7acf fb3d bbac c73e 23c6 513e
00000200: f1bb ab3d e8da f8bc 6ca5 c3bd 45c6 783d
00000210: da99 2a3d f151 8a3d 108d cd3d 76f5 983e
00000220: af00 a23c 1720 983e bb92 cebc e70d be3e
00000230: 4f61 a9bb 1e34 203f 8eab 5ebc 8a56 a8bd
00000240: e57e 383c 9faf bb3d b07d 06bd aa37 a53e
00000250: fd35 093e 7d51 8ebe a9c3 23be dc58 ea3c
00000260: 61eb a0be 8ebf d5be 4d9d 6e3e c550 ed3d
00000270: a543 d7be 9603 5abd c44a c83d 92fb 8abd
00000280: 3fe5 f4bd 6ee9 82bd af00 f0bc c091 1a3e
00000290: 82df 20bf 5474 babd bff0 2a3c 1ab2 f53d
000002a0: b98e 103e 0133 f0bc a3be 0abe a785 dabb
000002b0: 1677 51bd 1b02 7abe 4a10 60be b7c0 50bc
000002c0: 040e 7c3e e4b5 883e 208c 613d a29c 8fbd
000002d0: a7d2 c3bd a27a ff3d 16e2 703e e6e9 de3d
000002e0: 663e 08bd ded4 5a3e 5f70 893e 677a a33e
000002f0: 3584 d5bc b092 78bd 4040 8fbd eefe d43e
00000300: aec8 6cbd 07ba 9bbc 7512 8a3d d075 1dbf
00000310: 2048 043e 8db2 143d a589 703e 53be 66be
00000320: 54a4 903d 5398 433e 3d6f 94bc add9 c13d
00000330: d47f 1cbe bacc 2abd a714 843b 8ea0 1cbe
00000340: b5d3 29be b1a0 0ebe 90e3 4d3d dcec 493e
00000350: 880b a9bd 32b3 8d3c 16bd 923e 2780 11be
00000360: 4b89 96bd 4b6c 143e c01b cd3e 97a5 0fbe
00000370: 01d5 98bd 73d6 a13d fe25 423e 0ce3 10be
00000380: 9cd0 fb3d e1d3 903e bee7 f53e 0b02 c13d
00000390: 7294 0d3e bd9d 27bd 3065 57be 8c79 6ebd
000003a0: a812 edbd 4056 343e 49e2 f1bd 8f1b 003e
000003b0: 47d4 46be 1007 b13d 832e afbd 74e6 8b3e
000003c0: b4ce 953d 3073 2a3f f08c 32be f6b3 dd3d
000003d0: 1ccb 1c3e e66b 9ebd 502b 043e aa72 a23e
000003e0: e959 c8bd 8d22 9abe 3e89 b0bd 9b2e bd3d
000003f0: e628 15be 7e3d c9be e6cb 65bd a7dd 193e

adv_out.bias f4 [10]
0.03904172 0.027751928 -0.06715749 -0.09499047 -0.16492422 -0.07272547 0.11422631 -0.05108101
0.021996895 0.16490014
00000000: 36ea 1f3d 0358 e33c de89 89bd 5d8a c2bd
00000010: e5e1 28be 17f1 94bd 7cef e93d 523a 51bd
00000020: d532 b43c 95db 283e

val.weight f4 [100, 100]
0.22014078 -0.2498342 -0.34590822 -0.22226334 -0.09955579 -0.55426306 -0.10988929 0.14634554
0.090928614 0.43397677 0.31794527 0.29470325 -0.12695199 0.2197349 -0.0648269 0.0004800024
-0.09322254 -0.13581906 -0.18393058 0.036785167 0.23921111 0.077835105 -0.24233444 -0.020231476
0.3853568 0.21698849 0.101445176 0.05353891 -0.076507315 -0.08064156 -0.10770442 0.2939194
-0.24079145 -0.1071542 0.11682182 -0.29704022 -0.1888074 -0.18504022 0.15427493 -0.05441173
-0.17031324 0.2620886 -0.016045224 0.1225674 -0.28167424 -0.3424252 -1.4308612 0.13364232
0.14651906 0.24053143 0.25344864 -0.252525 -0.034001138 0.10154992 -0.07147698 -0.28139964
-0.14140493 -0.16664115 -0.24129581 -0.1578066 0.15418264 -0.10607909 0.12931105 -0.2957174
-0.5631921 -0.321512 0.08262482 -0.032416556 -0.22345352 -0.1409368 -0.22674005 -0.25359154
-0.36123925 0.2226802 -0.14180195 -0.14407046 -0.60607624 0.13385761 0.26021636 0.12407131
-0.013090922 0.05138707 0.16176145 -0.3078925 -0.011501923 -0.085821666 -0.02006108 -0.082975864
0.1258851 0.11697125 -0.07113527 0.04171057 -0.03166908 -0.117610365 0.24876697 -0.03264856
0.03675483 0.517153 -0.05311359 -0.06245484 -0.03181151 0.43675378 0.25486866 -0.2346156
-0.03338678 -0.4915473 -0.27767983 0.07584414 0.20070875 -0.01710288 -0.25768745 -0.05649076
-0.71910256 -0.066165425 0.09918078 -0.050822888 0.18337786 -0.12865879 -0.056115035 -0.15184118
-0.25121585 -0.12704906 0.061425906 -0.47745302 0.4358398 0.2478087 0.08679383 -0.08189081
-0.23068212 -0.12433515 0.22994412 0.13777332 0.15542363 -0.34923565 -0.00040281902 -0.056340892
-0.5883594 0.15497321 0.22501467 0.22233048 0.08056021 0.1117027 -0.18931492 -0.17454578
0.08795621 -0.25475618 -0.12516448 -0.07982891 0.069085956 -0.25370333 0.10858346 -0.053950906
-0.025412701 0.20268768 0.051041383 0.17384729 -0.22737783 -0.13676354 -0.24131258 0.10469951
0.05674342 0.103567705 0.15574533 -0.07753292 0.20270538 -0.15140992 0.08236644 0.06245531
-0.24486184 0.1806325 0.019261315 0.1346467 -0.11555855 0.40910918 0.032415453 0.30202168
-0.7104467 -0.096865475 0.11527733 -0.09484252 -0.1334913 -0.15736638 -0.11028813 -0.1452104
0.030392036 -0.09223416 0.17445838 0.25898847 -0.05065507 -0.22514126 0.17537633 0.07514763
-0.08437191 -0.033870157 0.1464462 -0.056318194 0.10272443 0.30395886 0.14614202 -0.3384998
0.19282079 -0.06351005 0.018767323 -0.3625095 0.35838434 0.7976369 0.04394686 -0.1522395
0.06664202 -0.1635232 -0.47165006 -0.5030537 0.018706642 -0.28600726 -0.06029829 -0.17767817
0.06425703 -0.19998288 0.16049428 0.03464975 -0.11580915 0.2758746 0.23944388 0.040947318
-0.12678735 0.1777398 -0.99907064 -0.078652784 -0.2082292 -0.8215526 -0.17931794 -0.08204815
0.040661406 0.05689366 0.20469809 -0.21320926 0.09523772 -0.39286733 -0.8215516 -0.10248816
-0.38989803 -0.047103256 0.022752576 0.24285388 -0.04492903 0.15302138 0.26811108 0.15235128
0.11327828 0.110286936 -0.29141405 -0.04321568 -0.028025936 -0.03908287 0.32249206 0.13721688
00000000: 966c 613e 89d4 7fbe e21a b1be 0099 63be
00000010: e8e3 cbbd 2fe4 0dbf a30d e1bd 9bdb 153e
00000020: c838 ba3d 3432 de3e b9c9 a23e 58e3 963e
00000030: b4ff 01be 3002 613e f7c3 84bd d5a8 fb39
00000040: 76eb bebd 2714 0bbe 4c58 3cbe 0bac 163d
00000050: c2f3 743e 0368 9f3d 8526 78be 7bbc a5bc
00000060: 7d4d c53e 3b32 5e3e 7dc2 cf3d 9e4b 5b3d
00000070: deaf 9cbd 6727 a5bd 2394 dcbd 9b7c 963e
00000080: 0992 76be a973 dbbd 4740 ef3d a815 98be
00000090: ba56 41be 2f7b 3dbe 3ffa 1d3e d6de 5ebd
000000a0: 9866 2ebe 7a30 863e 4671 83bc 9e04 fb3d
000000b0: 9b37 90be 5b52 afbe 7626 b7bf 88d9 083e
000000c0: 1809 163e df4d 763e 05c4 813e f54a 81be
000000d0: c744 0bbd 68f9 cf3d 8662 92bd 9d13 90be
000000e0: 74cc 10be faa3 2abe 4016 77be 0e98 21be
000000f0: 0ee2 1d3e fe3f d9bd 1e6a 043e 4568 97be
00000100: 5c2d 10bf 399d a4be 3437 a93d 39c7 04bd
00000110: 00d1 64be bd51 10be 8b2e 68be c0d6 81be
00000120: 5af4 b8be 4706 643e 8834 11be 3587 13be
00000130: d027 1bbf f811 093e 143b 853e 1919 fe3d
00000140: 4e7b 56bc 407b 523d cba4 253e 16a4 9dbe
00000150: 9072 3cbc 45c3 afbd 2257 a4bc 40ef a9bd
00000160: 06e8 003e 9f8e ef3d 5eaf 91bd b4d8 2a3d
00000170: 70b7 01bd b4dd f0bd c5bc 7e3e 7fba 05bd
00000180: 3c8c 163d 2464 043f a38d 59bd a5d0 7fbd
00000190: c94c 02bd 319e df3e 257e 823e 123f 70be
000001a0: 94c0 08bd 16ac fbbe 0d2c 8ebe 2c54 9b3d
000001b0: 9886 4d3e 571b 8cbc 9cef 83be db62 67bd
000001c0: 1b17 38bf bd81 87bd 4b1f cb3d a92b 50bd
000001d0: 68c7 3b3e 21bf 03be e1d8 65bd 417c 1bbe
000001e0: 5d9f 80be 2619 02be bb99 7b3d b974 f4be
000001f0: 6526 df3e 90c1 7d3e f7c0 b13d 5eb6 a7bd
00000200: ef37 6cbe 6da3 febd 7976 6b3e 7314 0d3e
00000210: 5f27 1f3e 04cf b2be 7431 d3b9 b5c5 66bd
00000220: b99e 16bf 4cb1 1e3e 3f6a 663e 9aaa 633e
00000230: c0fc a43d 63c4 e43d c5db 41be 21bc 32be
00000240: 6322 b43d 676f 82be 1e2b 00be 577d a3bd
00000250: f07c 8d3d 67e5 81be 0161 de3d a0fb 5cbd
00000260: 4c2e d0bc 5c8d 4f3e c510 513d 0605 323e
00000270: bcd5 68be be0b 0cbe a51a 77be b26c d63d
00000280: ca6b 683d 4e1b d43d b47b 1f3e 94c9 9ebd
00000290: 0092 4f3e 340b 1bbe bcaf a83d 24d1 7f3d
000002a0: 10bd 7abe baf7 383e e8c9 9d3c d3e0 093e
000002b0: f6a9 ecbd c276 d13e 11c6 043d 96a2 9a3e
000002c0: d6df 35bf 6861 c6bd 8516 ec3d cc3c c2bd
000002d0: f1b1 08be a724 21be bede e1bd 09b2 14be
000002e0: b8f8 f83c 43e5 bcbd 38a5 323e 239a 843e
000002f0: b17b 4fbd 6e8b 66be da95 333e 00e7 993d
00000300: 2ecb acbd 6fbb 0abd fef5 153e e8ad 66bd
00000310: 3061 d23d 7fa0 9b3e 41a6 153e d94f adbe
00000320: d072 453e 8f11 82bd eebd 993c d89a b9be
00000330: 277e b73e ef31 4c3f 9f01 343d ace4 1bbe
00000340: 9d7b 883d a072 27be 1e7c f1be 21c8 00bf
00000350: ac3e 993c 8b6f 92be 57fb 76bd 44f1 35be
00000360: 3199 833d 50c8 4cbe 9d58 243e e5ec 0d3d
00000370: 592d edbd 703f 8d3e c730 753e 60b8 273d
00000380: 8bd4 01be 6c01 363e 18c3 7fbf b614 a1bd
00000390: 093a 55be 4551 52bf 1f9f 37be dc08 a8bd
000003a0: 938c 263d 5409 693d 609c 513e 8753 5abe
000003b0: fe0b c33d e825 c9be 3551 52bf 50e5 d1bd
000003c0: b7a0 c7be 58ef 40bd 9c63 ba3c b0ae 783e
000003d0: 8107 38bd a3b1 1c3e db45 893e f901 1c3e
000003e0: 71fe e73d 1ede e13d 3934 95be ed02 31bd
000003f0: a696 e5bc 5c15 20bd ae1d a53e 9582 0c3e

val.bias f4 [100]
0.03605217 0.22238791 -0.060910266 -0.12402713 -0.18831179 0.22311479 -0.077337 0.21196593
-0.027966462 -0.19391966 0.31113073 -0.104241565 -0.08849594 0.23756482 0.018189896 -0.19043867
-0.09199275 0.14012986 0.14891614 0.083230495 0.17566441 0.059728242 -0.05104164 -0.16769171
-0.021879137 0.0039523 0.15243629 0.12148465 0.14477995 0.18919219 0.0961256 0.0270508
-0.070654616 0.07340367 0.16186489 0.11558209 -0.07982735 -0.1960407 0.04998319 -0.08240931
0.15197577 0.16970597 0.19135839 -0.17985293 -0.15916224 -0.1907306 0.08344171 -0.09449902
0.17929047 0.01056447 -0.017257988 0.21054526 -0.11319478 -0.024210302 -0.13006508 0.20646179
0.10884462 0.034876175 0.020207912 0.022194626 -0.1081 0.038258005 0.08712883 -0.09154085
-0.038776353 -0.2571335 -0.018436242 0.08600462 -0.13038613 0.21848682 0.09777819 0.20014402
0.0022284703 0.13886037 -0.05872286 -0.09534106 -0.12555084 0.19518483 0.035527617 -0.06593269
-0.061918136 0.09289373 -0.13920172 -0.12822011 0.16625701 -0.19219013 0.1285354 0.07977882
0.039710753 0.17539644 -0.019427916 -0.04366077 -0.09448769 0.15577711 0.029640863 -0.14028393
0.0992989 0.1927793 0.018518806 0.0788525
00000000: 71ab 133d a8b9 633e 0b7d 79bd f001 febd
00000010: ced4 40be 3478 643e dc62 9ebd 990d 593e
00000020: ec19 e5bc e092 46be 874c 9f3e 9a7c d5bd
00000030: 5c3d b5bd 3144 733e fa02 953c 5b02 43be
00000040: b266 bcbd 347e 0f3e 797d 183e c074 aa3d
00000050: 5fe1 333e 9aa5 743d 0a11 51bd 60b7 2bbe
00000060: e03b b3bc 4c82 813b 4218 1c3e f2cc f83d
00000070: 3241 143e 99bb 413e 80dd c43d a499 dd3c
00000080: 5eb3 90bd aa54 963d e9bf 253e 4eb6 ec3d
00000090: 867c a3bd e5be 48be 2cbb 4c3d 36c6 a8bd
000000a0: 899f 1b3e 67c7 2d3e 74f3 433e 5e2b 38be
000000b0: 6dfb 22be e24e 43be 7de3 aa3d b488 c1bd
000000c0: ec97 373e 9916 2d3c a060 8dbc 2d99 573e
000000d0: aad2 e7bd af54 c6bc c82f 05be b86a 533e
000000e0: eee9 de3d 52da 0e3d 108b a53c 81d1 b53c
000000f0: 8863 ddbd 6db4 1c3d 9a70 b23d c579 bbbd
00000100: f4d3 1ebd 01a7 83be 9a07 97bc 3123 b03d
00000110: f183 05be 02bb 5f3e ef3f c83d 8ef2 4c3e
00000120: 870b 123b 6a31 0e3e 6287 70bd 2c42 c3bd
00000130: 6690 00be 88de 473e 6885 113d b807 87bd
00000140: df9d 7dbd 113f be3d e58a 0ebe 224c 03be
00000150: 473f 2a3e 7dcd 44be c99e 033e 1463 a33d
00000160: bea7 223d 209b 333e 4b27 9fbc a3d5 32bd
00000170: c382 c1bd 0984 1f3e 65d1 f23c 97a6 0fbe
00000180: 395d cb3d f067 453e c0b4 973c 6b7d a13d

val_out.weight f4 [1, 100]
0.21013613 0.15997417 -1.0820524 -0.06450381 -0.35851258 0.24600686 -0.3289868 0.10130823
-0.16233706 -0.49960172 0.18516597 -0.07447118 0.17055373 0.30634546 0.48863035 -0.23003957
-0.13716574 0.16587752 0.00050653896 -0.2819628 0.19709626 -0.2051484 -0.17941159 -0.20430599
-0.39564785 0.20195784 0.24335448 0.06865449 0.1464661 0.26014593 0.23564842 0.001858437
-0.27035937 0.10915559 0.24823698 0.16618207 -0.023604078 -0.4291541 -0.02724766 0.578878
0.038915005 0.2842538 0.11873598 -0.33761 -0.47969535 -0.32448673 -0.52330726 -1.2282844
0.07017038 -0.36300245 0.02182149 0.28197384 -0.35678622 0.041748255 -0.1551445 0.1426236
-0.38799286 -1.3120638 -0.9151153 0.3950681 -0.10451079 0.30205056 0.6492965 0.20800863
0.040754903 -1.2747929 -0.48652956 0.18264768 -0.2883987 0.16439492 0.27445012 0.082901925
-0.12165449 0.35027626 -0.2996098 -0.037613627 -1.4162291 0.21760035 0.20982294 0.018098474
-1.1283947 0.23162888 -0.36307785 -0.23619495 0.53949153 -0.09774655 0.24067266 0.1030538
0.5177012 0.37937158 -0.24463147 -0.28230393 -0.24571581 0.0108096395 0.59239656 0.391506
-0.00968799 0.1762013 0.22063217 0.17188807
00000000: ed2d 573e 45d0 233e b180 8abf 931a 84bd
00000010: f68e b7be 39e9 7b3e f570 a8be b07a cf3d
00000020: b03b 26be cccb ffbe 269c 3d3e 5984 98bd
00000030: a3a5 2e3e 50d9 9c3e c22d fa3e 7e8f 6bbe
00000040: 2d75 0cbe ccdb 293e 41c9 043a 6e5d 90be
00000050: 9ad3 493e 6c12 52be acb7 37be 9735 51be
00000060: 5b92 cabe 09ce 4e3e eb31 793e ba9a 8c3d
00000070: 36fb 153e d931 853e d24d 713e cc96 f33a
00000080: 8b6c 8abe f78c df3d d631 7e3e a22b 2a3e
00000090: 575d c1bc 16ba dbbe 7c36 dfbc 5931 143f
000000a0: 5765 1f3d b789 913e d92b f33d 38db acbe
000000b0: a19a f5be 2023 a6be 77f7 05bf 6c38 9dbf
000000c0: 7db5 8f3d 75db b9be fbc2 b23c e05e 903e
000000d0: afac b6be 3800 2b3d 33de 1ebe ec0b 123e
000000e0: 00a7 c6be b5f1 a7bf ff44 6abf 5e46 ca3e
000000f0: c109 d6bd 5fa6 9a3e 4c38 263f 3700 553e
00000100: 9dee 263d 6a2c a3bf 671a f9be fe07 3b3e
00000110: ffa8 93be 2457 283e ba84 8c3e 7cc8 a93d
00000120: fd25 f9bd 6957 b33e 7566 99be bf10 1abd
00000130: ff46 b5bf a0d2 5e3e d3db 563e 4043 943c
00000140: 3d6f 90bf 1f30 6d3e 57e5 b9be 17dd 71be
00000150: 1e1c 0a3f 582f c8bd e572 763e df0d d33d
00000160: 1188 043f fe3c c23e ac80 7abe 248a 90be
00000170: ed9c 7bbe ea1a 313c 4da7 173f 7973 c83e
00000180: 60ba 1ebc 1d6e 343e 66ed 613e 6d03 303e
