models/demo_F1c_TOKYO_04_57_01_314.pt (torch_old, 3768 bytes, 4 tensors)

fc1.weight f4 [50, 4]
000000 b5 75 15 c0 72 81 e0 3d b5 74 b3 bf e4 a1 bd 3f
       -2.3353093 0.1096219 -1.4019991 1.481503
000010 e6 71 4f 3f 5b 96 ff 3f a5 21 ee bf a3 07 f7 3f
       0.8103317 1.996776 -1.8604017 1.9299206
000020 83 39 3d 3f d4 d5 15 40 75 d4 ee bf d3 ef ce 3f
       0.7391588 2.341176 -1.8658587 1.6166939
000030 c8 08 93 c0 1f d9 a5 bf 17 d5 23 c0 da 12 8d bf
       -4.594822 -1.2956885 -2.559881 -1.1021378
000040 e0 6d 8e bf 9a 2d 1f c0 ce e3 72 bf 40 44 54 3f
       -1.1127281 -2.4871583 -0.9487885 0.8291664
000050 b1 f6 81 3f 3f cf e8 bf 01 a1 07 c0 f4 7a a5 bf
       1.0153409 -1.8188246 -2.119202 -1.2928147
000060 ee 3d e5 bd b8 60 ba c0 7f a3 45 c0 33 2d 05 3f
       -0.11193453 -5.8243065 -3.088104 0.52022094
000070 b6 74 84 c0 25 0c 02 bf 85 0d 0f c0 cf 9b 18 bf
       -4.139247 -0.5079978 -2.2352002 -0.59612745
000080 98 b6 06 c0 0f 78 11 c0 87 c7 64 bf 8c b2 10 3f
       -2.1048946 -2.2729528 -0.89366955 0.5652244
000090 54 a0 9a 3f 16 f1 ed be 03 0e 50 3f 50 12 ac bd
       1.2080178 -0.46472996 0.8127138 -0.0840193
0000a0 9d ea 0b be e6 d0 18 41 53 04 06 3f 9b 50 33 be
       -0.13663717 9.551001 0.5235035 -0.17511217
0000b0 77 09 4b bf 0a 31 fa bf 2f 50 91 3e 4d 92 34 bf
       -0.7931132 -1.9546216 0.28381488 -0.7053574
0000c0 23 b2 7b c0 a5 aa 1a c0 ef 26 e5 bf 88 2f ff bf
       -3.9327476 -2.4166653 -1.7902507 -1.993638
0000d0 c1 2c c9 3d d6 d7 78 3f 02 a3 af 3f 3f 1b ff bf
       0.09822989 0.9720434 1.3721621 -1.993019
0000e0 52 37 84 c0 1e 55 e5 bf 6a c0 08 c0 be 20 c5 bf
       -4.131753 -1.7916601 -2.136744 -1.5400617
0000f0 ef 4f 3c c0 e2 23 3b c0 ce db 08 40 8a 93 a7 bf
       -2.9423788 -2.924065 2.1384158 -1.30919
000100 c9 df 8e c0 94 9a ae bf 3b 50 27 c0 e4 bb 82 bf
       -4.4648175 -1.3640924 -2.6142719 -1.021359
000110 42 25 36 be ce 86 44 40 09 e6 93 bf 2f f8 78 3f
       -0.1778765 3.0707278 -1.1554576 0.972537
000120 a8 13 af 3f 7d ce 8b 3f 22 f0 9f bc 6c e8 a2 40
       1.3677874 1.092239 -0.019523684 5.090872
000130 08 36 66 bd a3 46 2f c0 a0 9a b0 bf ef 5a 3e 3f
       -0.056203872 -2.7386863 -1.3797188 0.74357504
000140 9c 9e f2 bd 6a a7 36 40 60 20 30 bf 44 3f 72 3f
       -0.118466586 2.8539681 -0.687994 0.94627786
000150 6f 37 ab 3f dd 50 17 40 48 01 9a bf a7 e6 63 3f
       1.3376292 2.3643105 -1.2031641 0.8902382
000160 b5 7a 65 bf d9 f9 c6 3d 9b d0 b3 bc 5d 8f 4b 40
       -0.8964036 0.097156234 -0.021950057 3.1806252
000170 cd b1 c2 3f 5b dd cf 3f 66 9c cd 3d 8c b2 92 3f
       1.521051 1.6239427 0.10039596 1.1460738
000180 8d 20 25 3f e9 15 e0 3d 26 af 6e c0 5a bf 2c 3d
       0.64502794 0.10941679 -3.7294402 0.042174675
000190 72 42 90 3e b7 da 47 be f4 82 9f 3e ad 9f 3b 40
       0.28175694 -0.19517027 0.31154597 2.9316208
0001a0 55 2a 1e 3f 86 14 db bf f8 c3 37 bf 02 78 88 3e
       0.61783344 -1.7115638 -0.717834 0.2665406
0001b0 f6 93 8c 3f 58 de d6 3e c3 ef 9e 3e 52 7b 09 c0
       1.0982654 0.4196651 0.310423 -2.1481519
0001c0 d6 60 1f bf 80 b8 3b be 83 1e ff 3e 72 8e e5 3f
       -0.62257135 -0.183321 0.49827966 1.7934096
0001d0 8e 9e 2a bd d6 ae 1e c0 06 b3 5d c0 ba 82 41 3f
       -0.041655116 -2.4794211 -3.4640517 0.755901
0001e0 29 10 bc 3f 9f 12 cd bf 33 14 75 3f 4e f4 34 be
       1.4692432 -1.6021308 0.95733947 -0.1767132
0001f0 0c 7e 0f c0 20 6e f5 bf e9 9f c0 bf f8 02 ec bf
       -2.2420683 -1.9174232 -1.5048801 -1.8438406
000200 e1 f5 b9 be ce 5f 6b c0 3a 5b fa bf 53 4b 9d 3f
       -0.36320403 -3.6777225 -1.955909 1.2288612
000210 60 91 5c be 78 de 0d 41 cf df 87 be 60 a4 1b bf
       -0.21539831 8.866814 -0.2653794 -0.6079769
000220 02 bb 70 3f 24 c0 6a 3f a5 dd fe 3e fe 91 68 bf
       0.9403535 0.91699433 0.49778476 -0.90847766
000230 2b 44 dd 3c 1a 99 0f 40 51 77 4c bf 52 0e 39 3f
       0.027010044 2.2437196 -0.7986956 0.72287476
000240 af 6d 07 c0 7e 86 26 c0 e1 e6 13 bf 74 20 70 bf
       -2.1160696 -2.6019588 -0.5777417 -0.9379952
000250 00 f0 41 c0 05 d3 89 c0 20 da dc 3f ab d3 59 3d
       -3.0302734 -4.307009 1.7254066 0.053180378
000260 07 ca c9 be 47 48 0a 3e 81 0f d2 3f c3 8c 5a 3f
       -0.39411947 0.13504134 1.6410981 0.85371035
000270 a1 b2 97 3f 6a 50 1e c0 d6 7b d9 be bd a4 90 bf
       1.1851388 -2.473658 -0.42477292 -1.1300274
000280 f9 35 7c c0 82 83 3c bf 30 44 b6 bf 9b ce 5f 3c
       -3.9407942 -0.73638165 -1.4239559 0.013660098
000290 f2 94 55 3f 44 29 9b bf 32 f5 7d 3f b8 52 f5 bf
       0.834304 -1.2121968 0.99202263 -1.9165869
0002a0 93 a9 cf bf 37 6a 81 c0 49 34 49 c0 23 78 64 bf
       -1.6223625 -4.0442157 -3.1438162 -0.89245814
0002b0 61 a2 33 bf 3e 64 df 3f 9d 11 00 3f ce 54 b7 3e
       -0.70169646 1.7452466 0.50026876 0.35806888
0002c0 b3 60 ea bf f3 db 10 c1 46 53 8f 3f 7c 6c 8a 3e
       -1.831076 -9.053699 1.1197288 0.27035892
0002d0 99 d5 a9 be d3 a9 9d c0 1c 7a 0f c0 0d ab b4 3f
       -0.33170775 -4.9269805 -2.241828 1.41147
0002e0 8c 0d 51 3f 95 0f b4 40 62 2f 12 c0 98 14 b1 bc
       0.81661296 5.626902 -2.284142 -0.021616265
0002f0 d8 ac 8e c0 b8 22 bb bf ad de 12 c0 44 16 0b c0
       -4.458599 -1.461997 -2.294841 -2.173234
000300 0c 71 9f 3f 9c c1 87 40 e3 7f 29 3f eb 4d bc bf
       1.2456374 4.242384 0.66210765 -1.4711279
000310 48 6e c4 3f 3e c3 3e 3d e2 75 f9 be 91 76 5a bf
       1.5346155 0.046572916 -0.4872275 -0.8533717

fc1.bias f4 [50]
000000 d2 10 96 3f e7 6f c7 be c9 1b 8d bf 79 3f 13 40
       1.1723883 -0.38952562 -1.1024104 2.300749
000010 4d 3c 5a 3f 51 39 42 bf a8 c6 b3 be c6 03 20 40
       0.8524826 -0.7586871 -0.351125 2.5002303
000020 c0 94 20 3f ec 80 51 3f 1a 41 52 be 2f ca f1 3d
       0.62726974 0.81837344 -0.20532647 0.118061416
000030 6d 98 0c 40 34 90 db 3e ef 89 0f 40 ac 61 6b 40
       2.1968033 0.42883456 2.2427938 3.6778364
000040 b4 f6 1c 40 33 63 aa bf 77 df 4e 3f 31 c5 26 bf
       2.4525576 -1.3311523 0.8080973 -0.6514464
000050 14 d8 58 bf 14 f9 1a 3e 13 b1 52 3e b5 ca 79 be
       -0.8470471 0.15134078 0.20575361 -0.24393733
000060 df cb 6a bf d4 ba 1a 3c 88 a1 f2 3e 48 93 21 3d
       -0.9171733 0.009443957 0.47388864 0.0394471
000070 15 dd 18 3e 5c fb 8a be ea 8e 14 3f c4 02 bb 3f
       0.14928086 -0.27144897 0.5803057 1.4610219
000080 ae 8f 3b bf ae 2d e2 be 84 d5 37 bc 06 96 4a bf
       -0.7326611 -0.44175476 -0.01122034 -0.7913517
000090 8f 74 28 3f 61 24 8e 3f c9 02 5b 3f ea af 9f bf
       0.65802854 1.1104852 0.85551125 -1.247556
0000a0 ec 84 02 40 a0 60 87 bf 22 91 d1 3f 33 53 64 be
       2.039363 -1.0576363 1.6372416 -0.22297363
0000b0 8e f6 04 40 4d 33 1f 3f 7c de 9c bf 83 0e 13 40
       2.0775485 0.62187654 -1.2255397 2.2977607
0000c0 b3 46 8a be 30 b1 1f bf
       -0.27007064 -0.6237974

fc_out.weight f4 [10, 50]
000000 f3 27 09 be 7c 5b 89 40 63 49 d1 bf 6e fd 1e be
       -0.13394146 4.2924175 -1.6350521 -0.15526363
000010 91 f6 a9 bc 29 42 7a be 25 9b 49 bf 96 3e 77 bc
       -0.020747455 -0.244393 -0.78752357 -0.015090605
000020 b6 d1 2a 3e c6 20 10 3f 61 81 bf c0 72 f1 1e 3e
       0.16681561 0.5630001 -5.9845433 0.15521792
000030 09 bc 9d be 4d 4b 5d bf de b4 b6 bd 85 94 0a bf
       -0.30807522 -0.86443025 -0.089212164 -0.5413287
000040 fa 34 65 3e 2b 66 39 3f 0f 2d 20 c0 9e 0b 40 be
       0.2238349 0.7242152 -2.5027502 -0.18754432
000050 4e f6 9f bf 4c c6 a1 40 54 21 9a 40 26 f0 02 3f
       -1.2497041 5.055456 4.8165684 0.5114769
000060 88 c8 5e bf a3 88 86 3e 39 73 d9 bf f2 ff 42 40
       -0.87024736 0.2627612 -1.6988288 3.0468717
000070 8e 8b 3e bf 88 1c ca be 75 ba 63 40 d5 c4 8a be
       -0.74431694 -0.39474893 3.5582554 -0.27103296
000080 18 ed 15 3e 0a 31 50 c0 e7 bf 93 3e b9 08 c6 3e
       0.14641225 -3.252993 0.28857347 0.3867853
000090 24 15 e9 bc c8 a0 d3 3f 21 24 09 bf e3 82 ae bf
       -0.028452463 1.6533442 -0.53570753 -1.3633693
0000a0 92 96 97 b9 e7 98 d7 3e d9 dc db bb 31 6a 15 c0
       -0.00028913148 0.42108843 -0.0067096767 -2.3346064
0000b0 ec e7 b4 c0 68 3a e2 bf 6b 2e 04 40 ef e3 cd be
       -5.653311 -1.7674074 2.0653331 -0.40212962
0000c0 cb 76 83 40 80 cd 67 bf a3 09 94 3e 7a 08 59 40
       4.108251 -0.90547943 0.28913602 3.3911424
0000d0 3f 93 6e be d1 f6 1b be 62 7e 34 bb 9d e5 bf bd
       -0.23298357 -0.15230872 -0.002754115 -0.09369967
0000e0 7e cc 0a bf f4 f9 86 3d cc fa 98 3e 22 a9 0f 40
       -0.5421828 0.065906435 0.29878843 2.244698
0000f0 1b 93 28 c0 61 60 2e bd 45 e5 00 3e 5c ca df bf
       -2.6339786 -0.042572383 0.1258746 -1.748363
000100 28 19 ca be 6c bf 0f bf e7 3d 60 be c1 76 51 3f
       -0.39472318 -0.5615146 -0.21898614 0.8182183
000110 0e b4 28 c0 2b b1 2d 3e d6 f5 af bf 32 c3 ab 3f
       -2.6359897 0.16962115 -1.3746898 1.3418944
000120 f1 0b c4 3f 73 51 c8 be a2 6b 30 bf 0f 42 9a be
       1.5316144 -0.3912464 -0.68914235 -0.30128524
000130 0e 37 06 40 ed 24 55 40 fd 2a 7d bf 29 2c 7d be
       2.0971103 3.3303788 -0.9889372 -0.24723877
000140 94 9e 65 40 64 d1 bc be 34 b6 32 c0 a8 bc d0 bf
       3.5878038 -0.36878502 -2.7923708 -1.6307573
000150 5c ba 06 bf 27 e7 c3 3f 97 96 c7 3e 22 b2 81 3e
       -0.5262811 1.5304917 0.38982078 0.25331217
000160 4b c7 cf 3f b7 c2 e9 bf f0 4b 3f bd 19 56 e9 3c
       1.6232694 -1.8262547 -0.04670328 0.028483437
000170 6a 29 80 bf 5b a6 c9 3d 2a 32 7f c0 ec a5 30 bd
       -1.0012639 0.09846183 -3.9874368 -0.043126985
000180 5d 99 47 c0 e9 0d 8a be 30 47 4b 40 90 36 17 bf
       -3.1187356 -0.26963738 3.17622 -0.5906763
000190 08 14 f9 3e 98 21 31 40 07 29 ef bf 94 36 8b be
       0.48648095 2.7676754 -1.8684396 -0.27190077
0001a0 42 94 8f 3e ce bc 8a 3f c3 a4 4f bf ba 37 14 be
       0.280428 1.0838869 -0.8111078 -0.14474383
0001b0 c1 43 1c 3e 5b ae 1c 40 2e 0d 3c bf fb ef 2d 3e
       0.15260221 2.4481418 -0.7345761 0.16986077
0001c0 bf c1 8b be 7e ca 0f c0 02 1d da be 5e 7e 82 bf
       -0.27296254 -2.2467341 -0.42600256 -1.0194814
0001d0 eb 35 65 be 29 d1 dc bf 02 8b 35 3e 88 15 17 bf
       -0.2238385 -1.7251331 0.17728809 -0.5901723
0001e0 6a 88 c5 3f a8 e1 40 40 4f b4 8c be dd a3 51 bf
       1.5432255 3.013773 -0.27481315 -0.8189066
0001f0 e5 5a df bf 6d f7 20 c0 99 19 47 c0 f9 6a 52 40
       -1.7449614 -2.5151017 -3.1109374 3.287779
000200 5e 93 72 c0 9a 33 f1 be 4b 05 43 40 f6 6d e9 bd
       -3.7902446 -0.4710968 3.047198 -0.113979265
000210 12 d0 78 3f 1b 8d 87 bf 86 92 9b 3f e2 87 29 3f
       0.9719249 -1.0589937 1.215409 0.66222966
000220 92 bf 52 3c 48 7b 5e 3e 75 f7 c3 bc af f4 2d bf
       0.012863057 0.21726716 -0.023921708 -0.6795148
000230 65 dc 9b bd a2 7a 56 40 3c 84 93 be 56 2b 07 40
       -0.07610396 3.351235 -0.28811824 2.11202
000240 82 69 1b c0 3e 19 0c 3e 51 80 dd 3f 93 67 96 bd
       -2.4283147 0.13681504 1.7304784 -0.07343974
000250 35 50 07 40 1a 04 22 c0 4f ec ab 3d 36 55 ba 3f
       2.1142704 -2.5315003 0.08394682 1.4557254
000260 ec 86 23 3f 84 6f cb be 6a 9a e8 3d 32 b6 8a 3f
       0.6387775 -0.39733517 0.11357577 1.0836852
000270 88 b6 1f bf 06 19 75 bd 91 dc f3 3d a6 86 3e 40
       -0.62387896 -0.059838317 0.11907304 2.9769683
000280 d5 2d c0 be e3 68 9f 39 8c d6 07 bf b9 50 78 3c
       -0.37534967 0.0003040499 -0.5306175 0.0151559645
000290 cf a2 75 bd 50 c0 8d bf 54 d3 01 bd f8 f9 43 3f
       -0.05996972 -1.1074314 -0.03169568 0.765533
0002a0 d9 a5 1b c0 ae 91 4a 3e d3 b5 bc bf d8 ad fb 3f
       -2.4319975 0.19782135 -1.4742988 1.9662428
0002b0 21 22 12 40 01 97 26 3e b8 a5 9c bf 48 bb 87 3f
       2.283333 0.16268541 -1.2238073 1.0604029
0002c0 01 0b 36 40 3e 0a 87 40 3a 11 3c 3f ee 1c 1f bf
       2.8444216 4.2200003 0.73463786 -0.6215352
0002d0 69 92 32 40 85 02 83 3e 88 a6 1a c0 10 7a 98 bf
       2.7901862 0.2558786 -2.4164143 -1.191225
0002e0 c5 13 77 3e 95 e1 2b c0 92 16 fc bd 42 a1 39 bf
       0.24128635 -2.6856434 -0.123089924 -0.72511685
0002f0 35 29 1c 3f b5 b3 f6 bc cd 79 3e be 1e 2f 89 3e
       0.61000377 -0.030114988 -0.18601151 0.2679376
000300 84 d9 6b bd f3 d5 2f 40 e0 18 48 c0 be 10 8e bf
       -0.057580486 2.7474334 -3.1265182 -1.1098859
000310 67 d2 17 c0 77 77 c2 bb f8 4f 6d 40 41 2b 3d bf
       -2.372217 -0.0059346515 3.708006 -0.73894125
000320 6b e4 bf 3b ce 47 c8 bd 57 1e 54 3e 5c d2 2b 3e
       0.005856087 -0.09779321 0.20714699 0.16779464
000330 92 dc 73 be 36 6e 03 c0 db 5e 78 bf 23 da 6d bd
       -0.2381461 -2.0536017 -0.9701974 -0.05806936
000340 b5 86 ad 3d 58 c7 8b 40 e1 8e 80 c0 ad f1 f8 3e
       0.08472959 4.368084 -4.0174413 0.48621884
000350 09 c1 f8 bd 9b 0d 16 3f b8 90 8b be 91 58 cd bf
       -0.121461935 0.5861451 -0.2725885 -1.6042653
000360 ea a0 73 be ab 88 a1 3f 5e 31 c9 bf 62 bd c9 3f
       -0.23791853 1.2619833 -1.5718191 1.576092
000370 50 38 74 40 79 0e ba 3f 16 e3 8d bf 42 3b 3f bf
       3.815937 1.4535667 -1.1084926 -0.74699795
000380 cd 8e 0e c0 fc c1 15 3f fe 36 bb 3f 8c 38 4f 40
       -2.2274659 0.5849912 1.4626157 3.2378263
000390 98 e5 33 3e ac 35 d4 bd ae 36 c8 3e d9 93 2b 3e
       0.17568052 -0.103617996 0.39104217 0.16755618
0003a0 ee 1a a2 c0 cf 8a 5e 3f 23 ab 55 40 3d ba 3f 40
       -5.0657873 0.86930555 3.3385704 2.995742
0003b0 e7 03 e0 3e 09 f3 06 c0 3f 10 98 3f dc 53 79 40
       0.43752977 -2.1085837 1.1879958 3.8957434
0003c0 55 c2 44 be 38 0f 1f 40 e4 13 83 bf 2a 38 67 40
       -0.19214757 2.4853039 -1.0240445 3.612803
0003d0 7d 2d eb bf e5 9c 63 3e 30 73 69 c0 21 cd 70 3e
       -1.8373257 0.2222782 -3.6476555 0.2351575
0003e0 bf b4 19 40 fe a6 24 bf e4 dd 06 be 56 99 b6 3f
       2.4016569 -0.6431731 -0.13170582 1.4265544
0003f0 23 75 e5 bf b9 6c 77 be ca 6d 7b be 64 17 da 3f
       -1.7926372 -0.24162568 -0.245536 1.7038388

fc_out.bias f4 [10]
000000 e7 a8 b9 3e 2a 4f d3 bd e8 4c b9 3c 41 74 db 3d
       0.36261675 -0.10317834 0.02261968 0.10715533
000010 6d a7 36 be a1 f4 4b be 36 68 14 3e 62 af 96 3d
       -0.17837305 -0.19917537 0.14492878 0.0735767
000020 a6 db ad 3e c2 3a b6 3e
       0.3395664 0.35591704
