models/demo_C03f_TOKYO_314.pt (torch_old, 4191 bytes, 5 tensors)

fc1.weight f4 [50, 4]
-0.6208566 0.2445827 -0.90129757 0.35966545 0.5044279 -0.8166823 -0.7041741 0.8181628
0.11478052 0.54798764 -0.93704456 1.1738366 -1.2806792 -0.6555301 -0.3128113 0.5527399
-0.33688506 -0.7606061 -0.7835264 1.1381844 1.2775865 -0.228079 -0.1858403 -1.2212341
-0.34041768 0.11021464 -1.6115791 -0.7271363 -0.32252428 0.26209682 0.33102912 0.6185743
0.435719 0.8780713 -1.287768 -0.81514263 0.6976769 -2.3467894 0.19263843 1.1500562
1.1423225 2.2483473 0.42884368 -0.23839083 -0.07486798 -0.23539607 0.2806124 -0.88868445
-0.70372814 -0.20422187 0.0143327005 -0.92781717 1.6088642 1.155964 0.6431897 -0.91069263
-1.0458999 -1.3910193 0.6567017 0.13660087 1.6860253 0.13160841 0.79874086 -0.568696
-1.1255069 -0.21931204 -0.6166766 -0.30323836 -1.5694622 -0.6795378 -0.78980273 0.13534589
1.3510286 0.7912104 -0.026971165 0.5069874 -1.1426331 -1.0101203 -0.6905558 -0.0733166
-0.8591357 2.429588 -0.34539425 0.023599733 1.2173039 -0.12035693 -0.40045863 1.2838879
-0.46682417 -0.9775674 1.1589998 1.2036068 0.7102348 -0.013997847 0.88037044 1.4442829
0.2360603 0.9584898 -1.2195226 -0.91376096 -0.03315523 -0.017003708 -0.738985 0.15949483
1.2652861 0.1542442 0.0270403 1.3201574 1.52951 0.1017332 0.5947027 -0.94871885
0.18113105 1.0379729 -0.54491436 0.83446616 -0.2882073 -0.1334961 -0.6927314 0.39051867
0.9054508 -1.0029355 -0.00053057884 0.8850753 0.19302961 -0.16942522 0.04200415 -0.7181908
-0.3728845 -0.6766329 -1.2033042 -0.9430885 -0.27156913 1.2769147 0.9993561 -1.0959779
1.4796884 1.3052613 -0.19487435 0.10828715 -0.019821022 -0.41632262 -0.6455276 1.2057185
-0.3189366 0.45578367 -1.7838898 -1.3457083 -0.7978758 -1.347396 0.76657146 1.4411632
0.59522337 -1.5200721 1.2812767 0.57535493 1.4515551 1.3566387 -0.55184543 -0.24292134
-1.265696 -1.5210099 0.0837105 -0.30770153 0.14959073 0.40578878 -0.1527009 -1.096427
0.9348077 -1.4932042 0.14366952 -0.18787368 -1.4771489 -0.25313157 0.84197605 0.6980138
-0.437705 -2.320489 0.8611805 0.07120464 0.074857116 -0.30916148 -1.0593276 -0.14685754
-0.53195 -0.47359926 -0.6515493 0.59690535 -2.064203 -0.6915328 -0.12113992 -0.42390138
0.4601211 1.774594 1.3330445 -1.0669255 1.213485 0.37976515 -0.4544836 -1.3324517
00000000: 75f0 1ebf e373 7a3e 70bb 66bf 1226 b83e
00000010: 3022 013f 1712 51bf c144 34bf 1e73 513f
00000020: 0d12 eb3d eb48 0c3f 27e2 6fbf 4740 963f
00000030: 4ced a3bf d2d0 27bf cd28 a0be 5d80 0d3f
00000040: 337c acbe 15b7 42bf 3095 48bf 07b0 913f
00000050: f487 a33f 8b8d 69be eb4c 3ebe 6651 9cbf
00000060: 3a4b aebe 37b8 e13d 3948 cebf 9b25 3abf
00000070: e721 a5be 8e31 863e a67c a93e e35a 1e3f
00000080: 9016 df3e 48c9 603f 95d5 a4bf 30ad 50bf
00000090: f49a 323f cc31 16c0 0243 453e 0b35 933f
000000a0: a037 923f ece4 0f40 6691 db3e ba1c 74be
000000b0: 6254 99bd ab0b 71be 6eac 8f3e d380 63bf
000000c0: 8727 34bf 8a1f 51be b4d3 6a3c 6d85 6dbf
000000d0: 43ef cd3f a1f6 933f 15a8 243f 2723 69bf
000000e0: 0ce0 85bf ec0c b2bf 9a1d 283f 19e1 0b3e
000000f0: adcf d73f 5bc4 063e 487a 4c3f 1096 11bf
00000100: 9c10 90bf 5693 60be 85de 1dbf 0f42 9bbe
00000110: 23e4 c8bf 30f6 2dbf 8330 4abf 1d98 0a3e
00000120: 81ee ac3f c48c 4a3f a2f2 dcbc edc9 013f
00000130: cd41 92bf 9f4b 81bf 44c8 30bf 0327 96bd
00000140: 51f0 5bbf 5f7e 1b40 84d7 b0be 3a54 c13c
00000150: 9dd0 9b3f b27d f6bd ea08 cdbe 7056 a43f
00000160: 9403 efbe db41 7abf 1b5a 943f ca0f 9a3f
00000170: f3d1 353f 3a57 65bc f55f 613f 43de b83f
00000180: cbb9 713e 965f 753f 5119 9cbf 3dec 69bf
00000190: c7cd 07bd 5c4b 8bbc 1f2e 3dbf 9d52 233e
000001a0: e5f4 a13f 31f2 1d3e 9f83 dd3c ebfa a83f
000001b0: fcc6 c33f 7f59 d03d 703e 183f 3ddf 72bf
000001c0: 6b7a 393e 4cdc 843f 827f 0bbf 939f 553f
000001d0: e88f 93be 34b3 08be d856 31bf 10f2 c73e
000001e0: a0cb 673f 3160 80bf 8b16 0bba 4b94 623f
000001f0: 8ea9 453e ce7d 2dbe 8b0c 2c3d 5adb 37bf
00000200: b8ea bebe d037 2dbf df05 9abf 3f6e 71bf
00000210: 1c0b 8bbe f171 a33f cdd5 7f3f 0149 8cbf
00000220: 6e66 bd3f cd12 a73f 248d 47be a7c5 dd3d
00000230: b25f a2bc 3d28 d5be 4c41 25bf fc54 9a3f
00000240: a84b a3be 7a5c e93e 8056 e4bf 2b40 acbf
00000250: 9741 4cbf 7977 acbf 073e 443f 0978 b83f
00000260: 8f60 183f b991 c2bf e000 a43f 764a 133f
00000270: 8fcc b93f 56a6 ad3f be45 0dbf 5fc0 78be
00000280: 5402 a2bf 74b0 c2bf 6970 ab3d 0e8b 9dbe
00000290: 502e 193e 8cc3 cf3e a05d 1cbe b857 8cbf
000002a0: 8f4f 6f3f 5121 bfbf 1a1e 133e f561 40be
000002b0: 3713 bdbf 769a 81be be8b 573f 08b1 323f
000002c0: df1a e0be e482 14c0 5376 5c3f bdd3 913d
000002d0: b04e 993d 6a4a 9ebe 0c98 87bf d361 16be
000002e0: e02d 08bf 9a7b f2be efcb 26bf cace 183f
000002f0: e71b 04c0 4b08 31bf 3518 f8bd 9a09 d9be
00000300: fe94 eb3e e525 e33f 34a1 aa3f 0491 88bf
00000310: 7a53 9b3f 9470 c23e 13b2 e8be c78d aabf

fc1.bias f4 [50]
0.21249446 -0.18446967 0.11149768 0.3402447 0.47420576 -0.17012441 -0.7630532 0.2856492
-0.22741748 0.5302837 0.45353898 0.39144394 0.0126918815 0.1323411 0.2589565 0.7710187
-0.4805606 0.56784517 -0.41316727 0.038107675 0.45437112 0.5702268 -0.19354007 0.29561296
-0.25865355 0.40981266 0.6594206 -0.27445185 0.011105123 0.24293119 0.35994706 -0.12020317
-0.74734724 -0.22612633 0.6375023 -0.1952964 -0.26968944 -0.008667513 -0.76055354 0.07026797
-0.4451948 -0.07697958 -0.21098027 -0.07216407 -0.09611083 0.28055903 0.60937405 0.18427326
0.32672387 0.22182098
00000000: 2698 593e 9ee5 3cbe e558 e43d 8e34 ae3e
00000010: 19cb f23e 1835 2ebe 7457 43bf 9d40 923e
00000020: 21e0 68be acc0 073f 4336 e83e 576b c83e
00000030: 9cf1 4f3c 6d84 073e f295 843e 7b61 453f
00000040: 0a0c f6be 4d5e 113f a98a d3be cb16 1c3d
00000050: 55a3 e83e 62fa 113f 5e2f 46be 955a 973e
00000060: 3d6e 84be f7d2 d13e cacf 283f f484 8cbe
00000070: 43f2 353c f4c2 783e fb4a b83e 142d f6bd
00000080: 2652 3fbf a98d 67be 5a33 233f c8fb 47be
00000090: bc14 8abe 2f02 0ebc a3b3 42bf a7e8 8f3d
000000a0: 93f0 e3be 78a7 9dbd 360b 58be c2ca 93bd
000000b0: c1d5 c4bd 6fa5 8f3e f0ff 1b3f 21b2 3c3e
000000c0: 5a48 a73e 0a25 633e

adv_out.weight f4 [10, 50]
0.08087987 0.29924977 0.35687748 -0.17525448 0.084146865 -1.3430771 -0.35727426 0.25248924
1.1111366 0.015912168 -0.1920043 -0.10960236 -0.56627774 -0.2509324 -0.56261396 0.23598039
0.3258284 0.11455858 -0.18440239 -0.06683738 0.5106915 0.35961995 0.5273399 0.077763684
1.6131692 0.14079764 -0.0040822905 -0.87637484 0.065939106 0.20561314 0.24673145 -0.271834
-0.019553356 -0.6954527 -0.3466671 0.270318 -0.30310887 0.4696134 0.23746216 0.08724357
0.4242168 0.16930899 0.05307041 -0.1406338 0.0876915 0.3182833 0.53091246 -0.8651578
0.52100295 -1.0281686 0.22166994 0.47908482 0.068470225 -0.042426832 -0.2874251 -0.4519927
-0.46273214 0.25176817 0.80989254 0.28008765 -0.52094704 0.039753344 0.4436693 -0.513582
-0.7065633 -0.0140670845 -0.5015843 0.14170147 -0.12435238 -0.3394199 0.93015575 -0.0014456832
0.32647118 0.52549773 0.65048134 -0.045586277 0.5355261 -0.7950931 0.26439384 0.15993641
0.270558 0.081457146 0.66475713 -0.26882732 -0.28956693 0.2739355 -0.24239528 -0.019523928
0.4757172 -0.29834583 0.49475718 -0.016333997 -0.40661982 0.16714197 0.16812533 0.439226
0.0066172667 -0.4160939 0.3350062 -0.65395343 0.08867477 0.28374708 0.46348962 -0.43125227
-0.061606728 -0.4812937 -0.43715823 -0.0019900345 1.5001857 -0.15719439 -0.34627897 0.1530292
-0.3149437 0.07638365 -0.19597836 -0.09497985 -0.25757465 0.010934787 -0.49692667 -0.72493345
0.09419029 0.37041825 0.0048524695 0.6208895 1.1366576 0.2990317 0.16053101 -0.24582636
0.0051628845 0.021056086 0.4050601 0.01343829 0.41251996 -0.09092182 -0.6742511 0.4839788
-0.11910941 0.35522035 0.24617672 0.2583289 -0.1677051 0.24833366 -0.5444512 0.35000694
0.2909327 0.24390149 0.36564976 -0.16823193 0.07159859 -1.0740373 0.28044644 0.24407122
0.32054222 -0.016053632 0.16799852 -0.37230963 -0.0465271 0.12423594 0.11282896 -0.07153365
-0.623996 -0.09059379 0.43378475 -0.253801 -0.28140798 -0.50886315 -0.029488172 0.031078361
-0.17009251 -0.091036595 0.43095943 0.108275786 0.7766432 0.21979086 0.5287654 0.18924314
0.65044653 -0.6374318 -0.08900145 0.03292837 0.27267584 0.2945785 -1.4075661 0.19710107
-0.16242701 0.03251853 -0.52660495 0.19589132 0.41124222 -0.17125456 -0.59266 -0.2973339
-0.397349 0.2767531 0.15414758 0.19850406 0.18888159 -0.057294406 0.5976508 -1.0582061
0.037425134 -0.33522257 0.010973903 0.21254884 0.15601502 -0.027219469 -0.16280992 0.3547347
-0.04718903 -0.65709144 -0.076588765 0.046510883 -0.2608949 0.07560962 -0.019853225 -0.24502096
-0.37225285 0.12950039 -0.048061058 0.15857947 0.6370816 0.26031905 0.78601325 -0.65260684
0.64201134 0.27768087 0.93113863 -0.2842099 -0.010258697 0.15889947 0.50002366 -0.058521144
-2.4383593 0.00014561815 0.018789783 0.18052907 -0.18324189 0.21966927 0.4396855 -0.39675418
-0.39627114 0.15460029 -0.19706292 0.36918998 0.22858377 -0.01218204 0.17831822 -0.1905756
0.006346371 -0.42863148 -0.16437204 0.42009532 0.11891112 0.217981 -0.051501025 -0.12554008
00000000: 58a4 a53d 4437 993e a5b8 b63e e975 33be
00000010: 3155 ac3d f3e9 abbf a7ec b6be 4546 813e
00000020: b939 8e3f 3c5a 823c c69c 44be 3477 e0bd
00000030: 94f7 10bf 367a 80be 7807 10bf d8a4 713e
00000040: fbd2 a63e b09d ea3d fbd3 3cbe 09e2 88bd
00000050: aebc 023f 1b20 b83e bfff 063f 9142 9f3d
00000060: 547c ce3f 422d 103e bcc4 85bb 1a5a 60bf
00000070: 150b 873d 408c 523e 2ba7 7c3e d32d 8bbe
00000080: 5c2e a0bc 3009 32bf 5a7e b1be 1f67 8a3e
00000090: 1631 9bbe 2b71 f03e 4829 733e c2ac b23d
000000a0: f232 d93e 565f 2d3e 5c60 593d 4f02 10be
000000b0: 9a97 b33d 07f6 a23e e1e9 073f fb7a 5dbf
000000c0: 7360 053f 079b 83bf 72fd 623e 9b4a f53e
000000d0: 1e3a 8c3d c2c7 2dbd 6229 93be 966b e7be
000000e0: 3aeb ecbe c2e7 803e 1e55 4f3f a667 8f3e
000000f0: c95c 05bf 67d4 223d 9f28 e33e 1c7a 03bf
00000100: 55e1 34bf a179 66bc d467 00bf 311a 113e
00000110: 76ac febd 72c8 adbe b01e 6e3f 147d bdba
00000120: 3b27 a73e 0587 063f f285 263f adb8 3abd
00000130: 3d18 093f 398b 4bbf a15e 873e 5fc6 233e
00000140: 9486 8a3e 01d3 a63d 862d 2a3f bca3 89be
00000150: 1e42 94be 4641 8c3e 7836 78be a5f0 9fbc
00000160: 3491 f33e c9c0 98be d050 fd3e e0ce 85bc
00000170: 7930 d0be 4427 2b3e 0c29 2c3e 3be2 e03e
00000180: a8d5 d83b 420a d5be ef85 ab3e 7e69 27bf
00000190: 1e9b b53d 4c47 913e 834e ed3e 19cd dcbe
000001a0: 5657 7cbd 216c f6be 34d3 dfbe 3d6b 02bb
000001b0: 1606 c03f 91f7 20be 7a4b b1be b0b3 1c3e
000001c0: 4d40 a1be 086f 9c3d 8dae 48be cc84 c2bd
000001d0: d3e0 83be d227 333c 2c6d febe 3d95 39bf
000001e0: d7e6 c03d 76a7 bd3e 7701 9f3b 9df2 1e3f
000001f0: ff7d 913f af1a 993e 3e62 243e e8b9 7bbe
00000200: 6a2d a93b d07d ac3c 0a64 cf3e 462c 5c3c
00000210: d135 d33e 3835 babd b89b 2cbf 12cc f73e
00000220: a2ef f3bd 71df b53e c015 7c3e b043 843e
00000230: e3ba 2bbe 2e4b 7e3e 2761 0bbf 1c34 b33e
00000240: 21f5 943e 50c1 793e 7236 bb3e fe44 2cbe
00000250: 48a2 923d 0e7a 89bf ad96 8f3e ceed 793e
00000260: 1c1e a43e e882 83bc ce07 2c3e 5e9f bebe
00000270: 3393 3ebd 6a6f fe3d df12 e73d 3c80 92bd
00000280: 34be 1fbf 3d89 b9bd 0919 de3e 34f2 81be
00000290: b514 90be db44 02bf 2e91 f1bc 0c98 fe3c
000002a0: bb2c 2ebe 6571 babd b7a6 dc3e b2bf dd3d
000002b0: 17d2 463f db10 613e 2b5d 073f f4c8 413e
000002c0: aa83 263f bb2e 23bf 6446 b6bd e6df 063d
000002d0: 2b9c 8b3e fed2 963e 202b b4bf ddd4 493e
000002e0: 4453 26be 2632 053d 95cf 06bf bc97 483e
000002f0: 578e d23e 5b5d 2fbe 91b8 17bf 263c 98be
00000300: 5471 cbbe 95b2 8d3e ddd8 1d3e a644 4b3e
00000310: 2d6a 413e 8aad 6abd a5ff 183f 4c73 87bf
00000320: 194b 193d 4ba2 abbe e3cb 333c 67a6 593e
00000330: 67c2 1f3e 5dfb debc a5b7 26be c99f b53e
00000340: 4949 41bd 2537 28bf 92da 9cbd 3282 3e3d
00000350: 0494 85be 37d9 9a3d 3ba3 a2bc c6e6 7abe
00000360: ed97 bebe c09b 043e acdb 44bd a862 223e
00000370: c817 233f 8a48 853e 2a38 493f 3e11 27bf
00000380: db5a 243f 302c 8e3e 1a5f 6e3f f683 91be
00000390: 1814 28bc 8bb6 223e 8d01 003f deb3 6fbd
000003a0: 140e 1cc0 13b1 1839 08ed 993c 9ddc 383e
000003b0: c3a3 3bbe fbf0 603e 751e e13e 5d23 cbbe
000003c0: 0de4 cabe 8a4f 1e3e ddca 49be 7806 bd3e
000003d0: dd11 6a3e 2e97 47bc 0d99 363e 4026 43be
000003e0: 38f5 cf3b 9675 dbbe 2551 28be bc16 d73e
000003f0: ac87 f33d 6936 5f3e bdf2 52bd 948d 00be

adv_out.bias f4 [10]
0.28377786 0.035380814 0.08173359 0.18589306 0.080305144 0.121764466 0.090322025 -0.040338974
0.093831085 -0.08609676
00000000: 554b 913e 79eb 103d f163 a73d c05a 3e3e
00000010: 0677 a43d a65f f93d c1fa b83d 7b3a 25bd
00000020: 832a c03d 8053 b0bd

val_out.weight f4 [1, 50]
0.05431253 0.16050753 0.16392264 -0.65159374 0.36279953 -1.745187 -2.5625076 0.0979776
0.7644082 -0.5928295 -1.204699 -0.2730436 0.75593495 -1.5944275 -0.8325242 -0.48099297
-0.8691679 -0.7659377 -0.97002465 -0.9170269 0.58037937 0.8006984 0.7520039 -0.062392186
1.648734 -0.37058866 0.86973 -1.5054916 -0.00471055 -0.20169792 0.4309978 0.031019416
-2.911357 0.36473864 -1.1633265 0.4356065 -2.084596 0.45316195 1.0346396 -0.8875118
-0.49896097 -0.31774127 -1.1577185 -0.55709493 -1.7682296 0.46618712 0.36480042 -1.0751555
-1.5998799 -2.58128
00000000: d176 5e3d 165c 243e 56db 273e d9ce 26bf
00000010: dcc0 b93e 4a62 dfbf 2000 24c0 7ba8 c83d
00000020: 41b0 433f adc3 17bf 9433 9abf 5fcc 8bbe
00000030: f484 413f 3316 ccbf 4e20 55bf b644 f6be
00000040: ca81 5ebf 7e14 44bf 8953 78bf 46c2 6abf
00000050: be93 143f 92fa 4c3f 5483 403f f38e 7fbd
00000060: b709 d33f ccbd bdbe a0a6 5e3f f3b3 c0bf
00000070: f55a 9abb e689 4ebe beab dc3e 6e1c fe3c
00000080: ac53 3ac0 06bf ba3e e2e7 94bf d107 df3e
00000090: 056a 05c0 d804 e83e 126f 843f f933 63bf
000000a0: d077 ffbe fcae a2be 1f30 94bf c69d 0ebf
000000b0: 5955 e2bf 14b0 ee3e 1fc7 ba3e b29e 89bf
000000c0: ddc8 ccbf b133 25c0
