models/demo_A0TOKYO_17_22_42_314.pt (torch_old, 3768 bytes, 4 tensors)

fc1.weight f4 [50, 4]
-3.302401 -1.9741794 -0.89989436 0.77140397 0.66507 -0.39177725 -1.3230758 0.2873266
-0.23301114 0.26137885 -0.82753795 0.76927793 -3.6258552 -2.6704853 -0.056778114 -0.3514252
-1.3092167 -0.0021159307 -2.2696338 0.7895425 1.671102 -1.0826957 -0.03066914 -1.5621226
-0.6317688 -2.296822 -0.8999321 0.44315654 -0.24250029 -2.0988982 1.1406611 0.23537964
-1.0083122 -0.60578877 -1.1084508 -0.96006715 0.7907067 1.1989424 0.073243074 2.8714998
-0.76682067 4.878924 -0.81509304 0.012397945 0.62830234 -0.3546388 0.41370556 -0.7686835
0.03690802 -1.808013 0.15714909 -1.2259743 0.26297137 -0.8585926 1.6952446 -2.2382274
-0.66414326 -1.324133 0.060372222 -0.30720046 0.6477033 -0.7278112 0.98728293 -1.449474
-2.3524415 -2.309434 -1.3608073 -1.148608 -0.20795193 0.630542 -0.17821097 -0.66123563
3.16175 1.1283423 0.32923177 -0.45205438 -2.5579004 -1.8496264 -0.31752723 -0.037423134
-2.2169995 -0.52995396 0.90012157 -0.55004877 2.977041 1.6388288 -0.94625473 0.55572456
-1.0102476 1.0796397 -0.42433542 1.8547349 -1.0748444 3.5949912 -0.122586966 -0.083436616
1.0772948 -0.8369596 -0.4653165 -0.7497955 0.36194187 -0.47667763 -0.4784296 0.25454137
2.0453331 1.6730293 -0.10081028 0.54926276 1.7656107 -0.5578512 1.5038782 -1.5709151
-0.21251193 -0.020915953 0.09021221 1.7351599 0.22318406 -0.13591586 -1.3788271 0.67797107
0.10062555 -1.2339987 -0.50615495 -0.31836745 0.73403096 -0.7529722 0.016996548 -1.1238601
1.4228399 -1.1434335 0.22763096 -1.5392226 -1.0484536 -0.29801542 -0.25606114 -2.3245673
0.2660727 0.4507017 0.17062 -0.6279329 -0.7757731 0.41157946 -1.7564124 0.6336939
-0.7404819 -1.775826 -1.0725865 -1.1593755 -2.5011287 -2.1300461 0.08967788 -0.20707925
0.1831982 -1.2962099 0.2694714 2.212549 0.95714873 -0.3510212 -0.8573533 -0.5826328
-0.5476805 -1.4603871 0.10327065 0.27924097 -0.49573216 -1.5857066 -0.065659866 -2.2859454
-0.029900255 -2.1214054 0.4970426 -1.9586984 -2.821039 -2.1099088 0.15458345 -0.34103712
0.077003166 -1.3547713 -0.4210028 -0.17923565 0.6651546 -0.6712553 -0.6390837 -0.16074866
-0.32626706 0.02354276 -0.9598865 0.17401525 -3.2989275 -2.863584 0.26558977 -0.6815793
-0.16480926 2.4680514 1.1977848 -0.055558696 0.11083173 -0.15832648 -0.94091547 -1.0094446
00000000: 8a5a 53c0 e9b1 fcbf 7a5f 66bf bb7a 453f
00000010: 0742 2a3f 0797 c8be 8c5a a9bf 791c 933e
00000020: 799a 6ebe 73d3 853e 87d9 53bf 66ef 443f
00000030: 030e 68c0 3be9 2ac0 2b90 68bd 01ee b3be
00000040: 6a94 a7bf 6dab 0abb ae41 11c0 751f 4a3f
00000050: ace6 d53f c695 8abf d93d fbbc a2f3 c7bf
00000060: 9abb 21bf 22ff 12c0 f361 66bf 6ae5 e23e
00000070: ff51 78be 5954 06c0 2f01 923f 5c07 713e
00000080: 6010 81bf f914 1bbf b7e1 8dbf f6c6 75bf
00000090: c16b 4a3f f276 993f 7700 963d a7c6 3740
000000a0: 5c4e 44bf 2520 9c40 f0a9 50bf c020 4b3c
000000b0: 6cd8 203f 3793 b5be 37d1 d33e 71c8 44bf
000000c0: dd2c 173d f86c e7bf b1eb 203e baec 9cbf
000000d0: 2fa4 863e bacc 5bbf c6fd d83f 1e3f 0fc0
000000e0: 4b05 2abf 317d a9bf dd48 773d 6149 9dbe
000000f0: e2cf 253f d651 3abf 93be 7c3f 5d88 b9bf
00000100: 678e 16c0 c4cd 13c0 ef2e aebf 9605 93bf
00000110: 5af1 54be 336b 213f f07c 36be bd46 29bf
00000120: 1d5a 4a40 856d 903f 1191 a83e ac73 e7be
00000130: a4b4 23c0 8fc0 ecbf ee92 a2be 0049 19bd
00000140: 52e3 0dc0 10ab 07bf 5e6e 663f ffcf 0cbf
00000150: d787 3e40 24c5 d13f c03d 72bf f743 0e3f
00000160: cb4f 81bf a231 8a3f 7e42 d9be f467 ed3f
00000170: 8094 89bf 5614 6640 e00e fbbd d1e0 aabd
00000180: cce4 893f fc42 56bf f73d eebe 99f2 3fbf
00000190: 7250 b93e 170f f4be b9f4 f4be 3f53 823e
000001a0: bde6 0240 d325 d63f 9f75 cebd 7c9c 0c3f
000001b0: 88ff e13f 56cf 0ebf 157f c03f bf13 c9bf
000001c0: ba9c 59be ef57 abbc 2ec1 b83d b819 de3f
000001d0: 5d8a 643e 872d 0bbe 687d b0bf 838f 2d3f
000001e0: c514 ce3d abf3 9dbf 5f93 01bf 0f01 a3be
000001f0: 74e9 3b3f c9c2 40bf 583c 8b3c a6da 8fbf
00000200: 9e1f b63f 075c 92bf 1718 693e 3f05 c5bf
00000210: ba33 86bf 7a95 98be 721a 83be b6c5 14c0
00000220: ae3a 883e 60c2 e63e 02b7 2e3e 36c0 20bf
00000230: 1199 46bf 8bba d23e 1fd2 e0bf c339 223f
00000240: 3990 3dbf 444e e3bf 844a 89bf 6b66 94bf
00000250: 7e12 20c0 ad52 08c0 09a9 b73d 950c 54be
00000260: 4f98 3b3e 35ea a5bf 28f8 893e 679a 0d40
00000270: b307 753f 0db9 b3be 827b 5bbf 6c27 15bf
00000280: ca34 0cbf f7ed babf 907f d33d acf8 8e3e
00000290: 9bd0 fdbe 6ff8 cabf ae78 86bd ee4c 12c0
000002a0: 61f1 f4bc 1bc5 07c0 5e7c fe3e a1b6 fabf
000002b0: e78b 34c0 bf08 07c0 204b 1e3e 6b9c aebe
000002c0: d6b3 9d3d 2569 adbf ae8d d7be 8d89 37be
000002d0: 9247 2a3f 63d7 2bbf fd9a 23bf 4c9b 24be
000002e0: 7a0c a7be bfdc c03c 1fbb 75bf 0e31 323e
000002f0: a121 53c0 f644 37c0 62fb 873e fb7b 2ebf
00000300: c2c3 28be 8ef4 1d40 0351 993f 8491 63bd
00000310: bffb e23d 5620 22be d6df 70bf 7b35 81bf

fc1.bias f4 [50]
0.16217479 0.92286617 0.9113566 -1.8355961 -0.6479051 0.34262675 -0.50013834 0.9727512
-0.4253974 -1.8124745 -0.47218955 1.6732595 0.6101993 0.48467246 1.1945888 1.6094443
-0.027830578 1.4353062 -1.3989891 -1.2751863 0.008430645 0.5713203 0.4378445 -0.49811348
-0.31705427 1.5014273 1.0086774 -0.6325668 0.6850513 -0.37514466 1.257196 1.0693513
0.15844582 0.60419905 1.5204487 -0.03283631 0.1550711 -1.2215922 -0.046580926 0.95682853
1.4161446 0.034075566 -1.1215558 -1.4006481 0.94885343 1.440321 1.4902118 -1.8744755
0.72043425 0.87854147
00000000: 2611 263e f540 6c3f ab4e 693f d0f4 eabf
00000010: 1cdd 25bf c66c af3e 1109 00bf 3906 793f
00000020: b0cd d9be 2aff e7bf d4c2 f1be 5e2d d63f
00000030: 0536 1c3f fd26 f83e 49e8 983f 4502 ce3f
00000040: f4fc e3bc 1db8 b73f 1312 b3bf 4e39 a3bf
00000050: b020 0a3c 0c42 123f 282d e03e bb08 ffbe
00000060: f054 a2be c52e c03f 571c 813f e6ef 21bf
00000070: 865f 2f3f f612 c0be cceb a03f 81e0 883f
00000080: 9f3f 223e caac 1a3f 109e c23f 5e7f 06bd
00000090: f5ca 1e3e 225d 9cbf a4cb 3ebd b7f2 743f
000000a0: 3a44 b53f d292 0b3d 248f 8fbf 7048 b3bf
000000b0: 0fe8 723f 705c b83f 43bf be3f d0ee efbf
000000c0: 616e 383f 18e8 603f

fc_out.weight f4 [10, 50]
0.45947623 0.35556686 0.49992064 -2.490807 -1.9026965 0.74671966 -1.3069582 1.4462831
-0.096513286 -0.38708398 2.3867123 0.5875252 -0.41573945 0.81743205 0.46989486 0.5917283
-0.5081989 0.46441028 -1.5644203 -1.5693188 -0.78993624 -0.7396194 1.6150703 -2.5195076
0.16988999 0.53162664 -1.6222875 -2.9626758 0.13363372 -0.40337393 0.1949656 0.3843536
0.6754921 -0.56846625 0.5772785 0.6834871 -0.4255466 -0.40197462 -1.0044619 0.40370324
0.4591784 -0.1289405 -2.9632025 -0.9248506 0.31467652 0.4878062 0.62600505 -2.4394798
0.67224 0.4799028 -0.294077 0.71576136 0.19351459 -2.1987767 -2.2256057 0.47055277
-1.2158725 1.4932712 -0.45845595 -0.4957994 2.1155808 0.67286515 -0.25379822 0.7375486
0.008342456 0.6780171 -1.0868642 0.3855286 -2.1333804 -1.5268857 0.078893386 -1.0408647
1.2929823 -2.1648235 0.054749426 0.43986 -0.77423626 -2.1106215 0.40769488 0.41741884
0.1610352 0.9208668 0.6848534 -0.8089013 0.72077554 0.742406 -0.17473242 -0.8255415
-0.89263374 0.2914658 0.4172636 -0.7043938 -2.1381505 -1.4362411 0.5619767 0.75966394
0.28737894 -2.2288406 0.4959518 0.16205567 -0.045718092 0.35123307 0.5936438 -2.4814644
-1.9065425 0.35925388 -0.89769506 0.92315173 -0.029965496 -0.48992935 1.4438646 0.8452645
-0.62533087 0.82923484 0.35054213 0.63837636 -0.6410251 0.48879576 -1.3856243 -1.4337283
-0.42086002 -0.7954722 1.1316081 -1.6581562 0.0014706552 0.58961916 -1.2091748 -2.1986303
0.2495715 0.119724646 0.2778591 0.674533 0.51516694 -0.508521 0.6354492 0.64951724
-0.24096726 -0.8893526 -0.5634054 0.5090507 0.31325376 -0.3945397 -1.8664721 -1.4719514
0.42148733 0.4918303 0.50978136 -2.0331569 0.7270397 -0.08406273 -0.67300814 0.6949724
0.50839555 -2.13791 -1.3457564 0.41306373 -0.94061464 0.34410602 0.0904962 -0.71894723
1.5416328 0.66799295 -0.5179921 1.0997889 0.40064994 0.7149098 -0.52738667 0.14278378
-1.885532 -1.5299067 -0.13928533 -1.1129771 0.99962014 -1.3883734 0.27712235 0.74153
-0.71557826 -1.9480957 0.42842612 -0.07025373 0.016674066 1.2529095 0.3606183 -0.32895216
0.6030019 0.2392842 -0.32550737 -1.0302861 -0.26574022 0.7562379 0.061748922 -0.5246525
-2.2803762 -1.3396639 0.13320634 0.34956655 0.31225434 -1.5335038 0.8234333 -0.09247074
-1.1936353 0.2009746 0.3299628 -1.789812 -0.80105096 0.29466513 -0.35755977 0.6349705
-0.51781976 -1.224433 0.5565613 0.66604143 -0.8819922 0.462367 0.40312222 0.46762037
-0.79309684 0.20627218 -2.123314 -1.4135556 -0.25151792 -0.847523 1.2395984 -0.79663086
-0.08743064 0.8809484 -0.32383966 -1.7626288 0.3819931 0.47298816 0.403169 0.7145212
-0.093014866 -0.9632249 0.85234934 0.3271102 -0.19177234 -1.2768052 0.011104793 0.4893531
0.41348532 -0.7723722 -1.2793399 -1.2602073 0.6226424 0.5876642 0.23546422 -1.6871425
0.6297125 -0.020197118 -1.4842901 0.48576707 0.41664165 -1.5196337 -1.01272 0.061843254
00000000: 7840 eb3e dc0c b63e 99f5 ff3e 6269 1fc0
00000010: 8f8b f3bf 0529 3f3f 684a a7bf ce1f b93f
00000020: c2a8 c5bd df2f c6be e5bf 1840 0d68 163f
00000030: cddb d4be 3a43 513f 0f96 f03e 827b 173f
00000040: 5319 02bf 2fc7 ed3e ed3e c8bf 70df c8bf
00000050: 4339 4abf b257 3dbf a0ba ce3f 9d3f 21c0
00000060: a4f7 2d3e af18 083f 1ea7 cfbf 7b9c 3dc0
00000070: 47d7 083e 0787 cebe 10a5 473e ffc9 c43e
00000080: 0ded 2c3f 0187 11bf 86c8 133f 03f9 2e3f
00000090: 3ee1 d9be 9ecf cdbe 3592 80bf 31b2 ce3e
000000a0: 6e19 eb3e fa08 04be 1ca5 3dc0 02c3 6cbf
000000b0: 481d a13e bcc1 f93e de41 203f 7020 1cc0
000000c0: ec17 2c3f d2b5 f53e 4391 96be 233c 373f
000000d0: b028 463e c2b8 0cc0 5370 0ec0 4bec f03e
000000e0: b6a1 9bbf 8323 bf3f bdba eabe 6bd9 fdbe
000000f0: ad65 0740 e440 2c3f d7f1 81be fccf 3c3f
00000100: ccae 083c 8792 2d3f 5e1e 8bbf 0164 c53e
00000110: 4e89 08c0 fe70 c3bf db92 a13d 0e3b 85bf
00000120: 7280 a53f 788c 0ac0 ef40 603d 5435 e13e
00000130: 5934 46bf 6c14 07c0 62bd d03e ecb7 d53e
00000140: 69e6 243e edbd 6b3f 8d52 2f3f 2814 4fbf
00000150: bf84 383f 520e 3e3f 0eed 32be b056 53bf
00000160: a583 64bf 013b 953e 93a3 d53e 2753 34bf
00000170: 75d7 08c0 c0d6 b7bf b4dd 0f3f 5679 423f
00000180: 5523 933e 53a5 0ec0 65ed fd3e ecf1 253e
00000190: e542 3bbd d2d4 b33e 0af9 173f 50d0 1ec0
000001a0: 9609 f4bf 20f0 b73e 58cf 65bf ac53 6c3f
000001b0: 337a f5bc 05d8 fabe 8ed0 b83f 4163 583f
000001c0: af15 20bf bc48 543f 427a b33e a26c 233f
000001d0: 391a 24bf 7043 fa3e 235c b1bf 6984 b7bf
000001e0: f77a d7be 11a4 4bbf 89d8 903f 763e d4bf
000001f0: 00c3 c03a 48f1 163f 3dc6 9abf 5cb6 0cc0
00000200: ac8f 7f3e 3232 f53d 8c43 8e3e 32ae 2c3f
00000210: fbe1 033f 6f2e 02bf ccac 223f c346 263f
00000220: 1fc0 76be 9dac 63bf 563b 10bf 2651 023f
00000230: cc62 a03e 1c01 cabe 8fe8 eebf e768 bcbf
00000240: 30cd d73e 2ed1 fb3e 0881 023f 3e1f 02c0
00000250: 461f 3a3f 1529 acbd 434a 2cbf b6e9 313f
00000260: 3626 023f 84d3 08c0 bf41 acbf 177d d33e
00000270: 1fcc 70bf aa2e b03e 1256 b93d ed0c 38bf
00000280: 3954 c53f 9601 2b3f 219b 04bf e2c5 8c3f
00000290: fd21 cd3e 5404 373f d002 07bf e935 123e
000002a0: 1d59 f1bf fcd3 c3bf d0a0 0ebe 0976 8ebf
000002b0: 1be7 7f3f 38b6 b1bf fbe2 8d3e e9d4 3d3f
000002c0: 2330 37bf 335b f9bf ab5a db3e 30e1 8fbd
000002d0: 0d98 883c 575f a03f f6a2 b83e 6b6c a8be
000002e0: 555e 1a3f eb06 753e e7a8 a6be 6ae0 83bf
000002f0: 1a0f 88be cf98 413f 70ec 7c3d a04f 06bf
00000300: aff1 11c0 1b7a abbf 3e67 083e 63fa b23e
00000310: cddf 9f3e da49 c4bf 86cc 523f 4d61 bdbd
00000320: 0bc9 98bf 49cc 4d3e e2f0 a83e 8f18 e5bf
00000330: ad11 4dbf 59de 963e 1312 b7be 6d8d 223f
00000340: d68f 04bf 38ba 9cbf cd7a 0e3f b181 2a3f
00000350: 3eca 61bf 5ebb ec3e 0966 ce3e f06b ef3e
00000360: 6508 4bbf 0439 533e 60e4 07c0 64ef b4bf
00000370: f5c6 80be 44f7 58bf 29ab 9e3f 00f0 4bbf
00000380: d60e b3bd d685 613f 50ce a5be d29d e1bf
00000390: 9994 c33e 812b f23e 2b6c ce3e ddea 363f
000003a0: 947e bebd e895 76bf 9133 5a3f fd7a a73e
000003b0: f85f 44be 5a6e a3bf e1f0 353c 7d8c fa3e
000003c0: 59b4 d33e 2fba 45bf 69c1 a3bf 794e a1bf
000003d0: 7e65 1f3f 2971 163f 881d 713e 49f4 d7bf
000003e0: d734 213f 6d74 a5bc 38fd bdbf 76b6 f83e
000003f0: 0e52 d53e 5b83 c2bf cfa0 81bf 5a4f 7d3d

fc_out.bias f4 [10]
0.61360973 0.45125774 0.3536215 0.514229 0.36714283 0.43552503 0.51941985 0.32832554
0.63257134 0.5134503
00000000: 8715 1d3f 410b e73e e10d b53e 83a4 033f
00000010: 25fa bb3e 23fd de3e b3f8 043f 491a a83e
00000020: 32f0 213f 7b71 033f
