models/demo_C0_TOKYO_14_45_11_314.pt (torch_old, 3768 bytes, 4 tensors)

fc1.weight f4 [50, 4]
00000000: a40e 34bf 7539 803e 501a 11bf 0a89 3a3f
00000010: b89f 2b3f 90b6 21bf b734 09bf bb36 3e3f
00000020: a92f 06be f7a3 473f df38 47bf a43c a13f
00000030: d2d8 08c0 f6c3 7bbf 872e 1fbf ae3a 2d3f
00000040: 9bf4 39bd f4c6 babe 9b6c 10bf 47b5 153f
00000050: dcea e13f 2e4e 67bf acad 083f 5b2a adbf
00000060: cf94 fdbd 4338 73bf 27b9 8bbf 5139 ebbe
00000070: f236 0fc0 5d77 55bf 0df8 90be 03ac f93e
00000080: 3e17 bbbf 5f54 ffbf 7fa9 55bf c6b5 cdbe
00000090: 2c22 333f 9386 b7bf e663 823e 5d9f ad3f
000000a0: ad9c 273f 610f 0140 7de4 193f 188c a6bd
000000b0: 2a99 dd3e b729 8bbe 271f a93f d87f 71bf
000000c0: 0afe f0bf 109d ecbf d687 bfbe 032b 9dbe
000000d0: 09a6 d93f f384 993f 2ffa 313f a40e cfbe
000000e0: a148 39bf 8532 cbbf 6217 1a3e 048a eb3e
000000f0: 122a 1040 6c1e 383e 934a 873f f8e8 82bf
00000100: 3e41 dabf 34cc ebbf dac4 47bf f2ce c13e
00000110: c04a eabf 5854 c8bf 84d7 6fbe f4d2 f93e
00000120: ffef 9e3e 32c8 ea3e c376 a3be 40d3 843f
00000130: 96fd a9bf b511 a9bf 59eb 03bf 1fff 0f3e
00000140: 99a9 56bf 09d3 0740 6384 183f e3f7 5bbf
00000150: 85dd 473f 1953 ad3e d42c 44bf 01c2 8f3f
00000160: 0bc9 0ebf 33a7 1d3c 7623 563e f90f 8c3f
00000170: 7358 c53e 3a11 353f 2ddb a63e 8e24 973f
00000180: 22db c43f a4d7 0a3f 8c5d 0dbf 751b a0bf
00000190: 8dec 543e ac83 cebe 19f5 7ebf 213c 363e
000001a0: 6177 913f 6971 11be d901 42bc a11a 9c3f
000001b0: 330c 0d40 d4d6 3bbf 6635 433f d612 82bf
000001c0: f275 53be 29a9 8f3f f828 73be b630 653f
000001d0: ff1d 23bf d6d4 21bf 5c8c c4bf 535f 553e
000001e0: 5f63 143f 7f56 6abf 6a70 1abf 9743 703f
000001f0: fafa 403e e344 28be 5139 803d a207 39bf
00000200: 7dee 0abf 0afd e1bf 8a0f 96bb cab7 b0be
00000210: 5f8a 5bbe 62cf 5540 a8f5 7abe 57cc ebbe
00000220: 3251 633f 822c 2940 4690 2cbf b1df 853d
00000230: 7cf8 22bc d98d 893e 5f35 41bf f51f 953f
00000240: 03a8 0ac0 9596 e0bf 9c2e 1fbf ccbf 48bf
00000250: 290b 8dbf 7817 cabf 7be3 8b3f 15e8 a93f
00000260: 1f01 3a3e 1064 0dbe 1d1b 583f 92b2 933f
00000270: 7fae c63f 4c74 7b3f 5741 b5be e3ef 08bf
00000280: 1c1b 6cbf eddc 2bbf 1003 e7bd 52a9 3a3f
00000290: 3bd6 023e 96ef da3e b2b5 32be be8c 89bf
000002a0: 01a9 6ebe c811 e1bf cf52 cdbe c7d8 ad3d
000002b0: cc54 1abf 3b30 653e c760 3a3e dd8e 8f3f
000002c0: 2c7f dbbe 8c89 02c0 b775 3d3f de61 1f3f
000002d0: 878a 573d b02a 54bf 74ea a1bf d063 fbbd
000002e0: b7aa 04bf 33ad dbbd 7acf 14bf 6686 4d3f
000002f0: e25e f4bf af6b e1bf 379b 293f daa1 cabe
00000300: b2a0 993f c7e7 2740 36db e33e ecbc 13bf
00000310: 298d b03f 6c33 b53f 97fa 9abf a379 aebe
-0.7033484 0.25043836 -0.56680775 0.72865355 0.67040586 -0.63169193 -0.5359606 0.7430226
-0.13104118 0.77984565 -0.77821153 1.2596631 -2.1382337 -0.9834589 -0.6218037 0.67667663
-0.04539929 -0.36479914 -0.5641572 0.5847973 1.7649798 -0.9035367 0.5339 -1.3528551
-0.123818986 -0.95007724 -1.0915879 -0.45942166 -2.2377286 -0.8338526 -0.28314248 0.48764047
-1.4616468 -1.9947623 -0.83461756 -0.40177745 0.6997402 -1.4337944 0.2546684 1.3564259
0.65473443 2.0165637 0.6011427 -0.081321895 0.43280917 -0.27180263 1.3212632 -0.943357
-1.8827527 -1.8485432 -0.37408322 -0.30696878 1.7003795 1.1993698 0.69522375 -0.40440857
-0.7237645 -1.5874792 0.15047982 0.46003735 2.2525678 0.17980355 1.0569633 -1.0227346
-1.705116 -1.8421693 -0.78034747 0.378532 -1.8304062 -1.565074 -0.23422056 0.48793757
0.31042477 0.45855862 -0.31926546 1.0376968 -1.3280513 -1.3208529 -0.5153099 0.14062165
-0.83852535 2.1222556 0.59577006 -0.8592512 0.78072387 0.3385246 -0.766309 1.123108
-0.5577552 0.009622383 0.20911965 1.0942374 0.38544044 0.7072941 0.32589093 1.1808031
1.5379374 0.5423529 -0.55220866 -1.2508379 0.20793362 -0.40334833 -0.9959274 0.17796375
1.1364557 -0.14203419 -0.011841261 1.2195626 2.2038696 -0.73374677 0.76253355 -1.0161998
-0.20650461 1.1223499 -0.23746097 0.8952745 -0.63717645 -0.63215387 -1.5355334 0.20837145
0.5796413 -0.9153823 -0.6032778 0.93853134 0.1884574 -0.16432528 0.06260932 -0.7227727
-0.54270154 -1.7655346 -0.004579489 -0.3451522 -0.21439503 3.3407826 -0.24507773 -0.46054336
0.8879577 2.6433415 -0.67407644 0.065368064 -0.009946939 0.26866034 -0.7547206 1.1650378
-2.1665046 -1.7545954 -0.62180495 -0.7841766 -1.1019031 -1.5788412 1.0928797 1.3273951
0.1816449 -0.13807702 0.8441637 1.153887 1.5522002 0.9822433 -0.35401413 -0.5349104
-0.92228866 -0.6713398 -0.11279881 0.7291461 0.12777035 0.42760915 -0.17452124 -1.0746076
-0.23306657 -1.7583551 -0.4010224 0.084886126 -0.6028564 0.2238168 0.1820098 1.1215473
-0.42870462 -2.0396452 0.74007744 0.6225871 0.052622344 -0.82877636 -1.2649674 -0.12274897
-0.5182299 -0.107263945 -0.58129084 0.802832 -1.9091456 -1.7610987 0.66252464 -0.39576608
1.2002165 2.6235216 0.44503182 -0.57710147 1.3793079 1.4156318 -1.2107724 -0.34077176

fc1.bias f4 [50]
00000000: 21d1 0c3f 6728 91be 5786 2e3e 1c81 f63e
00000010: dfaa 633b 2de2 75be 1691 febe b9db 723e
00000020: b1f8 5b3e 3d2c 333f 3374 1d3f 8198 ba3e
00000030: a14d 223f d845 223f 74c5 033f 75a6 dc3e
00000040: 116f 543e db5d 683f 4747 4ebd d48e 8a3e
00000050: 0ca6 c8be 202a d43e 7d6b a7be f6bb 33bd
00000060: f084 dabe 0db7 d03e fccf 1d3f 2a90 91be
00000070: 24e5 b23b c13a 3fbc ece7 d43e 1590 ffbd
00000080: 7ce4 cfbd 0ffd cd3e 69e2 113f 7a07 86be
00000090: f442 943e 5f36 dbbd 4faf c6bd 53a4 84be
000000a0: a044 f53e 97ee 61bd 7f0a 203d 5a54 503e
000000b0: 2b75 c53e 3065 af3e 85c9 433f 1604 6c3e
000000c0: 05ef 523f 3f56 9b3f
0.55006605 -0.28351137 0.17043434 0.48145378 0.0034739298 -0.2401206 -0.49720067 0.2371663
0.21481587 0.6998938 0.6150543 0.36444476 0.633997 0.63387823 0.51473165 0.43095747
0.20745493 0.9076821 -0.050360944 0.27062094 -0.39189184 0.4143839 -0.32699195 -0.043880425
-0.42679548 0.40764657 0.61645484 -0.284303 0.0054594446 -0.011671723 0.41583192 -0.12478653
-0.10151002 0.4023213 0.569861 -0.2617758 0.2895733 -0.1070373 -0.09701406 -0.2590662
0.4790392 -0.055159178 0.03907251 0.20344678 0.38565955 0.34256887 0.7647937 0.23048434
0.82395965 1.2135695

fc_out.weight f4 [10, 50]
00000000: de01 3a3e 2ba5 cabc d8ca a53e 4911 a1bf
00000010: 29f9 1f3c 54fd c7bf 0b95 8d3f 172b 43bf
00000020: 8d4b 8d3e 3fd1 c0be 866a ddbf 4536 0abf
00000030: 3594 67bf 4907 11bf 089c 383f 137d a3bf
00000040: b4bd 1ebf a0d0 8abe 5885 893e 95dc 69bf
00000050: e814 743f 1680 4f3e b71c 213f 4af0 383e
00000060: 5f87 fbbf 8a38 92bd cc85 a6be d88f b3bf
00000070: 16b8 763e 15fc e83e 306f 1f3e 205f 93be
00000080: 6723 4fbf b977 0a40 6614 26bf 1ade 833e
00000090: aa7d 2dbf 6045 683f bb83 90be ba2f 9c3e
000000a0: 3c4a 453f 565f 2d3e 1cbd 443f 23d7 1f3f
000000b0: 4031 703f 8831 b73d f5ca 273f 8361 44bf
000000c0: 8999 e0be bbcd a23e 4a96 df3e 90a7 a03e
000000d0: a3cf 003e c1e5 65bf 5323 4fbe 6534 c1bf
000000e0: 1f3c ee3e e872 d93e 0e7e 41be 5d49 ce3e
000000f0: f01d 04bf aeb4 f6be 4156 88bf 98be a5bf
00000100: 751e 903e 370e ebbf 9e64 6cbf 7b16 343f
00000110: 9099 9f3e 6443 25bf 66d6 42be 178c d1bd
00000120: 5ef7 bc3e cf89 453e 8409 9cbf 232c 963d
00000130: 2b29 133e 12b5 b4bf 9831 c23e 8ad5 283f
00000140: f7ed 023e 1526 9d3d c84b 683b ff88 aa3f
00000150: 48e2 60bf c1c7 df3e 168a 67bf 6f9c cb3e
00000160: c602 a83e e603 d9be ea8d 073f e0ce 85bc
00000170: 0914 17bb 619f f93d 27ca 583f 084a 2d3f
00000180: a084 6e3e 5bcc e5be 654a 3cbf 2397 d3be
00000190: b362 a03e 7096 bf3d 83ad c83e 037a 45bf
000001a0: c6c2 9abd 01ef 53bf 8097 023d ec81 08bf
000001b0: 8e19 0bbe 97a2 e4bd 89d4 b7bd 84de 21be
000001c0: ea25 d5be cb00 b9be a5b4 db3e 89e7 a1bf
000001d0: 690d 20bf 564e 1cbe 5d92 d03b 8d86 43bf
000001e0: 2608 953f e39b c73e 8ca3 0abd 07f1 a63e
000001f0: 5e6c 4bbf 7c06 6dbd c277 70be fc85 bcbf
00000200: 636d 1e3c f791 233e 1841 f13e 7478 b5bb
00000210: 41e4 e2be d7c8 613f c203 86bf c5aa d53e
00000220: d722 55bf 50e9 003f 374d 7d3e 91ae 0ebf
00000230: 60f3 123f 2e4b 7e3e 1457 103e 7e11 3b3e
00000240: 1db3 3a3f d29b 973d a362 e63e 03ca 3ebf
00000250: 09f5 40bf 6992 98be 5d64 043f 777f d63e
00000260: de7c dc3e 2407 81bf f10b 263e 2c85 97bf
00000270: 88a8 ff3d ceb4 babe 01ba fcbe cd38 48bd
00000280: 6613 d9be 22b2 77be 738a 6cbf 1c22 25bf
00000290: 9e45 153f 2e49 4cbf 4eb3 c7be b9a1 0e3d
000002a0: ee3b d33c 4d67 f6be 3f08 d23e 22ab 19bd
000002b0: ed3f b03e 54cc 183d 7f9b 02bf ef41 8c3e
000002c0: 1f13 ad3e 97ce 27bf 8904 773d 2fc9 3d3c
000002d0: 7416 8abd da3c 963e e1ad 59bf 6669 123f
000002e0: 2c46 34bf 345a 253e 6699 a1bf 55cf a23e
000002f0: 54f0 bc3d 9c95 57be f054 963e 263c 98be
00000300: fe5b d3be de43 ff3e 7f79 883d 44c7 87be
00000310: d53d 993e c181 08be 4e2a a5be 91d3 73bf
00000320: 7c90 cf3c cad2 a5bc 1e8a d73d cb66 d3bd
00000330: 9eae 3f3e 20c5 1abf fe7d 38be dee8 bebe
00000340: 34cb 97bf 7d54 96be 6d5b 4fbe 5fa0 d6be
00000350: c4ae 68bf 2ac0 fcbd ccda f63d be4f 76bf
00000360: 9f44 32bf 1808 eabe 9395 713e 399c 71be
00000370: 3c74 8b3f 2dc4 96bd beec b13e cefc dfbd
00000380: 8973 42bf 0a41 1d3e 8659 083f e078 2dbf
00000390: 5cf7 a0bb 0bad 593e 4bda 303e 95c9 a7bd
000003a0: 37cc d2be 72f7 9abe e7a2 d4be 098e 9d3e
000003b0: d40d b6be b3b3 193c 9b9c 583d bba4 11be
000003c0: 5d50 143e 8a4f 1e3e a6c8 b1be 519e cf3e
000003d0: ff59 8f3e a0d4 a53c c3c3 1b3e e28c 47be
000003e0: 1816 14bf 6e00 2ebf 467a 9e3d f7ce c83e
000003f0: 977b 833e 7bb3 23bf f5af f53d d62f a1bf
0.18164775 -0.024736961 0.3238132 -1.25834 0.009763994 -1.5624185 1.1061109 -0.76237625
0.27596703 -0.37659642 -1.7298133 -0.5398906 -0.9046052 -0.5665174 0.72113085 -1.2772545
-0.62008214 -0.27112293 0.26859546 -0.91352206 0.953444 0.20263705 0.6293444 0.18060413
-1.9650687 -0.0713969 -0.32523954 -1.4028273 0.2409366 0.45504823 0.15569758 -0.28783512
-0.80913395 2.1635573 -0.64874876 0.25755388 -0.67769873 0.9073086 -0.28225502 0.30505162
0.770664 0.16930899 0.7685106 0.6243765 0.9382515 0.08944994 0.6554406 -0.7671129
-0.43867138 0.31797585 0.4366935 0.3137784 0.12579207 -0.898037 -0.20228319 -1.5094115
0.46530244 0.4247048 -0.18895742 0.40290347 -0.5160818 -0.48184723 -1.0651323 -1.294879
0.28148237 -1.8363713 -0.9234103 0.703468 0.31171846 -0.64555955 -0.19027099 -0.10231798
0.36907476 0.19290851 -1.2190404 0.07332637 0.14371173 -1.4117758 0.37928462 0.65950835
0.12786089 0.07673279 0.003544556 1.3323058 -0.8784528 0.43707088 -0.9044508 0.39767787
0.32814616 -0.42385787 0.5295092 -0.016333997 -0.0023052713 0.12188602 0.8468346 0.6769109
0.2329278 -0.44882473 -0.7355102 -0.41326246 0.31325302 0.093548656 0.3919488 -0.771393
-0.07556681 -0.82786566 0.031882763 -0.53323245 -0.13583967 -0.11163824 -0.08976085 -0.15807539
-0.4163049 -0.36133417 0.42911258 -1.2648784 -0.6252046 -0.15264258 0.006365104 -0.76377183
1.1643112 0.3898612 -0.033847377 0.32605764 -0.7946223 -0.057867512 -0.23483184 -1.4728389
0.0096696345 0.1597365 0.47119975 -0.005538041 -0.4431477 0.8819708 -1.0469897 0.4173185
-0.83256286 0.50356007 0.24736486 -0.5573512 0.5740261 0.24833366 0.14095718 0.18268391
0.72929555 0.07402767 0.4499713 -0.74526995 -0.75373894 -0.29799202 0.5171564 0.41894123
0.43064016 -1.0080304 0.16215493 -1.1837516 0.12483317 -0.36466068 -0.4936066 -0.048882294
-0.42397612 -0.24189046 -0.92398757 -0.6450517 0.5830935 -0.79799163 -0.39003986 0.0348222
0.025785413 -0.48125687 0.41021916 -0.03751672 0.34423772 0.037304237 -0.5101852 0.27394053
0.3380365 -0.65549606 0.06030706 0.01158361 -0.06742564 0.293433 -0.85030943 0.57192075
-0.70419574 0.16147691 -1.2624938 0.31798807 0.092255265 -0.21053165 0.29361677 -0.2973339
-0.41281122 0.49856466 0.066637985 -0.26519215 0.29929987 -0.13330747 -0.32258838 -0.952447
0.02533745 -0.020242114 0.10524391 -0.103223406 0.18718955 -0.6045704 -0.18016812 -0.3728704
-1.1858888 -0.29361334 -0.2024972 -0.41919228 -0.9089167 -0.1234134 0.12053451 -0.96215427
-0.6963596 -0.457093 0.23592214 -0.2359475 1.0894847 -0.07361636 0.34750932 -0.109368905
-0.7595754 0.15356842 0.532616 -0.67762566 -0.0049123 0.21257417 0.17270772 -0.081927456
-0.4117143 -0.3026691 -0.41530535 0.30772427 -0.35557425 0.009381223 0.052883726 -0.14222996
0.14483781 0.15460029 -0.34723395 0.40550473 0.2799835 0.020242989 0.15211396 -0.19487336
-0.5784621 -0.67969406 0.077381656 0.39220402 0.2568023 -0.6394574 0.11996452 -1.2592723

fc_out.bias f4 [10]
00000000: ff7b 603e f2f2 883d faf0 88bd 5ec9 853d
00000010: dc56 17be 372e 2a3d 474b 0bbe 4c0d 7dbe
00000020: eb69 d4bd 2105 93be
0.21922301 0.06686963 -0.06686588 0.06532548 -0.14779228 0.04154798 -0.13602935 -0.24712104
-0.10371765 -0.2871485
