models/demo_D0_TOKYO_02_37_58_314.pt (torch_old, 3768 bytes, 4 tensors)

fc1.weight f4 [50, 4]
00000000: c061 a2bf d545 3bbe 19d8 81bf b8f2 133e
00000010: 1412 3b3f 2978 01bf 38ea b1bf c667 4c3f
00000020: 1d7c 6cbf 7476 85be 4872 54bf 34b0 283f
00000030: 244e f7bf 7186 1dc0 d783 b3be 1662 06bf
00000040: 2fdd 79bf 1aa0 09bf 77a1 1bbf c9aa 0040
00000050: 65d2 553c a0b1 ccbf d35a 62bf 7e80 4fbf
00000060: 079e 8dbe fdb6 0cbf db95 8abf 16d3 16bf
00000070: bc50 04c0 4880 ad3d c2cb c63e 2d59 84be
00000080: f4e1 d13e 9531 2c3e 207f 8fbf 37d1 bebf
00000090: c60e cb3f f6dd 1e3f 0a1c 723e f85e 0640
000000a0: d811 2c3f 0693 b73f ec21 ff3e e766 36bf
000000b0: eb62 9bbe d6b9 cabe 21cc b93e 0a0f 90bf
000000c0: 0824 48bf 0f24 ddbf fa1d 4b3e b095 b0bf
000000d0: 7419 a83d aff7 c63e 4c41 733f 1ac9 90bf
000000e0: b3ac dfbe 2ce7 e8bf dac3 f93d 011f a9be
000000f0: e4ff 073f 7713 91bf fe95 7c3f 12c4 adbf
00000100: f90b 84bf cef5 debf 3f0d 96bd 9022 3ebf
00000110: 7604 8abf fea6 bdbf f06a 62be dfec 33bf
00000120: 0ff4 e23f c5ae a73f e367 03bf 294d e43e
00000130: 31cf 31bf 8ee8 c4bf 8013 3cbe ca7e 16bf
00000140: 0a17 60bf d2ac 6240 c326 b83e be9c 04be
00000150: 017c d43f 032f 453f 36e5 1ebf 9c13 f23f
00000160: 474b 203f 31d0 a9bf f7da 843f d49d 1e3f
00000170: ab6c c93f efc5 273f 3549 ae3f 2403 363d
00000180: 675b 2cbf cfc8 d23d 47f3 8abf 37e5 b5bf
00000190: 9fab 54be 8833 9ebf 6b73 c9be 785f 81be
000001a0: 6c14 d63f 8a31 bc3f 8655 8b3e 2e3a ff3f
000001b0: 152b dc3f 54ce 103f e69f 343f cece 37bf
000001c0: 74a3 abbf 0953 8bba 5ba7 39bf de65 b73f
000001d0: cf1b 603e bcf0 13c0 da6c bbbd 7a68 e73e
000001e0: 1e89 8b3f 473c 9abf 8f5e 47bf 0d01 413e
000001f0: 33d5 703f 5975 59be 1304 203d 40aa 9fbf
00000200: 436d 653d 005a 9ebf 2367 31bf 538c 2fbf
00000210: e21b a4bf 27d4 2f3f 90e0 a63e 0e1d 4abf
00000220: be30 5c3f 06b9 793f 7e8c 993e 401b 11bf
00000230: 4256 7fbf f1ef 4abe ad85 c4bf b768 cc3f
00000240: 63db 57bf 620b f0be 3451 96bf aeac 23bf
00000250: d554 eabf 4233 04c0 7551 a73f 8dcb 1fbf
00000260: 9761 983f be9a 443f 56ab 9f3e e004 d23f
00000270: 58dd 5e3f d9ed 20bf 1de2 25bf 15f6 92be
00000280: 0220 41bf d03b 5ebf 0ec4 c2bd 1a50 fb3d
00000290: 5be3 26be 05a2 dfbe 2aa5 d2bd b70e 94bf
000002a0: a528 73bf d366 dfbf 309c 4fbe 22ac 0ebf
000002b0: 5b3b c4bf 13ca 113f eac2 2e3e e504 353f
000002c0: b3e2 243f 8223 48c0 932a 023f ce2b 893e
000002d0: 9e40 213f d8f9 98bf 43e7 b3be ea39 91be
000002e0: 9bd9 73bf cd6e 49bf 8977 29bf deb3 bb3d
000002f0: e948 cbbf daad e2bf 653c fc3e b346 bfbf
00000300: 695d f7bd 3003 903f 271b 713f 89b4 80bf
00000310: 6a61 70bf 1d78 f2be 28d6 8fbf 7bda 96bf
-1.2686081 -0.18288358 -1.0144073 0.14448059 0.7307446 -0.50573975 -1.3899603 0.79845846
-0.9237688 -0.26066935 -0.8298688 0.65893865 -1.9320722 -2.4613307 -0.35061523 -0.5249342
-0.97603124 -0.5375992 -0.6079325 2.010424 0.01305065 -1.5991707 -0.88419837 -0.8105544
-0.27659628 -0.5496672 -1.0826982 -0.5891584 -2.0674276 0.08471733 0.3882733 -0.25849286
0.409927 0.16815789 -1.121067 -1.4907597 1.5863883 0.62057436 0.23643509 2.0995464
0.6721473 1.4341743 0.49830568 -0.71250767 -0.30348906 -0.39594907 0.3628855 -1.125459
-0.7817998 -1.7276629 0.19835654 -1.3795681 0.0820798 0.38860843 0.9502151 -1.1311371
-0.43686447 -1.8195548 0.12195559 -0.33031467 0.53124833 -1.1334065 0.9866637 -1.3575461
-1.0316154 -1.7418764 -0.07326745 -0.7427149 -1.0782611 -1.4816587 -0.22111106 -0.7028331
1.7730731 1.310021 -0.51330394 0.4459012 -0.69456774 -1.538347 -0.18366814 -0.58787215
-0.87535155 3.541798 0.35967073 -0.12950417 1.6600343 0.7702486 -0.620685 1.8912234
0.62614864 -1.326666 1.0379323 0.61959577 1.5736288 0.655364 1.3616091 0.04443659
-0.6732697 0.102922074 -1.0855492 -1.4210576 -0.20768593 -1.2359476 -0.3934587 -0.2526815
1.6724982 1.4702618 0.27213687 1.993963 1.7200648 0.5656483 0.70556486 -0.71799934
-1.3409257 -0.0010629605 -0.7252099 1.4327962 0.21885608 -2.3115683 -0.09151621 0.45196897
1.090122 -1.2049645 -0.7787866 0.18848057 0.94075316 -0.21236171 0.039066385 -1.2473831
0.056012403 -1.2371216 -0.69298 -0.6857349 -1.2821009 0.68683094 0.32593203 -0.78950584
0.86011875 0.9754795 0.2999 -0.56682205 -0.99740994 -0.19818093 -1.5353295 1.5969456
-0.8431913 -0.46883684 -1.1743531 -0.63935363 -1.8307139 -2.0656285 1.3071734 -0.6241997
1.1904782 0.7679862 0.31185406 1.6407738 0.87056494 -0.62862927 -0.64798146 -0.2870337
-0.75439465 -0.86810017 -0.09510051 0.122711375 -0.16297667 -0.436783 -0.10285409 -1.1566991
-0.94983894 -1.7453254 -0.20274425 -0.55731404 -1.5330614 0.56948966 0.17066541 0.70710593
0.64408416 -3.1271672 0.50846213 0.26791233 0.62989223 -1.1951246 -0.35137376 -0.28364497
-0.95253915 -0.78684694 -0.6619802 0.09165166 -1.5881625 -1.7709305 0.49264827 -1.4943451
-0.120783634 1.1250973 0.94182056 -1.0055095 -0.9389864 -0.47357264 -1.123723 -1.1785425

fc1.bias f4 [50]
00000000: 4e98 3d3f 0ae5 263f 243d ef3e 5faf 593e
00000010: e648 933e 90b0 dabe 8dd1 6cbe 5fd0 683e
00000020: f46d 02bf f34b cabb 1983 b83f 3cc0 5e3f
00000030: a321 b4be 89cf 4b3f 4c84 6f3f 5027 a73f
00000040: 7c26 8abe 4158 543e eae2 2bbe 9467 84bd
00000050: 4aec 853e 10b4 cb3e 452b 813e 051b 1f3f
00000060: 05c5 943d bf2d 673f 25f6 583d d9f8 f6be
00000070: 47eb 173f eb06 04bf 90a1 993f b0af e23e
00000080: 318c d7be 0eeb 923e 5451 ad3f 5cfa adbd
00000090: 637a 2bbe a9f1 853f 1fba 253e 9fc9 3ebf
000000a0: e3ab 853f 6d86 fc3e 7693 92be 5f04 0f3e
000000b0: 99e4 bb3e fb37 593f 1755 8f3f 61f4 18bd
000000c0: 028a 993f da17 0d3f
0.74060524 0.65193236 0.46726334 0.21258305 0.28766555 -0.42712831 -0.23126812 0.22735737
-0.50949025 -0.0061736046 1.4415008 0.87012076 -0.35181913 0.7961355 0.93561244 1.3058872
-0.26982486 0.20736791 -0.1678578 -0.064650685 0.26156837 0.39785814 0.25228325 0.62150604
0.07264141 0.9030418 0.052969117 -0.4823673 0.5934338 -0.51573056 1.200243 0.44274664
-0.42099145 0.28694957 1.3540444 -0.08495018 -0.16745906 1.0464374 0.16184281 -0.745264
1.0443081 0.4932131 -0.2862813 0.13966511 0.36697844 0.84851044 1.1197842 -0.037342433
1.1995242 0.5511452

fc_out.weight f4 [10, 50]
00000000: ea7f 163f f044 8d3e 8909 063f 5545 80bf
00000010: bd72 31bf 0f66 b4bd 0275 b9bd c755 f8be
00000020: 3a6f 3cbf 3642 b2bf b78b 8b3e 6f7e a03e
00000030: c2e0 c4bf c980 dd3e ca87 883f 7da1 fc3e
00000040: 04a5 26bf 4d0f b0be b311 16bf 268a debe
00000050: 1375 8a3f f9a0 14bf 8bda f6bc 834b fbbe
00000060: 20dc 0c3e c268 973e 0d4c f9bf d5b3 25bf
00000070: c513 82bf 3899 1fbd bbe1 103f 9567 bcbd
00000080: 50c8 d9be f6df 213f e3fe d53e e738 9dbf
00000090: 7572 ce3c 0dc5 9f3d 8056 a3bf 28c9 1fbe
000000a0: d473 873f 2bc8 bb3e 760e 09bf 9267 00bf
000000b0: 8aca 2d3f f978 993e db2e 5a3f bc49 6bbf
000000c0: df17 8e3f 48ae dc3e f583 4f3f 2d60 2f3f
000000d0: 3b75 823e e69f 1ebf a6d0 81bf b9bd 8fbe
000000e0: 6c8b 4d3e 0d5b 41bf d753 a4bd 6538 363e
000000f0: 528b 6d3e 9f41 963e a01d 88bf 1fa6 9e3e
00000100: 1912 b63e 3e08 dc3e d7b7 63bf 65ef ffbe
00000110: e641 75bf 8deb 62be 5467 d63f 066a 71bf
00000120: 3621 103f eeac 5a3e ad73 bb3c eff0 963a
00000130: 9979 7fbf 59e9 cebf 0f37 9ebf 78b7 12be
00000140: 2a28 053f c9cd fa3e 9054 0f3f 2d70 3dbe
00000150: 0228 113f c72b c2bf 1089 0d3f abd7 c63d
00000160: bd12 d03c 7c35 f9be acbe 423f 055e 593e
00000170: 384e 5ebf 1834 0fbf ada7 bc3f f058 c43e
00000180: fb6c ef3e b838 93bf 954a fb3e 7465 033e
00000190: 2fbe dc3e 97e6 5e3f 5d40 f33e fa4f 0ebf
000001a0: c234 89bf ec93 5c3d b204 78be 2634 47be
000001b0: 4f77 8fbe eb88 63bf 15af a63e 63ff c53e
000001c0: ea2a 10c0 8099 8a3e 9602 353f 997c e43e
000001d0: b7b6 05bf ac17 653e 31ed 74bf 7ad6 28bf
000001e0: 6fac aa3f b392 c23e ac52 52bf 9893 953f
000001f0: 0180 09be 24db 813e e36b aebf e1b4 97bf
00000200: f52d c2bf 769d 7fbf 4e6b 7b3f a415 fd3e
00000210: 1a27 973e 2810 753f b04b 0f3e 6ee8 78bf
00000220: de0f f53d 4bd6 373f f7dc 39bf 2b5d 053f
00000230: 6cb0 153f 61b3 de3e 5742 30bf 6a2a 1d3d
00000240: 7d57 a13f 6d2d ad3e 6721 163f 42be 8ebf
00000250: ac3d 3e3e 2b03 28be 6cae 9a3e c09c 803f
00000260: 19b0 f03d 9790 44bf 5b7c 3bbf 3526 aabe
00000270: 7934 c5be c5e9 88be 17ac 6abe 3628 54be
00000280: fdde f33e b6ab 023f 886a 53bf f8eb c9be
00000290: f9cd 7c3f ddb6 2a3f dac3 f8be 04cf efbe
000002a0: a89e 10bf deb2 e9be e600 413f c7a6 b7be
000002b0: 2ee8 303e 05e0 3ebd 4a14 703e 567b ff3e
000002c0: 4693 80bc baab ad3d dee0 38bf 3139 e33e
000002d0: 0a5c f33e 4dec 933f 5a28 91be 2a9f 063e
000002e0: 1391 023f 74e3 b0bf e508 5dbd db07 26bf
000002f0: e31c 14be 41ff 483e 61c4 f63e 1010 6d3e
00000300: b9ed 5ebf 9d89 4e3e cae9 0c3f 63db 583e
00000310: 9b2b be3e 9e38 45bf 99fe 113f 0989 64be
00000320: 0644 733e ebfb e53e 0d5b f7bb ca7f 9abe
00000330: 6a4a ccbd ad4b bcbd ffb4 d1bd 6e02 12bf
00000340: 746f bfbd eb69 d7be acc0 763f 9d15 7b3e
00000350: e68c 20be 0513 be3e bff5 853e 79c4 883e
00000360: e711 57bf 1bc3 8fbe 005b b7be 375f 073d
00000370: aad4 7b3e 48a1 de3d 5d74 e93e e674 853d
00000380: 9be6 dabe 3233 1f3f 623b ad3d 9340 16be
00000390: 7b8b 68bf 9534 7fbe 9e2c 193f bbe1 153f
000003a0: 8200 8dbe 900d 01bf 635d 673f b361 53bf
000003b0: e9e0 c63d 19c7 9abe 8d7f ce3c 646a 313e
000003c0: 3a88 e23e 605e d13e 9fbe 75bf 22e6 25be
000003d0: f799 6a3f 71bd c43e ac1d b83e 1e91 c2bc
000003e0: 815e f0bc 9cf4 86bc 529e 0b3b 4811 5f3f
000003f0: 117f 80bd e04c 63be edcf 9cbe fdc1 84be
0.5878893 0.27591658 0.523583 -1.0021158 -0.693157 -0.08808529 -0.090555206 -0.48502943
-0.7360722 -1.3926456 0.2725503 0.3134646 -1.5381091 0.43262318 1.066644 0.49341956
-0.65095544 -0.34386674 -0.58620757 -0.43464774 1.0816978 -0.58058125 -0.030133506 -0.49081048
0.13755846 0.2957211 -1.9476334 -0.64727527 -1.0162283 -0.03896448 0.5659444 -0.09199444
-0.4253564 0.6323236 0.41796026 -1.228299 0.025201062 0.07801256 -1.2760773 -0.15604079
1.0582223 0.36676154 -0.5353769 -0.50158036 0.67887175 0.29975107 0.85227746 -0.91909385
1.1101035 0.43101716 0.81060725 0.6850613 0.25480065 -0.61962736 -1.01418 -0.28074434
0.20072716 -0.7552956 -0.08023804 0.1779495 0.23197678 0.2934694 -1.0634041 0.30986115
0.35560682 0.42975038 -0.8895239 -0.4998733 -0.9580368 -0.22160168 1.6750283 -0.94302404
0.56300676 0.2135503 0.022882307 0.0011515896 -0.9979492 -1.6164962 -1.2360553 -0.143278
0.5201441 0.48985127 0.5598841 -0.18499823 0.5670167 -1.516961 0.55287266 0.09709104
0.02539956 -0.48673618 0.7607219 0.21227272 -0.868381 -0.55938864 1.473867 0.38349104
0.46762833 -1.1501684 0.4908034 0.1283167 0.4311385 0.870706 0.47510043 -0.55590785
-1.0719225 0.053852007 -0.24220541 -0.19453487 -0.28020713 -0.88880795 0.32555452 0.38671407
-2.2526193 0.27070236 0.7070707 0.4462631 -0.52231926 0.22372311 -0.95674425 -0.65952265
1.3333873 0.38002548 -0.821574 1.1685667 -0.13427736 0.25362504 -1.3626674 -1.1852075
-1.5170275 -0.9984964 0.9821061 0.49430573 0.2952202 0.9572778 0.13993716 -0.9722966
0.11965917 0.7181136 -0.7260279 0.5209529 0.58472323 0.4349623 -0.68851227 0.038370527
1.2604824 0.3382372 0.5864472 -1.1151812 0.18578213 -0.16407458 0.30211198 1.0047836
0.11752338 -0.76783127 -0.73236626 -0.33232275 -0.38516596 -0.26740852 -0.2291721 -0.20718464
0.47631064 0.5104326 -0.8258443 -0.39437842 0.9875179 0.6668528 -0.48586923 -0.46837628
-0.5649209 -0.45644277 0.75391996 -0.3586943 0.1727607 -0.04660036 0.2344524 0.49898785
-0.015695225 0.0848002 -0.7221812 0.4437957 0.47531158 1.1556488 -0.28351098 0.13146654
0.51002616 -1.3819413 -0.05396356 -0.64855736 -0.14464144 0.19628622 0.481967 0.23150659
-0.87081486 0.20169683 0.55044234 0.2117744 0.37142643 -0.77039516 0.5702911 -0.223179
0.23756418 0.4491876 -0.007548696 -0.3017562 -0.09975131 -0.091941215 -0.102396004 -0.5703496
-0.0934743 -0.42072996 0.96387744 0.24519964 -0.15678748 0.37123886 0.26164052 0.26712397
-0.8401169 -0.2807854 -0.35811615 0.03304979 0.24592844 0.10870606 0.4559659 0.06516437
-0.42754063 0.6218749 0.08458592 -0.1467307 -0.9083783 -0.24922402 0.59833705 0.5854756
-0.2753945 -0.5041132 0.9037687 -0.8257095 0.09710867 -0.30230024 0.025207305 0.17325741
0.44244558 0.40892315 -0.9599399 -0.1620107 0.9164118 0.38425782 0.35960138 -0.023750838
-0.029341938 -0.01647406 0.0021304083 0.87135744 -0.06274236 -0.22197294 -0.30627385 -0.2592925

fc_out.bias f4 [10]
00000000: fccb f73e ad7b 813e af3f cb3d b1c8 fd3e
00000010: 4a83 513e 5206 3abc 8ae3 103d 6ee6 a63b
00000020: f480 a93d 8cec 543d
0.48397815 0.2528967 0.09924256 0.49567178 0.20460239 -0.011354046 0.03537325 0.0050933873
0.08276549 0.0519834
